checkpoints/SSM/CIFAR10/180_epochs/gp_correct_class/Nat/lr_0.001_alpha_1/SSMNat-epoch180.pt (torch, 433667 bytes, 50 tensors)

norms.0.weight f4 [128]
0.86570555 0.99518937 0.88578 0.888296 1.0327057 0.846849 0.82175034 0.8653003
1.1105038 0.9638728 0.9014413 1.1714013 0.83927125 0.9120138 1.0363344 0.9520571
1.0485804 0.838127 0.91768557 1.0209125 1.1874636 1.4132875 0.9660071 0.8143683
1.0148879 0.8492815 1.0074242 1.0362235 0.7762682 0.9681144 0.9920593 1.0668547
1.1052392 1.0057125 1.0170664 0.93700695 0.9437783 0.92499954 0.7681467 1.0080017
0.81653047 0.9046961 1.1686943 1.2139163 0.96695983 1.0505314 0.7825211 1.0160935
0.91439295 0.9457317 1.0243396 0.9507562 0.94169915 0.90374655 1.0368663 1.0720968
0.9543241 1.1290123 0.8196676 0.9447629 0.92045 0.94297916 0.977345 1.0086746
0.9285343 0.90634185 1.1293561 0.93213665 1.0477662 1.0336643 0.8517149 1.1060289
1.2265918 1.2578732 1.1585139 0.89863473 0.9071417 0.9666629 0.90551424 0.9735402
0.7784061 1.0737829 1.2124841 0.9245025 1.0790595 1.047392 1.0093031 1.1394644
0.95011145 0.9264637 1.0110892 0.9797411 0.9163086 1.0570232 0.75632125 1.0029434
1.0190725 0.92585504 1.0294722 0.9976932 0.9023658 0.9829935 0.8424078 0.7948889
0.97827125 1.1049341 0.9602487 0.97412604 1.0050825 1.0225601 0.9868455 0.9713879
0.9888435 0.973739 1.0112637 0.9147956 1.0383054 1.0896894 0.8650315 0.9645406
0.9067327 0.6730615 1.194435 1.0585891 1.2235272 0.9607216 1.028008 1.0944848
00000000: e19e 5d3f bbc4 7e3f 7ac2 623f 5e67 633f
00000010: b32f 843f 19cb 583f 3b5e 523f 5284 5d3f
00000020: fd24 8e3f 5ec0 763f dbc4 663f 7af0 953f
00000030: 7bda 563f bd79 693f 9ba6 843f 04ba 733f
00000040: e237 863f 7e8f 563f 71ed 6a3f 43ad 823f
00000050: cffe 973f 9be6 b43f 3e4c 773f 717a 503f
00000060: d9e7 813f 836a 593f 47f3 803f f9a2 843f
00000070: 83b9 463f 58d6 773f 99f7 7d3f b28e 883f
00000080: 7a78 8d3f 30bb 803f 3b2f 823f b0df 6f3f
00000090: 749b 713f c5cc 6c3f 43a5 443f 3306 813f
000000a0: 2408 513f 2a9a 673f c697 953f 9c61 9b3f
000000b0: ae8a 773f d077 863f 4e53 483f 5a0f 823f
000000c0: a815 6a3f 791b 723f 8f1d 833f c264 733f
000000d0: 3213 713f ef5b 673f 09b8 843f 783a 893f
000000e0: 964e 743f 7a83 903f bcd5 513f fbdb 713f
000000f0: 9ca2 6b3f 1567 713f 4833 7a3f 401c 813f
00000100: 6db4 6d3f 0506 683f be8e 903f 82a0 6e3f
00000110: 341d 863f 1d4f 843f fd09 5a3f 5b92 8d3f
00000120: f600 9d3f fd01 a13f 2f4a 943f ed0c 663f
00000130: 703a 683f 3877 773f c8cf 673f ee39 793f
00000140: 9f45 473f b871 893f ae32 9b3f 32ac 6c3f
00000150: 9f1e 8a3f f110 863f d830 813f f8d9 913f
00000160: 813a 733f ba2c 6d3f 5f6b 813f 50d0 7a3f
00000170: 3393 6a3f 894c 873f 459e 413f 7360 803f
00000180: f870 823f d604 6d3f bfc5 833f d268 7f3f
00000190: 7201 673f 76a5 7b3f 0aa8 573f d77d 4b3f
000001a0: fc6f 7a3f 7b6e 8d3f dcd2 753f 5360 793f
000001b0: 8ba6 803f 40e3 823f e8a1 7c3f e1ac 783f
000001c0: d924 7d3f f646 793f 1771 813f 0b30 6a3f
000001d0: 31e7 843f f17a 8b3f b472 5d3f 22ec 763f
000001e0: a21f 683f c24d 2c3f 3fe3 983f d97f 873f
000001f0: 8a9c 9c3f daf1 753f c495 833f 1418 8c3f

norms.0.bias f4 [128]
-0.031063944 0.19905178 0.043880958 -0.29032838 0.020023594 0.15841614 -0.06611477 -0.23620261
0.041103356 -0.090455756 -0.009000096 0.16281332 0.058078576 -0.25281543 0.37685713 -0.32623225
-0.09509637 0.21190599 0.13198188 0.21862082 0.23196007 -0.42283353 -0.09671079 -0.13621604
-0.09017904 0.1975409 0.073906966 0.009864058 0.16777682 -0.12398654 0.3521736 -0.10056682
-0.1625063 0.05788063 0.098930046 -0.072821096 -0.41739377 -0.18279126 -0.19139324 0.14674774
0.40436396 0.18535376 0.050223593 -0.02598981 -0.037439633 0.13064174 0.044708673 0.25568318
-0.0008538823 -0.16935965 0.10072696 -0.0769098 0.24255942 -0.022753678 -0.3274636 -0.111296244
-0.23656955 0.2514253 0.3753794 0.24170908 -0.24368723 0.20233913 -0.06018604 -0.14803907
-0.13916326 0.2520379 -0.3068432 0.22546497 0.009778713 -0.05545219 -0.09006231 -0.067942135
0.03298913 0.0006159063 -0.14472874 0.09036845 -0.09613916 0.019731523 0.21934363 -0.004094001
-0.35888186 -0.19541389 -0.06619913 -0.19536449 -0.17153253 -0.09251718 0.115667045 0.10197656
-0.04710309 -0.041257676 -0.22836004 -0.029472059 -0.34449565 0.052371085 0.034385875 0.13879205
0.05324542 -0.16222338 -0.12871817 0.08690269 -0.3554581 -0.21913286 -0.030564101 -0.20718369
-0.35765752 0.16041663 0.23643617 0.50957173 0.02099563 0.15324573 -0.20110705 -0.14449567
0.03314313 -0.3985947 0.045195356 -0.22506106 0.29859403 0.10985795 -0.02283199 0.1203461
-0.18281196 -0.059892237 0.06658001 0.039916854 0.36916763 -0.36938924 0.16988131 -0.14509138
00000000: d079 febc 3bd4 4b3e 85bc 333d eca5 94be
00000010: 8508 a43c d737 223e 2e67 87bd 19df 71be
00000020: fe5b 283d de40 b9bd 2375 13bc 89b8 263e
00000030: cde3 6d3d 0671 81be 6bf3 c03e ea07 a7be
00000040: e3c1 c2bd e2fd 583e 4226 073e 23de 5f3e
00000050: f186 6d3e a37d d8be 4f10 c6bd 387c 0bbe
00000060: caaf b8bd 2948 4a3e 895c 973d dc9c 213c
00000070: b0cd 2b3e a8ec fdbd 1950 b43e faf5 cdbd
00000080: 0d68 26be 3d14 6d3d d69b ca3d 3a23 95bd
00000090: a3b4 d5be a22d 3bbe 97fc 43be 0a45 163e
000000a0: cb08 cf3e 60cd 3d3e 41b7 4d3d 95e8 d4bc
000000b0: 4d5a 19bd f3c6 053e 7120 373d e8e8 823e
000000c0: 12d7 5fba 9e6c 2dbe f049 ce3d e382 9dbd
000000d0: 7f61 783e ec65 babc 4fa9 a7be 49ef e3bd
000000e0: 4a3f 72be d1ba 803e bb31 c03e 9682 773e
000000f0: 2589 79be fd31 4f3e a385 76bd 8e97 17be
00000100: d080 0ebe 1d0b 813e 8d1a 9dbe 4ae0 663e
00000110: e536 203c d621 63bd 9772 b8bd 3f25 8bbd
00000120: 9c1f 073d c674 213a c533 14be 1813 b93d
00000130: 9ce4 c4bd 01a4 a13c 9e9b 603e f826 86bb
00000140: 5dbf b7be 941a 48be 6993 87bd a10d 48be
00000150: 39a6 2fbe a679 bdbd d8e2 ec3d 16d9 d03d
00000160: 2bef 40bd cffd 28bd 37d7 69be 636f f1bc
00000170: bc61 b0be 1083 563d 34d8 0c3d 811f 0e3e
00000180: df17 5a3d e31d 26be b2ce 03be 0afa b13d
00000190: 9bfe b5be 5d64 60be 9161 fabc f627 54be
000001a0: e31e b7be 4244 243e 531c 723e 4b73 023f
000001b0: 07ff ab3c 73ec 1c3e 02ef 4dbe acf6 13be
000001c0: 17c1 073d 9b14 ccbe c41e 393d 6876 66be
000001d0: 51e1 983e 34fd e03d 270a bbbc 0478 f63d
000001e0: 0f33 3bbe 9051 75bd 1a5b 883d db7f 233d
000001f0: 8a03 bd3e 9620 bdbe 5ef5 2d3e d692 14be

norms.1.weight f4 [128]
1.2568702 0.97236437 0.903666 0.95085794 0.9106293 1.1002864 1.0251416 0.96671855
0.9845112 1.001306 1.1667393 1.0107306 1.1015034 1.0335039 1.2122519 0.9475703
1.0702748 0.92682856 1.005603 0.92387754 1.1112347 1.8901546 1.0741574 1.0339768
1.0486139 1.0620503 1.0283911 0.90603906 1.1583121 1.0407226 0.9737994 0.96587425
1.0058463 0.79414046 1.0224298 1.0296587 0.96087486 1.0631516 0.9695914 0.9357634
0.93214107 0.9430438 0.9255857 1.1790882 0.9089454 0.91874003 0.9663416 0.852511
1.1074541 1.0917234 0.9236315 0.8757795 0.88522285 0.8060746 0.99093795 0.9911595
1.0177468 0.9590513 0.81127805 0.9811991 1.0687598 1.0393424 1.0037587 0.8532156
0.938742 0.997915 1.1162951 0.8919188 0.97686416 1.0004683 0.7075899 0.81626534
1.0838712 1.2157228 1.2073523 0.9888134 0.91530037 1.0069975 1.0211666 0.982641
0.9625571 1.1613146 1.0257759 1.0902852 1.0119646 0.9171761 0.8885743 0.95716286
0.9290253 0.8531487 0.90934235 1.1274657 0.9036878 0.9521617 0.9639582 0.88363945
0.8837427 0.9916204 0.8047002 1.1275566 1.0262246 1.0349226 0.9836498 1.072717
1.2457423 0.9030794 0.79858017 0.9655359 0.86498576 0.8022643 0.9289845 1.0183809
0.96018356 0.94455856 1.0620066 1.0267414 0.95200866 0.8916532 1.0099697 0.81359315
0.79906166 1.0838896 0.95454514 0.9311511 0.9006215 0.91227686 0.9617805 0.97209877
00000000: 1fe1 a03f dfec 783f a856 673f 6d6b 733f
00000010: 001f 693f 2fd6 8c3f d737 833f de7a 773f
00000020: ed08 7c3f cc2a 803f b757 953f 9f5f 813f
00000030: 10fe 8c3f db49 843f 122b 9b3f f893 723f
00000040: c4fe 883f a344 6d3f 99b7 803f 3d83 6c3f
00000050: f03c 8e3f 96f0 f13f fd7d 893f 5a59 843f
00000060: fb38 863f 44f1 873f 52a2 833f 2df2 673f
00000070: 9243 943f 6636 853f eb4a 793f 8943 773f
00000080: 92bf 803f ca4c 4b3f fbde 823f dbcb 833f
00000090: e5fb 753f 5a15 883f 2437 783f 318e 6f3f
000000a0: cca0 6e3f 526b 713f 2ff3 6c3f 5dec 963f
000000b0: a5b0 683f 8c32 6b3f 2a62 773f 293e 5a3f
000000c0: 0ec1 8d3f 98bd 8b3f 1d73 6c3f 1633 603f
000000d0: f79d 623f e85a 4e3f 1cae 7d3f a1bc 7d3f
000000e0: 8745 823f 6384 753f ebaf 4f3f dd2f 7b3f
000000f0: 1fcd 883f 2c09 853f 2a7b 803f 566c 5a3f
00000100: 6551 703f 5c77 7f3f c2e2 8e3f ca54 643f
00000110: c513 7a3f 580f 803f 9d24 353f c4f6 503f
00000120: 4bbc 8a3f ce9c 9b3f 858a 9a3f e022 7d3f
00000130: 2051 6a3f 4be5 803f 96b5 823f 5c8e 7b3f
00000140: 246a 763f f5a5 943f a04c 833f 778e 8b3f
00000150: 0e88 813f 0ecc 6a3f 9b79 633f a008 753f
00000160: 9ad4 6d3f f467 5a3f a9ca 683f cc50 903f
00000170: 1558 673f dfc0 733f f7c5 763f 3236 623f
00000180: f63c 623f d6da 7d3f d500 4e3f c653 903f
00000190: 545b 833f 5878 843f 79d0 7b3f ca4e 893f
000001a0: 7c74 9f3f 3630 673f c06f 4c3f 5c2d 773f
000001b0: b56f 5d3f 3161 4d3f eed1 6d3f 4e5a 823f
000001c0: 97ce 753f 97ce 713f d5ef 873f 436c 833f
000001d0: d7b6 733f 6243 643f b046 813f a447 503f
000001e0: 4e8f 4c3f e5bc 8a3f 125d 743f eb5f 6e3f
000001f0: 218f 663f fa8a 693f 3f37 763f 77db 783f

norms.1.bias f4 [128]
0.022244686 0.20478778 0.033424713 -0.039055344 -0.07250216 -0.025262827 0.0051627643 -0.06779519
-0.040643092 -0.0067200265 -0.38823664 -0.019203933 0.010100213 -0.07955564 0.44665533 -0.06128296
0.040495057 -0.0025257054 0.086032785 0.05969307 0.14596847 -1.0703948 -0.13774931 0.05417404
-0.019138623 -0.04563856 0.016103202 -0.0745251 0.2131697 -0.08576759 -0.013261152 -0.1319662
-0.029969636 0.0013040035 -0.008993926 0.15666535 0.03206565 -0.099524826 -0.072182044 0.06530321
0.045923628 0.05505652 -0.016866103 0.014070603 0.024660233 -0.042105198 -0.08078228 0.13048872
-0.025126664 -0.063315496 0.09625588 0.0024494592 0.10114266 -0.044450887 -0.090006545 -0.03851752
-0.16621229 0.025102979 0.12905723 0.027258879 0.03700984 -0.004550129 0.01809228 -0.04150094
-0.15363376 0.072387114 -0.73168105 -0.05681451 -0.040886022 -0.11793032 -0.03950803 0.008365275
-0.009278912 0.45766085 -0.09214823 -0.12352993 -0.038009174 -0.038714528 -0.019633204 0.1096394
-0.03898158 -0.1665549 -0.038445197 -0.2493796 0.02098405 -0.01777499 -0.0063437056 0.19440752
-0.088360876 -0.08640632 -0.016943783 -0.030441452 0.023613714 -0.06578837 -0.0076376842 0.029891599
0.017292086 -0.06332985 -0.01917088 -0.05579635 -0.085655876 -0.035591573 -0.035505034 -0.07472849
-0.41942975 0.0036932998 -0.029410053 0.2149086 -0.036581278 0.01702819 -0.048353057 -0.051401384
-0.081085384 -0.10549984 -0.044883676 -0.27728257 -0.077532284 -0.020370746 0.0053828284 -0.013607543
-0.025734838 -0.06181004 -0.01714629 0.020089773 0.05234722 -0.045638345 -0.062459208 -0.073467486
00000000: 7d3a b63c e3b3 513e 5ae8 083d 7ff8 1fbd
00000010: 037c 94bd fdf3 cebc 682c a93b 34d8 8abd
00000020: 5f79 26bd ab33 dcbb f4c6 c6be 9151 9dbc
00000030: 5d7b 253c 11ee a2bd 02b0 e43e d703 7bbd
00000040: 25de 253d 4e86 25bb f531 b03d b880 743d
00000050: c278 153e b202 89bf 280e 0dbe 99e5 5d3d
00000060: 9ac8 9cbc 80ef 3abd ddea 833c 9ea0 98bd
00000070: 2849 5a3e eba6 afbd 4e45 59bc 2622 07be
00000080: e282 f5bc 19eb aa3a 435b 13bc e26c 203e
00000090: 4557 033d acd3 cbbd 2ed4 93bd b0bd 853d
000000a0: 6a1a 3c3d f282 613d c82a 8abc 6388 663c
000000b0: 4204 ca3c 8076 2cbd 2e71 a5bd d69e 053e
000000c0: 6fd6 cdbc 8eab 81bd ce21 c53d 1b87 203b
000000d0: e223 cf3d 2212 36bd 5a55 b8bd 8cc4 1dbd
000000e0: 8e33 2abe c3a4 cd3c 9427 043e 034e df3c
000000f0: a197 173d 4019 95bb 4336 943c e4fc 29bd
00000100: 2b52 1dbe b23f 943d 734f 3bbf 55b6 68bd
00000110: 1a78 27bd 7485 f1bd 2cd3 21bd 820e 093c
00000120: 9406 18bc 8652 ea3e 36b8 bcbd 43fd fcbd
00000130: 82af 1bbd 2093 1ebd d0d5 a0bc 9f8a e03d
00000140: 26ab 1fbd 5e8d 2abe b678 1dbd 5e5d 7fbe
00000150: bee6 ab3c db9c 91bc dcde cfbb c412 473e
00000160: 8cf6 b4bd ccf5 b0bd b0cd 8abc 5a60 f9bc
00000170: 8c71 c13c 0ebc 86bd 8a45 fabb 3adf f43c
00000180: 22a8 8d3c 15b3 81bd 400c 9dbc b78a 64bd
00000190: 596c afbd 78c8 11bd ba6d 11bd 400b 99bd
000001a0: 7fbf d6be 4a0b 723b 5aed f0bc 0011 5c3e
000001b0: 40d6 15bd b47e 8b3c db0d 46bd 428a 52bd
000001c0: 1810 a6bd 4d10 d8bd f2d7 37bd fbf7 8dbe
000001d0: 3fc9 9ebd 8de0 a6bc 7062 b03b 2cf2 5ebc
000001e0: ded1 d2bc 862c 7dbd 6076 8cbc 4f93 a43c
000001f0: 0a6a 563d 46ef 3abd 3ad5 7fbd 1f76 96bd

norms.2.weight f4 [128]
0.9595881 0.83572435 1.1206942 0.92016137 1.0407797 1.1971433 1.0607795 1.1036233
0.9586815 0.86691815 0.85158974 1.1511986 1.0744435 1.084998 0.83457744 0.99680555
0.962537 1.0499308 0.8259814 1.0599705 1.0845393 0.96729946 1.2307482 1.3517823
1.0899068 1.0644075 0.780259 1.2459219 0.93763757 1.0637801 1.0065435 1.0312624
1.0816658 1.1266261 1.2574102 0.93734306 1.017892 1.0435063 0.97658086 0.9224127
1.1146443 0.96038216 1.2277236 1.0238078 1.2418689 1.0830463 1.1679285 1.28815
1.0776814 0.9872265 1.1197114 1.3840914 1.0365373 1.0110584 1.0888351 1.0601033
1.0265336 1.080835 0.83120584 1.0315031 1.0742573 0.9685025 1.1733398 1.0411692
1.241447 1.042578 0.8096641 1.0100547 1.0997975 1.2054138 1.0377659 0.91774255
1.0726056 0.9330603 0.7775996 1.0397638 1.2210572 1.3133711 0.9871879 1.052339
1.0480369 0.9147851 0.6683506 1.0513971 1.0574117 0.9308021 0.96911484 0.87385064
1.0246326 1.0086769 1.1510277 0.9869445 1.0409763 0.9819149 0.9998918 1.5583405
1.3366772 1.0731416 1.0549537 1.0785663 1.1584177 0.9275859 1.2020769 1.0484077
0.6624136 1.1839513 1.126679 1.0750468 0.77770275 1.1643051 1.1228033 0.95450044
0.81501305 0.90500236 1.1281927 1.09851 1.0437385 0.9790825 1.0258646 1.4912217
1.0081935 1.0002514 0.86470926 0.97100073 0.89038354 0.9404801 1.2540052 1.0359777
00000000: 91a7 753f 08f2 553f e872 8f3f b28f 6b3f
00000010: 4538 853f fe3b 993f 9fc7 873f 8743 8d3f
00000020: 276c 753f 59ee 5d3f c901 5a3f 7a5a 933f
00000030: 5d87 893f 37e1 8a3f dea6 553f a62e 7f3f
00000040: d368 763f 2264 863f 8473 533f 1dad 873f
00000050: 2fd2 8a3f f0a0 773f 2889 9d3f 3407 ad3f
00000060: 1182 8b3f 813e 883f 0ebf 473f 5e7a 9f3f
00000070: 0409 703f f229 883f 6bd6 803f 6800 843f
00000080: 0674 8a3f 4935 903f d1f2 a03f b7f5 6f3f
00000090: 494a 823f 9d91 853f 3401 7a3f 3d23 6c3f
000000a0: aaac 8e3f 9bdb 753f 0c26 9d3f 220c 833f
000000b0: 8ff5 9e3f 43a1 8a3f ae7e 953f 19e2 a43f
000000c0: 77f1 893f e0ba 7c3f b452 8f3f e829 b13f
000000d0: 41ad 843f 5d6a 813f f35e 8b3f 77b1 873f
000000e0: 7465 833f cd58 8a3f e8c9 543f 4b08 843f
000000f0: 4381 893f c8ef 773f 0030 963f 0845 853f
00000100: bce7 9e3f 3273 853f 2546 4f3f 7949 813f
00000110: 2ac6 8c3f 004b 9a3f 83d5 843f 2df1 6a3f
00000120: 244b 893f 0add 6e3f c410 473f fb16 853f
00000130: 9a4b 9c3f 8b1c a83f 59b8 7c3f 0bb3 863f
00000140: 1326 863f 5b2f 6a3f 0619 2b3f 2e94 863f
00000150: 4459 873f 0c49 6e3f e917 783f adb4 5f3f
00000160: 2927 833f 531c 813f e054 933f 65a8 7c3f
00000170: b63e 853f c65e 7b3f e9f8 7f3f b477 c73f
00000180: 3d18 ab3f b45c 893f b908 873f 760e 8a3f
00000190: 0847 943f 4576 6d3f a8dd 993f 3932 863f
000001a0: f093 293f b78b 973f 0437 903f 229b 893f
000001b0: 8717 473f f307 953f 05b8 8f3f 245a 743f
000001c0: b2a4 503f 3cae 673f 9e68 903f fa9b 8c3f
000001d0: 3999 853f 27a5 7a3f 884f 833f 5ae0 be3f
000001e0: 7c0c 813f 3d08 803f 965d 5d3f 8193 783f
000001f0: 2df0 633f 4ec3 703f 3e83 a03f eb9a 843f

norms.2.bias f4 [128]
-0.082001396 -0.18560565 -0.05444764 -0.074719824 -0.047500476 -0.070416406 0.3347293 0.0337955
-0.023309106 -0.03501635 -0.07660667 0.00044355646 -0.15504287 -0.030440904 0.07009524 -0.09014153
-0.07283754 -0.0019593 -0.14531733 0.005426544 -0.04259909 -0.14541045 -0.031984307 0.033385005
-0.1943317 -0.08252259 0.24138685 -0.0361151 -0.4098724 -0.09115185 0.052203584 0.12496568
0.029116968 -0.0041245804 -0.00936834 -0.51561004 -0.3643302 0.2073553 -0.05413489 0.05254974
-0.12222718 -0.0071263937 -0.06931724 0.04327205 -0.003891983 0.05353669 -0.08184439 0.041164946
-0.06353064 0.023102231 -0.0873447 0.048932277 0.037093822 -0.2387989 -0.023088617 -0.061930984
-0.0010712426 0.0063305544 0.075699896 -0.021392072 0.14581202 -0.073084906 -0.060312256 -0.15674016
0.027996436 0.01052129 -0.33820346 0.008304833 -0.09996948 0.08350607 -0.055563103 0.02916752
-0.042641155 0.039007656 0.13289294 0.08378418 -0.06003149 -0.06703568 -0.14093293 0.034602206
-0.0034727626 0.062306263 0.027434718 0.11922973 -0.21408015 0.081649885 0.080768354 0.08664624
-0.03475383 0.09325446 0.10566079 -0.11664097 -0.014039908 -0.03293739 -0.180857 0.039075013
0.030527212 0.032916073 -0.017800769 -0.026032386 0.015023749 0.04461031 -0.21454494 -0.073457986
0.058354713 -0.005216666 0.016804082 -0.18072763 -0.21713926 0.003700128 -0.032932688 -0.06524562
-0.10335667 0.0070697283 -0.03788024 0.016131293 -0.09115704 -0.13549508 -0.035171192 -0.0006493254
0.058323964 -0.18507832 -0.040056825 0.16270341 0.088126495 -0.042939954 -0.043162055 -0.050327722
00000000: 59f0 a7bd 680f 3ebe 7d04 5fbd b506 99bd
00000010: dc8f 42bd 7a36 90bd a461 ab3e 266d 0a3d
00000020: bdf2 bebc 4e6d 0fbd f5e3 9cbd 248d e839
00000030: 8fc3 1ebe 345f f9bc 188e 8f3d 1f9c b8bd
00000040: d92b 95bd 9967 00bb 11ce 14be 27d1 b13b
00000050: 627c 2ebd 7ae6 14be fa01 03bd b7be 083d
00000060: e4fe 46be 9b01 a9bd 1d2e 773e 6ded 13bd
00000070: ccda d1be d2ad babd 6dd3 553d 02ee ff3d
00000080: b586 ee3c 7d27 87bb aa7d 19bc 05ff 03bf
00000090: 7d89 babe f354 543e 8cbc 5dbd 653e 573d
000000a0: 3e52 fabd 8684 e9bb 32f6 8dbd 083e 313d
000000b0: a410 7fbb 4a49 5b3d 089e a7bd 939c 283d
000000c0: 5a1c 82bd e440 bd3c c7e1 b2bd 366d 483d
000000d0: b1ef 173d b387 74be 5724 bdbc 58ab 7dbd
000000e0: f068 8cba 8a70 cf3b 8c08 9b3d 6d3e afbc
000000f0: bf4f 153e 8aad 95bd fc09 77bd 7e80 20be
00000100: c858 e53c 7d61 2c3c 0129 adbe ff10 083c
00000110: ccbc ccbd 3b05 ab3d 2396 63bd b9f0 ee3c
00000120: 7ea8 2ebd 7ec6 1f3d 1615 083e 0a97 ab3d
00000130: 94e3 75bd 014a 89bd b950 10be 0bbb 0d3d
00000140: 4a97 63bb da34 7f3d c6be e03c b72e f43d
00000150: d437 5bbe 0e38 a73d e169 a53d 9573 b13d
00000160: 085a 0ebd 32fc be3d af64 d83d 76e1 eebd
00000170: a407 66bc 5be9 06bd 9432 39be 1f0d 203d
00000180: 3414 fa3c 01d3 063d ebd2 91bc df41 d5bc
00000190: 2c26 763c 4db9 363d abb1 5bbe 2471 96bd
000001a0: 5a05 6f3d 91f0 aabb b7a8 893c aa10 39be
000001b0: c159 5ebe d97d 723b 6de4 06bd 7f9f 85bd
000001c0: a9ac d3bd 2ea9 e73b 4f28 1bbd c625 843c
000001d0: 8bb0 babd 39bf 0abe ab0f 10bd 7d37 2aba
000001e0: 1ce5 6e3d 2c85 3dbe a012 24bd b99b 263e
000001f0: aa7b b43d cee1 2fbd b2ca 30bd 7124 4ebd

norms.3.weight f4 [128]
0.831447 0.7139987 0.8578536 1.8244497 1.6951997 1.8862435 1.0985041 0.98332787
2.8366315 3.1308372 0.8868364 1.5606985 1.5053046 1.178146 0.7693496 1.0937471
1.9819503 2.3819275 2.3251545 1.7355672 1.1748337 0.82867694 1.9498514 1.857779
0.9449784 1.2812095 0.76615995 0.90688854 0.8443304 0.7044692 1.4610419 1.1430441
1.7878563 1.8184788 1.0278491 0.8671212 1.1307658 1.2728035 0.9442173 1.117476
1.0485795 2.5114112 2.3727632 0.89502305 1.4848102 1.589751 0.88866496 1.7128228
1.2271351 2.3557858 1.2326779 1.1202775 1.4065484 1.1241533 1.9567009 1.0403938
1.0256732 1.4449968 1.4497443 1.0387669 1.3561659 1.0551977 1.9181762 1.2544596
0.87708354 1.780724 0.7650852 2.005822 2.169493 1.2758093 1.8955667 2.7103117
2.2776906 0.86225873 0.9156837 2.1944647 2.0050502 2.2781017 1.4417993 0.9402681
1.242519 1.9375315 1.4350853 1.0166527 1.5211723 0.9357812 0.7742715 2.3349395
1.6454593 1.2125099 1.5853826 1.2491561 0.9387738 1.2103416 0.9843072 1.2798821
1.2276049 1.5329984 1.5774972 1.1230321 2.7256885 2.5221498 0.9529067 2.1132689
0.8043224 1.2164357 2.3835037 1.2110875 0.83289325 0.95744646 0.96428597 1.9619333
2.1352339 2.8725905 1.7510241 1.5564744 1.1110576 1.5083084 1.3438609 2.5728571
2.0465665 0.93166333 1.5115243 1.3212498 2.1481862 1.8449727 1.2048477 1.0705935
00000000: b6d9 543f 9ec8 363f 4b9c 5b3f 9187 e93f
00000010: 4efc d83f 6d70 f13f c89b 8c3f 60bb 7b3f
00000020: 5f8b 3540 a35f 4840 b607 633f f8c4 c73f
00000030: d2ad c03f 7dcd 963f 18f4 443f e8ff 8b3f
00000040: 8cb0 fd3f 8071 1840 55cf 1440 1127 de3f
00000050: f360 963f 2c24 543f bb94 f93f b4cb ed3f
00000060: 1bea 713f acfe a33f 0f23 443f d929 683f
00000070: 0926 583f 1858 343f 6c03 bb3f 454f 923f
00000080: 7ad8 e43f eac3 e83f 8f90 833f a8fb 5d3f
00000090: efbc 903f 3aeb a23f 3ab8 713f 7409 8f3f
000000a0: da37 863f f6ba 2040 5adb 1740 3b20 653f
000000b0: 430e be3f f67c cb3f 8c7f 633f c73d db3f
000000c0: c312 9d3f 32c5 1640 64c8 9d3f 4165 8f3f
000000d0: c709 b43f 41e4 8f3f 2d75 fa3f a02b 853f
000000e0: 4249 833f a8f5 b83f 3991 b93f 50f6 843f
000000f0: d896 ad3f b810 873f cc86 f53f 2292 a03f
00000100: 8c88 603f c4ee e33f a0dc 433f 635f 0040
00000110: f9d8 0a40 b84d a33f eea1 f23f bf75 2d40
00000120: afc5 1140 fdbc 5c3f 3f6a 6a3f 1c72 0c40
00000130: be52 0040 6bcc 1140 e18c b83f 69b5 703f
00000140: dd0a 9f3f 0801 f83f e0b0 b73f ad21 823f
00000150: c6b5 c23f 5b8f 6f3f a836 463f a66f 1540
00000160: 699e d23f 8633 9b3f d1ed ca3f 59e4 9f3f
00000170: 7b53 703f 79ec 9a3f 8ffb 7b3f 2dd3 a33f
00000180: 2822 9d3f 4b39 c43f 6eeb c93f 84bf 8f3f
00000190: ae71 2e40 e76a 2140 b2f1 733f cc3f 0740
000001a0: 13e8 4d3f 2ab4 9b3f 538b 1840 ea04 9b3f
000001b0: 7e38 553f 361b 753f 72db 763f a120 fb3f
000001c0: aca7 0840 86d8 3740 8f21 e03f 8e3a c73f
000001d0: 2337 8e3f 4010 c13f a203 ac3f b1a9 2440
000001e0: f2fa 0240 7d81 6e3f a179 c13f b71e a93f
000001f0: e27b 0940 1128 ec3f 7338 9a3f 3509 893f

norms.3.bias f4 [128]
0.091115184 -0.3160359 0.045000818 -0.09249634 0.044178993 0.13805941 0.0897144 0.035941575
0.09760791 -0.039121725 0.2944192 0.074761346 0.030566864 -0.045251966 -0.12731497 0.037013713
-0.05455708 -0.07426847 0.14087605 0.0005695255 -0.002010931 0.1779309 0.07737332 -0.15851964
-0.20027423 0.062225122 0.15114489 -0.057128098 -0.09758148 0.082322165 -0.03217137 -0.11063124
-0.13254118 0.06158349 -0.026860265 -0.20544843 -0.18290734 0.15097854 -0.10360903 0.04972968
-0.10518544 -0.05324442 -0.012945671 0.05576653 -0.1988334 0.02668615 -0.04236575 0.023265949
-0.14382848 0.090504944 0.16219757 -0.027545843 -0.097134486 -0.027210535 -0.1709462 0.023284776
0.028062819 0.006706054 -0.032856166 0.0040730294 -0.029737873 0.14092706 0.041446716 0.07829056
0.049452126 -0.122838356 0.2653646 -0.023625148 0.0071415906 -0.027206173 -0.10877986 -0.105834484
-0.025402179 -0.2884107 0.28849736 -0.04750127 -0.19435288 -0.041433048 -0.07589286 -0.026063448
0.056209974 -0.12934677 0.0026875597 0.13592532 -0.15781789 -0.11062186 0.0469066 0.051834386
-0.0664763 -0.02677943 0.08350272 -0.060943738 0.10219971 0.09082472 -0.10347926 0.07169366
-0.0050129085 0.067379445 0.026373902 0.060978066 0.2792153 0.15152295 -0.037827354 0.027745506
0.19999455 -0.0071078427 -0.029149836 -0.026325809 -0.27916688 -0.15695487 0.03700291 -0.22005688
0.04640445 -0.17271572 0.10669288 0.0245191 -0.12943122 0.028551908 -0.14528115 0.005966857
-0.079408884 -0.15365344 0.049740884 0.15843417 -0.033613008 -0.010443674 0.0029224406 -0.043896064
00000000: 999a ba3d 75cf a1be c752 383d b96e bdbd
00000010: 08f5 343d 725f 0d3e 2fbc b73d 7937 133d
00000020: a8e6 c73d 1a3e 20bd 1dbe 963e 7a1c 993d
00000030: 5c67 fa3c 205a 39bd db5e 02be b19b 173d
00000040: 3f77 5fbd 111a 98bd d041 103e 364c 153a
00000050: d3c9 03bb 8533 363e e775 9e3d f952 22be
00000060: b014 4dbe c5df 7e3d bac5 1a3e 27ff 69bd
00000070: cdd8 c7bd 8698 a83d 20c6 03bd a292 e2bd
00000080: e0b8 07be f83e 7c3d 0f0a dcbc 1361 52be
00000090: 104c 3bbe 1e9a 1a3e f930 d4bd 59b1 4b3d
000000a0: 776b d7bd d216 5abd 141a 54bc 726b 643d
000000b0: fc9a 4bbe ea9c da3c b587 2dbd 3b98 be3c
000000c0: c647 13be a85a b93d 1f17 263e d2a7 e1bc
000000d0: 72ee c6bd a1e8 debc 850c 2fbe b7bf be3c
000000e0: ffe3 e53c 75be db3b 3094 06bd 0c77 853b
000000f0: d79c f3bc 2f4f 103e 08c4 293d cd56 a03d
00000100: 508e 4a3d ad92 fbbd dedd 873e 8789 c1bc
00000110: 0104 ea3b 7bdf debc fac7 debd c0bf d8bd
00000120: 3b18 d0bc 91aa 93be edb5 933e b190 42bd
00000130: 7104 47be b3b5 29bd b76d 9bbd 0383 d5bc
00000140: 6e3c 663d 7b73 04be c521 303b 0230 0b3e
00000150: 039b 21be b78d e2bd 2321 403d 4b50 543d
00000160: ba24 88bd 8960 dbbc 7903 ab3d 24a0 79bd
00000170: 154e d13d 5002 ba3d efec d3bd 20d4 923d
00000180: 5343 a4bb 3cfe 893d 150e d83c 23c4 793d
00000190: 4ff5 8e3e d528 1b3e dbf0 1abd 8b4a e33c
000001a0: 5fcb 4c3e e8e8 e8bb a3cb eebc 39a9 d7bc
000001b0: f6ee 8ebe c7b8 20be 5d90 173d 9756 61be
000001c0: 9812 3e3d 64dc 30be cc81 da3d 48dc c83c
000001d0: 9e89 04be b1e5 e93c 95c4 14be a085 c33b
000001e0: 20a1 a2bd 5457 1dbe 19bd 4b3d 913c 223e
000001f0: cbad 09bd f21b 2bbc 6b86 3f3b 5ccc 33bd

post_norm.weight f4 [128]
0.8086308 0.7018519 0.8676073 0.94222784 0.9610753 1.3358403 0.8939456 1.286474
0.7835133 0.7845934 0.96658784 0.9995317 0.86369365 0.9772349 1.0258094 1.0367843
1.1335067 0.97838986 1.1309108 1.2555166 0.89748573 1.3115387 1.0162978 0.77339387
0.9560087 0.81274265 0.89704454 1.029114 1.2072196 0.9285257 1.0070624 0.839083
0.7638407 0.9572014 1.0565411 1.0464633 1.1621144 1.1647338 1.1055746 0.8677338
1.090238 0.8961188 0.9437433 0.95228195 0.9013186 0.9083597 1.0410587 0.7560119
1.1040673 1.3266499 0.78698367 0.9194629 1.0271595 1.1257414 1.0490575 0.8802349
0.77818495 0.9491147 1.0817504 1.2181172 0.9461076 1.0866727 1.0616019 1.0608094
0.99529207 1.0602275 1.3257678 0.8599065 1.2002867 1.3432719 1.0150844 0.93141913
0.74997276 1.1847472 0.97456473 0.9504407 1.0365162 0.87990123 1.1516335 0.82877064
1.142365 1.029816 1.1528063 0.93933344 0.7747306 0.9042493 1.1053785 1.24646
1.1261892 1.1011362 0.9770486 0.98687595 0.85451823 1.1649961 0.8952 1.0263661
1.0679102 0.99830383 1.076719 0.9596354 1.1155448 1.1530681 1.0443907 1.170832
0.98916173 1.1274477 1.0396229 0.978599 0.8100044 0.82262963 1.0291275 0.9352941
0.9610707 0.9212758 1.1156869 0.9807668 1.1266263 1.1778041 0.985396 1.1414357
1.2041919 0.8617106 1.1123158 1.0753313 0.9369655 1.038759 0.9955514 1.0544473
00000000: 6e02 4f3f 91ac 333f 831b 5e3f d835 713f
00000010: 0809 763f d1fc aa3f 9ed9 643f 2eab a43f
00000020: 5494 483f 1ddb 483f 4d72 773f 4fe1 7f3f
00000030: 071b 5d3f 112c 7a3f b94d 833f 59b5 843f
00000040: bf16 913f c277 7a3f afc1 903f c5b4 a03f
00000050: a0c1 653f 80e0 a73f 0c16 823f 24fd 453f
00000060: fcbc 743f e70f 503f b6a4 653f 02ba 833f
00000070: 2c86 9a3f dcb3 6d3f 6ce7 803f 25ce 563f
00000080: 108b 433f 270b 753f bd3c 873f 82f2 853f
00000090: 2ac0 943f ff15 953f 7883 8d3f cd23 5e3f
000000a0: eb8c 8b3f 0b68 653f 2999 713f c0c8 733f
000000b0: d1bc 663f 438a 683f 6941 853f ff89 413f
000000c0: 1452 8d3f aacf a93f c377 493f ec61 6b3f
000000d0: f679 833f 4b18 903f 8447 863f 1357 613f
000000e0: 2137 473f 2ef9 723f cc76 8a3f 44eb 9b3f
000000f0: 1c34 723f 1718 8b3f 92e2 873f 9ac8 873f
00000100: 76cb 7e3f 89b5 873f c2b2 a93f d522 5c3f
00000110: ffa2 993f 55f0 ab3f 49ee 813f 7c71 6e3f
00000120: 37fe 3f3f cca5 973f 137d 793f 1550 733f
00000130: 90ac 843f 3541 613f ba68 933f 502a 543f
00000140: 0439 923f 03d1 833f 288f 933f 2878 703f
00000150: bf54 463f e27c 673f 0b7d 8d3f 008c 9f3f
00000160: f826 903f 08f2 8c3f db1f 7a3f e7a3 7c3f
00000170: b5c1 5a3f 981e 953f d42b 653f f75f 833f
00000180: 48b1 883f d790 7f3f eed1 893f aaaa 753f
00000190: 2cca 8e3f bc97 933f 98ae 853f d3dd 953f
000001a0: b439 7d3f 3550 903f 5d12 853f 7785 7a3f
000001b0: 735c 4f3f db97 523f 73ba 833f 6f6f 6f3f
000001c0: bb08 763f bbd8 6b3f d4ce 8e3f 8813 7b3f
000001d0: 4a35 903f 49c2 963f ea42 7c3f 911a 923f
000001e0: f622 9a3f 1199 5c3f 5d60 8e3f 75a4 893f
000001f0: f9dc 6f3f 0ef6 843f 75dc 7e3f 21f8 863f

post_norm.bias f4 [128]
-0.20488235 0.50711507 -0.19408394 0.004505331 -0.041681692 0.07175256 0.05138768 0.028571961
0.047128674 -0.30544096 -0.12195416 0.22302106 -0.10858956 0.09490775 0.22316425 0.08769055
0.3271999 -0.11456898 0.05603977 -0.12296879 0.01563001 -0.23003007 -0.07037069 -0.0046105883
0.10776312 -0.21946292 0.08488665 0.09210575 -0.0740892 0.44949874 0.038740102 -0.41114378
-0.33895078 -0.015723003 -0.07265088 0.03440763 -0.24696681 0.07586149 0.53634673 -0.017143235
0.15106404 0.10416605 -0.1032839 0.1729895 0.064714186 0.13237074 -0.16370822 -0.09721582
0.16387555 -0.14646553 0.07042367 -0.15615295 0.06903546 0.06496815 -0.111985676 0.15389343
-0.38079712 0.35814968 -0.1481753 -0.057728514 -0.3389626 -0.06905866 0.094864726 -0.022560576
0.323682 0.083137244 0.027609674 0.2990527 -0.01660493 0.19715288 0.03648808 0.03860342
-0.07957295 -0.03244103 -0.0781899 0.2753028 0.22859517 0.33962533 -0.054731764 -0.17378742
-0.04071604 0.08652847 0.287595 -0.16265635 0.33399314 -0.09214994 0.17515913 0.054240722
-0.20111628 -0.09371951 0.024994666 0.12709843 0.06042859 0.15557143 0.27157825 -0.2859033
-0.039515406 0.27607265 -0.025101943 -0.37848002 -0.123707764 0.3296847 0.056683205 0.09257195
0.17037918 -0.04239066 -0.3369865 0.07183532 0.19324975 -0.1722126 0.036994416 -0.060741194
-0.4290257 0.08357418 0.036097415 -0.0021558926 0.19263719 -0.14376159 0.12646814 0.1431332
-0.14848396 -0.11287343 -0.033839725 0.13806371 0.12408579 0.059855707 -0.004204163 -0.24230455
00000000: aecc 51be 4bd2 013f f1bd 46be 75a1 933b
00000010: 6cba 2abd 02f3 923d e37b 523d bf0f ea3c
00000020: ff09 413d c262 9cbe 1ac3 f9bd a25f 643e
00000030: 3464 debd ff5e c23d 2b85 643e 1a97 b33d
00000040: bf86 a73e 24a3 eabd f589 653d 10d7 fbbd
00000050: 820a 803c 018d 6bbe 821e 90bd 6b14 97bb
00000060: e9b2 dc3d e3ba 60be 0dd9 ad3d f1a1 bc3d
00000070: 14bc 97bd b324 e63e f1ad 1e3d 7081 d2be
00000080: f58a adbe 87cd 80bc fcc9 94bd 04ef 0c3d
00000090: dee4 7cbe 455d 9b3d 054e 093f f86f 8cbc
000000a0: 88b0 1a3e 0355 d53d 8286 d3bd 2924 313e
000000b0: df88 843d 328c 073e 21a3 27be 1619 c7bd
000000c0: fece 273e 0ffb 15be 493a 903d 8fe6 1fbe
000000d0: 7762 8d3d 050e 853d bf58 e5bd 3d96 1d3e
000000e0: d7f7 c2be 655f b73e 44bb 17be bc74 6cbd
000000f0: 828c adbe a06e 8dbd 7048 c23d f5d0 b8bc
00000100: a6b9 a53e dc43 aa3d af2d e23c 6f1d 993e
00000110: 1007 88bc 72e2 493e 8674 153d 9f1e 1e3d
00000120: 25f7 a2bd e3e0 04bd 0722 a0bd 7df4 8c3e
00000130: da14 6a3e 5fe3 ad3e 6a2e 60bd 54f5 31be
00000140: ddc5 26bd d735 b13d a73f 933e 638f 26be
00000150: 2601 ab3e 1cb9 bcbd ea5c 333e 852b 5e3d
00000160: 6df1 4dbe 04f0 bfbd 9dc1 cc3c 1726 023e
00000170: f883 773d 1e4e 1f3e 4e0c 8b3e eb61 92be
00000180: e8da 21bd 6559 8d3e 97a2 cdbc 22c8 c1be
00000190: 7f5a fdbd 6fcc a83e a62c 683d 5d96 bd3d
000001a0: e177 2e3e d4a1 2dbd 7f89 acbe 651e 933d
000001b0: 43e3 453e 8058 30be 7587 173d c2cb 78bd
000001c0: 42a9 dbbe f128 ab3d e2da 133d e049 0dbb
000001d0: af42 453e 3d36 13be dd80 013e 8291 123e
000001e0: 2e0c 18be 2f2a e7bd 869b 0abd 9360 0d3e
000001f0: b120 fe3d 422b 753d 13c3 89bb af1e 78be

input.weight f4 [128, 3]
0.23582567 -0.5056096 0.26170406 0.29996765 0.4264776 -0.27889475 -0.36190313 0.07845315
-0.56844556 0.4998863 0.18121393 0.16305414 -0.3850007 0.13825215 0.09998342 0.3379572
0.32151282 0.31692153 -0.3021203 0.5922758 0.2905307 -0.16687968 -0.3756961 0.5449072
0.32958117 -0.5002472 -0.108629666 0.13154432 -0.22543007 -0.012380824 -0.008568799 0.057695057
-0.108859405 0.11508196 0.29847723 0.25018093 0.3068267 -0.5834579 -0.24062283 0.5112778
0.1635385 0.07010135 -0.11805747 0.41535264 0.49171728 0.37358615 0.34458348 0.19630957
0.29341567 0.33254802 0.42751008 -0.15814295 -0.27868664 -0.3473938 0.2795984 0.22297713
0.29077953 -0.47824153 -0.047357634 0.4679414 -0.15157758 -0.2020877 -0.0069076726 0.10079206
-0.020882849 0.35273924 -0.06393525 0.15759577 0.30814737 -0.08252729 0.5661439 0.030282611
0.016774613 0.25397363 0.41690913 0.08082812 -0.053447504 0.030189315 -0.04800007 0.16506203
0.016761912 -0.22338702 -0.22379568 -0.025142865 0.050769724 -0.38024354 -0.3758247 -0.14712822
-0.008288549 -0.19642477 -0.2437352 -0.09926075 -0.157106 0.008225492 -0.3382229 -0.16984385
-0.34371734 -0.16223535 0.13884285 0.10978428 -0.29143304 -0.48693085 -0.35866746 -0.3742629
-0.17157976 -0.19595712 -0.18725646 0.007165912 -0.117324084 -0.34738716 -0.3905462 0.669254
-0.59094733 0.33732992 0.35896403 0.36973944 0.07972293 -0.26765198 0.18254738 -0.13914607
0.18546034 -0.16061877 0.37845674 -0.21209714 -0.32391486 0.1900694 -0.021558218 -0.09601889
-0.47391587 -0.0945157 -0.2407982 -0.15112458 -0.118013196 0.18215285 -0.2923821 0.45298743
0.26226532 -0.4875346 0.26279908 -0.09132097 -0.08728828 0.27568793 -0.47153673 -0.38390073
0.14193149 0.32087466 0.24032405 -0.26949945 -0.2415645 -0.38699368 -0.46789935 -0.1222801
-0.17573039 0.27959654 -0.08368485 -0.18087927 -0.08465101 -0.3153079 0.04101507 0.0015110214
-0.11090083 0.01314904 0.07423583 0.1429934 0.3816238 0.19873318 0.29100338 0.00074031804
0.21607979 0.21475886 -0.45232758 0.31432945 -0.07246366 -0.1932519 -0.05070675 -0.25066847
-0.085712045 -0.5104747 -0.44145527 -0.34894466 -0.4181334 -0.38896617 -0.08058141 -0.46837613
-0.21461305 -0.13553005 -0.13311689 0.055243798 0.104363285 -0.33603847 -0.1264074 -0.04417135
0.23741965 0.0866661 -0.2729054 0.015544613 0.13440494 0.22760934 -0.2881041 -0.4907581
-0.35862532 0.050908074 -0.27022585 0.24330781 0.012234276 -0.13803586 -0.07739733 0.5196817
0.1476733 -0.5888466 0.5995279 0.054448295 -0.3217107 0.17774871 -0.27189162 0.4486748
0.4483343 -0.35569078 -0.41052464 0.07644733 -0.10617918 0.11235178 -0.1983811 0.51734656
0.333814 0.16179113 -0.06449561 0.20513077 0.42472005 0.5031266 -0.13133441 -0.21416084
0.12707901 0.26055998 -0.34838766 -0.19099624 -0.31952322 0.23476133 -0.40409374 0.02363126
0.3347623 0.14748533 0.1552757 0.29982656 -0.085724205 0.14102998 -0.0657444 0.037889153
0.20143983 -0.17825297 -0.030444117 -0.113271095 -0.16793676 0.06913048 0.20136091 -0.028351452
00000000: 497c 713e a16f 01bf 13fe 853e 5c95 993e
00000010: 465b da3e 4bcb 8ebe 5e4b b9be 0cac a03d
00000020: a685 11bf 19f1 ff3e 2590 393e aaf7 263e
00000030: d01e c5be f991 0d3e 1bc4 cc3d ba08 ad3e
00000040: 549d a43e 8a43 a23e 83af 9abe 639f 173f
00000050: 71c0 943e 82e2 2abe 3d5b c0be 0a7f 0b3f
00000060: ddbe a83e 3310 00bf 3b79 debd 8eb3 063e
00000070: 24d7 66be f1d8 4abc 2664 0cbc a751 6c3d
00000080: aef1 debd 17b0 eb3d 02d2 983e b717 803e
00000090: 6418 9d3e 7f5d 15bf d565 76be 1ae3 023f
000000a0: a376 273e 4c91 8f3d 1dc8 f1bd 1aa9 d43e
000000b0: 5ec2 fb3e af46 bf3e 3f6d b03e 6005 493e
000000c0: 943a 963e bc43 aa3e 9ae2 da3e 3af0 21be
000000d0: 04b0 8ebe 9add b1be 8627 8f3e 1e54 643e
000000e0: 0ee1 943e 13dc f4be 14fa 41bd 0496 ef3e
000000f0: 2737 1bbe 14f0 4ebe c259 e2bb 116c ce3d
00000100: 8212 abbc 3d9a b43e 7cf0 82bd c960 213e
00000110: 7ec5 9d3e 1104 a9bd ceee 103f 3d13 f83c
00000120: ea6a 893c d508 823e 1d75 d53e 3789 a53d
00000130: c5eb 5abd 954f f73c b99b 44bd 0506 293e
00000140: 4750 893c 91bf 64be b22a 65be 69f8 cdbc
00000150: eaf3 4f3d 48af c2be 186c c0be c8a8 16be
00000160: b2cc 07bc 9323 49be b895 79be 3849 cbbd
00000170: 65e0 20be 37c4 063c 8d2b adbe 8ceb 2dbe
00000180: b8fb afbe 0621 26be d22c 0e3e 95d6 e03d
00000190: b636 95be 004f f9be 43a3 b7be 639f bfbe
000001a0: 9bb2 2fbe fca8 48be 28c0 3fbe 07d0 ea3b
000001b0: 9c47 f0bd bbdc b1be acf5 c7be 3b54 2b3f
000001c0: 5348 17bf 82b6 ac3e 22ca b73e 7d4e bd3e
000001d0: c745 a33d ae09 89be b3ed 3a3e 4f7c 0ebe
000001e0: 51e9 3d3e 3f79 24be 15c5 c13e fe2f 59be
000001f0: 2bd8 a5be 8ea1 423e dc9a b0bc 8da5 c4bd
00000200: 1aa5 f2be 7391 c1bd ce93 76be 67c0 1abe
00000210: e7b0 f1bd 4786 3a3e 1bb3 95be f8ed e73e
00000220: a447 863e 239e f9be 9a8d 863e 7d06 bbbd
00000230: 33c4 b2bd f826 8d3e 436d f1be a38e c4be
00000240: 7d56 113e af49 a43e 8217 763e d5fb 89be
00000250: af5c 77be 0924 c6be 8190 efbe fd6d fabd
00000260: abf2 33be 4727 8f3e f662 abbd 6a38 39be
00000270: 825d adbd 0970 a1be 6bff 273d 770d c63a
00000280: f91f e3bd 126f 573c f408 983d dd6c 123e
00000290: 3264 c33e b680 4b3e 65fe 943e e711 423a
000002a0: 0544 5d3e bfe9 5b3e 7b97 e7be caef a03e
000002b0: d467 94bd d3e3 45be e2b1 4fbd 9e57 80be
000002c0: cc89 afbd 78ae 02bf 6d06 e2be e0a8 b2be
000002d0: 9515 d6be 9326 c7be de07 a5bd ffce efbe
000002e0: 86c3 5bbe 64c8 0abe cb4f 08be 5247 623d
000002f0: 6bbc d53d 3c0d acbe f170 01be 04ed 34bd
00000300: 231e 733e ff7d b13d 42ba 8bbe d5ae 7e3c
00000310: 73a1 093e 6c12 693e 6182 93be a544 fbbe
00000320: bd9d b7be fc84 503d 0b5b 8abe af25 793e
00000330: 4672 483c 4659 0dbe 7e82 9ebd dc09 053f
00000340: ab37 173e a7be 16bf a97a 193f 2d05 5f3d
00000350: 44b7 a4be c203 363e 6135 8bbe b4b8 e53e
00000360: 138c e53e 1a1d b6be 4930 d2be 6b90 9c3d
00000370: 7874 d9bd b118 e63d 6a24 4bbe d370 043f
00000380: abe9 aa3e 93ac 253e 4616 84bd cd0d 523e
00000390: e874 d93e e8cc 003f 877c 06be fb4c 5bbe
000003a0: 0021 023e 1e68 853e de5f b2be 8594 43be
000003b0: 8c98 a3be 4665 703e 60e5 cebe 5896 c13c
000003c0: f765 ab3e 6506 173e 9800 1f3e de82 993e
000003d0: 2c90 afbd 2a6a 103e 00a5 86bd a831 1b3d
000003e0: 3e46 4e3e f287 36be f165 f9bc adfa e7bd
000003f0: 9df7 2bbe 4894 8d3d 8e31 4e3e 4e41 e8bc

input.bias f4 [128]
0.087267764 -0.59648544 0.6128617 -0.5983876 0.5154181 -0.52656883 -0.6677432 -0.0996164
0.43200126 0.11255656 -0.34796876 -0.59011114 0.63798577 -0.57240427 -0.3066909 -0.65015316
-0.85326976 0.76338404 -0.37448868 0.058951862 0.06878433 -1.2319391 -0.13825025 -0.5518969
-0.35707206 0.24566603 -0.32046908 0.47349253 0.09801396 0.35506675 0.0013401903 0.50317943
0.50071084 0.7160121 0.5211745 -0.24208494 0.71824855 -0.38620257 -1.0845795 0.48249856
-0.26014784 0.6204579 0.42990202 -0.0657177 -0.0020422386 -0.2100433 -0.76702815 0.43809596
-0.39578584 0.41962448 0.5834469 -0.52731067 -0.35796547 0.6366984 -0.09677428 -0.5610821
0.13277715 0.44734162 -0.33283278 0.40079832 0.7401638 0.771994 0.3791947 0.13359977
0.394817 -0.2378522 0.22799331 -0.21257494 0.75104266 -0.22021826 -0.3594313 -0.21661887
0.09003723 0.28832513 -0.7796676 -0.49886924 -0.6028405 -0.270228 0.09830754 0.35825554
-0.25214633 -0.109047845 -0.5750611 -0.25229517 -0.27309275 -0.812811 -0.5339722 0.030877728
0.0603965 0.24464163 -0.37600967 -0.8197678 -0.14103417 -0.46470526 -0.25838885 0.37791058
0.19486603 -0.112461284 -0.4447633 -0.4776279 0.6930447 -0.578258 -0.083359376 -0.68728286
-0.9719941 0.11652103 -0.30052638 -0.98257315 -0.29554576 0.4983299 -0.28474703 0.4295297
0.7988861 -0.32194415 -0.052511528 0.44494087 -0.31621557 0.6094627 0.6836222 -0.7341521
0.4139937 0.78125066 -0.24937202 -0.8255234 -0.26406255 -0.37106094 0.111291185 0.0757629
00000000: 71b9 b23d 45b3 18bf 81e4 1c3f ee2f 19bf
00000010: 71f2 033f 37cd 06bf 38f1 2abf af03 ccbd
00000020: 452f dd3e 0e84 e63d f628 b2be 8611 17bf
00000030: 0953 233f 1689 12bf 9706 9dbe 7070 26bf
00000040: e36f 5abf 236d 433f fbbc bfbe 8277 713d
00000050: ccde 8c3d 2eb0 9dbf 7991 0dbe 1e49 0dbf
00000060: 26d2 b6be e08f 7b3e 8614 a4be 9d6d f23e
00000070: 8bbb c83d 4fcb b53e 53a9 af3a 5ed0 003f
00000080: 962e 003f 924c 373f b16b 053f 1de5 77be
00000090: 23df 373f 58bc c5be 80d3 8abf 0d0a f73e
000000a0: 1932 85be 54d6 1e3f 1e1c dc3e 0097 86bd
000000b0: 14d7 05bb 9715 57be f55b 44bf 1d4e e03e
000000c0: 71a4 cabe 05d9 d63e c75c 153f d5fd 06bf
000000d0: 4047 b7be abfe 223f 9831 c6bd 14a3 0fbf
000000e0: bcf6 073e f609 e53e 0f69 aabe 7035 cd3e
000000f0: 607b 3d3f 66a1 453f cf25 c23e 61ce 083e
00000100: 7425 ca3e 878f 73be 1477 693e 3fad 59be
00000110: 5544 403f e580 61be 6107 b8be 56d1 5dbe
00000120: 7065 b83d 5a9f 933e 4c98 47bf ca6b ffbe
00000130: c153 1abf 535b 8abe 7755 c93d 456d b73e
00000140: 5319 81be 7a54 dfbd 3437 13bf d52c 81be
00000150: d0d2 8bbe 6214 50bf 67b2 08bf 4af3 fc3c
00000160: 5262 773d 5683 7a3e 5784 c0be 4ddc 51bf
00000170: 436b 10be d9ed edbe 8b4b 84be 7f7d c13e
00000180: f68a 473e 1a52 e6bd 04b8 e3be a58b f4be
00000190: 616b 313f b708 14bf 52b8 aabd c5f1 2fbf
000001a0: 9bd4 78bf 94a2 ee3d 98de 99be ea89 7bbf
000001b0: c651 97be 1925 ff3e 5dca 91be 51eb db3e
000001c0: cd83 4c3f ddd5 a4be 5416 57bd 4acf e33e
000001d0: 02e7 a1be bf05 1c3f dd01 2f3f 64f1 3bbf
000001e0: fbf6 d33e 0b00 483f 615b 7fbe 8055 53bf
000001f0: 3533 87be b3fb bdbe a2ec e33d 9429 9b3d

mapping_layers.0.D f4 [1, 128]
1.1552805 -1.2381687 0.09601589 0.035970338 0.49968445 -0.024259428 -0.8192494 -0.57743996
1.2188758 0.08597682 1.8415902 -0.4737458 -0.9584037 0.8451416 1.0665529 0.03737387
0.04386067 -0.08256769 -0.41587853 1.9936135 -1.5709854 -0.5620891 -0.6054012 -0.02902779
0.7421164 0.96703434 -0.05787261 -0.32540768 -0.840221 -1.3675575 2.215806 -1.1397398
2.5644293 -0.43236315 -0.33875713 0.5965681 -0.24357943 0.31611148 -1.4163859 0.10696706
-1.1315149 0.097094715 -0.0063298875 -0.5177897 0.5094181 0.28865188 -0.32298955 -0.5453821
0.4209215 -0.34399113 -0.06687822 -0.15926267 -0.83435243 0.29670057 0.9829338 0.66933423
-0.83972406 -0.47997877 -0.40440068 -0.20676188 -1.7135161 -1.1247705 1.1148558 -0.46212333
0.17254394 -0.2599693 0.16325115 1.7483642 0.52837926 0.6168905 -0.5784336 0.22756645
1.1180162 -1.1989336 0.25242525 0.41698238 -0.7104231 -2.9078248 -0.3095992 -0.22046888
-0.059919707 -1.1505585 0.8206028 0.13666357 -0.5245161 -0.3367727 1.0949174 0.0702969
-0.1163824 0.5530079 0.7084713 0.7804955 -1.5459669 -0.15582755 -1.7517965 -0.64764184
0.53171664 -0.32547602 -0.4462052 -0.2175875 0.43444207 -0.3155046 -0.37106624 -1.1942791
0.5467874 0.4125662 -0.7049148 0.4364083 0.52479565 0.3010048 -0.4065295 0.0035822412
-1.166542 1.5665984 -2.3697104 -1.9142246 0.0799679 1.2838475 0.616277 0.6072128
-1.1398399 0.025167225 -0.1534187 0.9757175 -0.79201 0.38995805 -3.322332 0.007065128
00000000: 3be0 933f 507c 9ebf fba3 c43d a255 133d
00000010: a4d6 ff3e b5bb c6bc 54ba 51bf 1bd3 13bf
00000020: 1f04 9c3f 9d14 b03d 3ab9 eb3f cf8e f2be
00000030: f259 75bf 335b 583f ce84 883f 5815 193d
00000040: 3fa7 333d 4019 a9bd 08ee d4be ba2e ff3f
00000050: 0d16 c9bf 12e5 0fbf 93fb 1abf b0cb edbc
00000060: 57fb 3d3f 908f 773f d40b 6dbd d69b a6be
00000070: b918 57bf 200c afbf c4cf 0d40 fee2 91bf
00000080: 9c1f 2440 b45e ddbe 9371 adbe b0b8 183f
00000090: e36c 79be 5dd9 a13e 224c b5bf 8c11 db3d
000000a0: 7bd5 90bf 98d9 c63d f26a cfbb de8d 04bf
000000b0: 3969 023f 2eca 933e e35e a5be 299e 0bbf
000000c0: 0683 d73e 9b1f b0be 73f7 88bd c115 23be
000000d0: 1f98 55bf 23e9 973e 8da1 7b3f 7d59 2b3f
000000e0: 28f8 56bf c7bf f5be 9b0d cfbe 63b9 53be
000000f0: 7f54 dbbf 7bf8 8fbf 98b3 8e3f 6e9b ecbe
00000100: 5caf 303e b21a 85be 4f2b 273e 66ca df3f
00000110: dd43 073f 89ec 1d3f 3914 14bf 2e07 693e
00000120: 281b 8f3f a876 99bf e23d 813e b77e d53e
00000130: 4ade 35bf cd19 3ac0 c983 9ebe 98c2 61be
00000140: 5e6e 75bd 8045 93bf 0613 523f 89f1 0b3e
00000150: b046 06bf 796d acbe 4126 8c3f d2f7 8f3d
00000160: e559 eebd ed91 0d3f 605e 353f 8ece 473f
00000170: 3ee2 c5bf 4291 1fbe de3a e0bf dbcb 25bf
00000180: 951e 083f cba4 a6be 0275 e4be 42cf 5ebe
00000190: 316f de3e d289 a1be 65fc bdbe 23de 98bf
000001a0: 42fa 0b3f e13b d33e 4c75 34bf e970 df3e
000001b0: 0259 063f 4d1d 9a3e a224 d0be 09c4 6a3b
000001c0: 4051 95bf 4c86 c83f 56a9 17c0 5005 f5bf
000001d0: 36c6 a33d 1d55 a43f 54c4 1d3f 4c72 1b3f
000001e0: 46e6 91bf 7f2b ce3c cb19 1dbe 9fc8 793f
000001f0: 2bc1 4abf 95a8 c73e 16a1 54c0 9782 e73b

mapping_layers.0.kernel.kernel.C f4 [1, 128, 32, 2]
-0.3762218 -0.6518937 -0.5389525 -1.0697731 0.59347314 0.18577911 -0.5699554 1.5338135
-0.1466325 -0.77826196 0.1888225 -1.821033 -0.21699229 -0.89078087 -0.60179144 -0.20607746
-0.066897675 0.38672465 0.9472138 0.22440957 0.48425525 -0.050185084 0.08184509 0.4757058
-1.1435536 -0.07387868 -0.34113646 0.46022776 0.40110633 0.039916757 -1.0151834 -0.8467956
0.22918603 0.50567466 0.9998389 -0.83446634 -0.44923908 0.2596701 -0.3841911 0.5977587
0.4495936 -0.3264237 0.009200974 1.9918407 0.044112224 -0.93609345 -0.031359155 0.7550682
1.4799879 1.1358231 0.57823145 -0.020775221 -0.1461574 -0.31702745 0.05507756 -0.26619655
-0.4547844 -0.26382625 0.4339872 0.592412 0.46961623 -0.23859638 -1.0563706 -0.49157807
-0.15362948 0.72438705 0.16165167 -1.1264932 0.006717918 0.7832018 -0.26706654 0.7891061
-0.18978538 0.05747991 -0.19760096 -0.6559992 -0.15142724 0.7485291 -1.8745811 0.34708196
-0.061829004 0.6305941 -0.72570926 -0.015376505 1.5345582 0.057612453 -1.3396337 1.4650081
0.6516331 -0.22137846 0.0039387336 -0.43153873 0.8198519 -0.26413786 -0.3191527 0.8516542
-0.2106514 0.96891713 0.17812827 0.46868938 -0.66917205 -0.33116356 1.1582316 1.3205751
0.33201227 0.41733164 0.15139757 -0.033510283 0.009251974 -0.42781883 -1.5373623 -1.1950917
0.3365339 -1.0429295 -0.43714258 0.11784061 -0.019140441 0.2745211 1.0609926 0.028561845
0.84695 -0.46018606 -0.2709743 0.43323696 -0.40692216 0.055244308 -0.8185279 -0.6236103
0.8388777 0.4174913 -0.11255207 2.365341 -0.06968162 -1.4675272 -0.6580622 0.6589648
-0.56862336 0.13143787 0.97885704 0.65774006 -0.665136 0.17555301 0.38330266 -0.0074927886
-0.17920926 1.2140108 0.15654618 0.5285196 -0.6504836 0.35856715 -0.016814768 0.2547889
0.5038106 0.9717985 0.44550973 -0.18614505 0.09172884 0.6152043 0.47059706 -0.6087098
-0.43227422 -1.1688603 -0.6348573 1.4044027 0.8312074 0.15922952 0.64817953 -0.011803911
0.17655441 -0.933249 -0.86086106 0.028245151 0.17619078 -0.34891674 -0.4704685 -0.0691956
0.32870808 0.5188628 -0.22863832 -0.091188625 -0.293789 -0.57638144 0.046940718 -0.2879909
0.62877756 0.10544427 0.06779305 -0.11554042 -0.19766462 -0.24968311 0.15690966 0.5805899
-0.44018936 -0.6835461 0.19990633 1.1916115 -1.1595504 -1.5823722 -0.017909046 -0.23375395
1.0748188 -0.5407791 -0.013439524 -1.3674057 0.41120642 0.40487996 0.97292036 -1.0013789
-1.2876542 0.2955875 0.08153314 -0.20035732 0.18642253 -0.16756892 -0.3584156 -1.8523272
-0.37480518 0.16827615 -0.48836005 0.46258017 0.22160342 -0.21298751 -0.20897298 0.34677395
-1.0353761 0.29771018 -0.16641979 0.59533525 -0.015067263 -0.90347654 -0.3126293 -0.70009327
-0.5389395 -1.8934981 0.594917 -0.3220429 2.0551968 -1.004451 -0.37240088 -0.2567137
0.29459882 0.40103883 -0.56964356 -0.15035495 -1.0010777 0.22358161 -0.9289475 -0.027010381
0.6156698 -0.4669774 -0.037727714 0.6024893 -0.09069696 0.79566747 -1.8325799 -0.28040263
00000000: 25a0 c0be 81e2 26bf cbf8 09bf 53ee 88bf
00000010: dbed 173f e13c 3e3e 99e8 11bf 0054 c43f
00000020: d526 16be 2d3c 47bf af5a 413e 9c17 e9bf
00000030: 3a33 5ebe 370a 64bf 010f 1abf f805 53be
00000040: a601 89bd c600 c63e 9b7c 723f 9fcb 653e
00000050: 4ef0 f73e e08e 4dbd 669e a73d b68f f33e
00000060: f75f 92bf b54d 97bd 70a9 aebe f9a2 eb3e
00000070: cf5d cd3e c17f 233d 88f1 81bf 99c7 58bf
00000080: beaf 6a3e e573 013f 71f5 7f3f 969f 55bf
00000090: aa02 e6be 7bf3 843e b2b4 c4be b706 193f
000000a0: 2231 e63e 0221 a7be afbf 163c a3f4 fe3f
000000b0: 05af 343d d2a3 6fbf 7572 00bd 264c 413f
000000c0: 3e70 bd3f a762 913f fa06 143f cc30 aabc
000000d0: 49aa 15be 6c51 a2be 0299 613d ea4a 88be
000000e0: 80d9 e8be 3c14 87be 9233 de3e 50a8 173f
000000f0: 8a71 f03e 9c52 74be 2737 87bf 1fb0 fbbe
00000100: 0c51 1dbe 6e71 393f 0488 253e ee30 90bf
00000110: fb21 dc3b ea7f 483f f2bc 88be db02 4a3f
00000120: 1957 42be 0e70 6b3d e857 4abe 90ef 27bf
00000130: be0f 1bbe 9a9f 3f3f 46f2 efbf bab4 b13e
00000140: 6940 7dbd 9d6e 213f 15c8 39bf bded 7bbc
00000150: 676c c43f 09fb 6b3d 1e79 abbf 6385 bb3f
00000160: 6dd1 263f 09b1 62be 7e10 813b a5f2 dcbe
00000170: d0e1 513f 143d 87be fc67 a3be 0206 5a3f
00000180: 00b5 57be f40a 783f 4267 363e 0ef8 ef3e
00000190: dc4e 2bbf 458e a9be ef40 943f 9b08 a93f
000001a0: 83fd a93e 7eac d53e f707 1b3e 1442 09bd
000001b0: 9795 173c 120b dbbe 4ac8 c4bf c4f8 98bf
000001c0: 2c4e ac3e b77e 85bf 27d1 dfbe 6b56 f13d
000001d0: 6acc 9cbc 088e 8c3e 9bce 873f 88fa e93c
000001e0: b7d1 583f 829d ebbe 25bd 8abe 3cd1 dd3e
000001f0: 1a58 d0be db47 623d 0b8b 51bf eda4 1fbf
00000200: b0c0 563f 6bc1 d53e b381 e6bd bf61 1740
00000210: 3db5 8ebd eed7 bbbf c476 28bf ebb1 283f
00000220: 4d91 11bf a697 063e 6096 7a3f a761 283f
00000230: 5a46 2abf 2bc4 333e 3f40 c43e 1186 f5bb
00000240: a282 37be b564 9b3f a44d 203e 0f4d 073f
00000250: 1886 26bf 1d96 b73e 20bf 89bc b173 823e
00000260: bbf9 003f c9c7 783f da19 e43e cf9c 3ebe
00000270: 54dc bb3d 077e 1d3f 19f2 f03e 68d4 1bbf
00000280: 0c53 ddbe 379d 95bf 0286 22bf 78c3 b33f
00000290: 02ca 543f 100d 233e 18ef 253f 3165 41bc
000002a0: aeca 343e 68e9 6ebf 6461 5cbf 6062 e73c
000002b0: 5b6b 343e 37a5 b2be 3fe1 f0be 6cb6 8dbd
000002c0: 6d4c a83e 31d4 043f 2a20 6abe 1ac1 babd
000002d0: 836b 96be bc8d 13bf e944 403d 8b73 93be
000002e0: 91f7 203f 2af3 d73d 15d7 8a3d 75a0 ecbd
000002f0: 9868 4abe eeac 7fbe edac 203e 8aa1 143f
00000300: 8060 e1be e1fc 2ebf 3fb4 4c3e ba86 983f
00000310: 266c 94bf 2c8b cabf feb5 92bc 325d 6fbe
00000320: aa93 893f 8070 0abf 7331 5cbc 2607 afbf
00000330: a689 d23e 6d4c cf3e 4f11 793f 2f2d 80bf
00000340: dad1 a4bf 3f57 973e d9fa a63d 782a 4dbe
00000350: 8ce5 3e3e 3097 2bbe 4082 b7be 0f19 edbf
00000360: 77e6 bfbe 9550 2c3e 540a fabe 4fd7 ec3e
00000370: 02ec 623e 6619 5abe 03fd 55be 5b8c b13e
00000380: 3487 84bf 786d 983e f369 2abe e467 183f
00000390: aedc 76bc 3d4a 67bf f310 a0be 5039 33bf
000003a0: f0f7 09bf 255e f2bf 7b4c 183f cfe2 a4be
000003b0: 5888 0340 da91 80bf 54ab bebe fa6f 83be
000003c0: a8d5 963e f654 cd3e 29d4 11bf a6f6 19be
000003d0: 5023 80bf 94f2 643e 81cf 6dbf e044 ddbc
000003e0: 899c 1d3f a917 efbe 6088 1abd bd3c 1a3f
000003f0: 54bf b9bd ddb0 4b3f fa91 eabf ef90 8fbe
