checkpoints/SSM/TinyImageNet/180_epochs/gp_correct_class/Nat/lr_0.001_alpha_1/SSMNat-epoch180.pt (torch, 454339 bytes, 50 tensors)

norms.0.weight f4 [128]
1.1194361 0.91557336 1.1634724 0.87047046 1.0073841 1.1331831 0.8389714 0.92132306
1.2110215 1.1406617 1.0881664 1.1066899 1.1777656 0.9428274 1.0838045 1.0521609
0.8270493 1.00951 0.9922447 0.77693385 1.4783075 0.9744558 1.0262177 0.9563378
1.0440204 1.0532849 0.9417874 1.0475723 1.1126667 0.9174082 1.0344434 1.0431072
0.90258265 1.0541949 1.011245 1.1432955 0.9528125 1.0562944 0.9886384 1.0405132
1.2702823 1.014864 1.1478302 1.0418845 1.0653772 1.080868 1.0644222 1.1758565
1.0257095 0.9961622 1.0340275 0.97478586 1.0822989 0.8468174 1.0342203 0.9754307
1.1993413 0.94503033 1.2729983 1.3337108 0.9963445 1.2094356 0.7615029 1.0342013
0.94173133 1.1383332 1.1267128 1.0045638 1.2545397 0.93846536 1.0590857 0.95090914
0.9677077 1.1230359 1.1319793 1.1133907 0.880063 0.97545505 0.8416422 0.968309
1.0151618 1.0219095 0.90032434 1.2210832 0.9617024 1.199391 1.0145248 1.0293453
1.0430049 1.0993999 1.035647 0.9427555 1.0447028 0.9065233 1.0696943 0.9963253
0.94111526 1.1663876 0.9875588 1.3497223 1.1211153 0.95563 0.9261065 1.0456831
1.129927 1.2721856 0.99481404 1.0749482 1.0364984 0.9521742 0.9725109 1.0552437
1.0711054 0.9438702 0.91065454 0.95496035 1.0158151 1.0313023 1.1409328 1.023053
0.92949295 1.0963727 0.91044337 0.97963595 0.980096 0.88344914 1.0822314 1.0602536
00000000: af49 8f3f 0463 6a3f aaec 943f 27d7 5e3f
00000010: f6f1 803f 250c 913f d4c6 563f d4db 6b3f
00000020: c102 9b3f 3401 923f 0949 8b3f 04a8 8d3f
00000030: 06c1 963f 235d 713f 1bba 8a3f 35ad 863f
00000040: 81b9 533f a037 813f c003 7e3f 23e5 463f
00000050: 2e39 bd3f ef75 793f 1a5b 833f 8ed2 743f
00000060: 76a2 853f 0ad2 863f fb18 713f d916 863f
00000070: dd6b 8e3f 44db 6a3f a468 843f 8984 853f
00000080: a80f 673f dcef 863f 7a70 813f 8257 923f
00000090: 85eb 733f a834 873f 6817 7d3f 892f 853f
000000a0: 9c98 a23f 10e7 813f 1aec 923f 795c 853f
000000b0: 485e 883f e259 8a3f fd3e 883f 7782 963f
000000c0: 734a 833f 7c04 7f3f 035b 843f 918b 793f
000000d0: c588 8a3f 06c9 583f 5561 843f d4b5 793f
000000e0: 0484 993f 82ed 713f 9cf1 a23f 09b7 aa3f
000000f0: 6f10 7f3f c9ce 9a3f dbf1 423f b560 843f
00000100: 4e15 713f e7b4 913f 2038 903f 8c95 803f
00000110: c294 a03f 443f 703f 1f90 873f c86e 733f
00000120: b1bb 773f a4bf 8f3f b3e4 903f 9683 8e3f
00000130: cf4b 613f 6cb7 793f dd75 573f 19e3 773f
00000140: d2f0 813f eecd 823f a87b 663f 744c 9c3f
00000150: 2132 763f a585 993f f3db 813f 96c1 833f
00000160: 2f81 853f 23b9 8c3f 1590 843f 6d58 713f
00000170: d2b8 853f e911 683f beeb 883f 2d0f 7f3f
00000180: eeec 703f 304c 953f a7d0 7c3f b3c3 ac3f
00000190: b580 8f3f 2ba4 743f 5115 6d3f f2d8 853f
000001a0: 73a1 903f fad6 a23f 22ac 7e3f e797 893f
000001b0: fbab 843f b0c1 733f 79f6 783f 3a12 873f
000001c0: fb19 893f 7aa1 713f a820 693f 4878 743f
000001d0: 3b06 823f b701 843f 160a 923f 67f3 823f
000001e0: 40f3 6d3f f155 8c3f d112 693f 6cc9 7a3f
000001f0: 92e7 7a3f b929 623f 8f86 8a3f 64b6 873f

norms.0.bias f4 [128]
0.47290313 0.049902983 -0.12267976 0.14947 -0.034556333 0.024776308 0.0632069 -0.09689287
0.1880939 0.025866993 0.0787334 -0.043132447 0.0054526553 -0.03692326 -0.09056804 -0.102929235
0.03247623 -0.0040247166 -0.061951976 0.030064283 0.19862719 -0.06834329 0.07019239 0.06643615
-0.017721632 -0.072000496 0.12791358 -0.12219523 -0.234907 0.05308837 0.039509054 0.040498476
-0.03034922 0.22054148 0.13238886 -0.04913139 -0.13765077 -0.10420168 0.027305309 -0.088025205
0.11522162 -0.08636694 -0.009291919 0.19407646 0.09556984 0.060110174 -0.048557788 -0.0073384997
-0.17533784 0.02120637 -0.24894151 -0.07303959 0.1099379 -0.016528351 -0.07620676 -0.14874853
0.05376333 -0.14152338 0.04201553 -0.061680585 -0.020737115 0.21812032 -0.0024219435 -0.062422678
-0.069981076 0.12739956 -0.07309981 -0.12440004 -0.023999022 -0.10292602 0.013947484 0.022227496
0.0017852946 -0.09892005 0.13693735 -0.012937912 -0.12368164 -0.08959724 -0.020765781 -0.08867181
0.08702845 -0.0014718045 -0.011129073 -0.090587124 0.0019147755 -0.24267039 -0.061067235 -0.04585007
0.048828114 -0.021663576 0.22931956 0.029233485 -0.0824641 -0.00825398 -0.111293174 0.06752402
0.069512434 0.113732 -0.07913061 -0.046181995 -0.19415416 0.045605037 -0.11746396 -0.012303596
-0.0914997 -0.06496617 -0.03974253 -0.07873753 -0.012733799 -0.011598675 0.12519196 0.1992054
0.11611773 -0.050551806 -0.010834597 -0.042293556 -0.030469023 0.050710753 -0.29187548 -0.16787721
-0.125424 -0.045564976 0.07969528 0.01914747 -0.10296474 0.004272863 0.030338788 0.12774126
00000000: 5c20 f23e 1267 4c3d 873f fbbd aa0e 193e
00000010: f18a 0dbd aff7 ca3c 9f72 813d c56f c6bd
00000020: b09b 403e 04e7 d33c fa3e a13d a6ab 30bd
00000030: 30ac b23b d83c 17bd bd7b b9bd 90cc d2bd
00000040: cc05 053d c5e1 83bb 5bc1 7dbd 5f49 f63c
00000050: ed64 4b3e 91f7 8bbd 07c1 8f3d ad0f 883d
00000060: f52c 91bc ff74 93bd c7fb 023e 7e41 fabd
00000070: 768b 70be 3173 593d 3fd4 213d bbe1 253d
00000080: ed9e f8bc a0d5 613e f290 073e ff3d 49bd
00000090: 53f4 0cbe b167 d5bd 62af df3c 8f46 b4bd
000000a0: 50f9 eb3d 26e1 b0bd 223d 18bc fbbb 463e
000000b0: 1fba c33d 1636 763d 88e4 46bd cc77 f0bb
000000c0: c38b 33be fbb8 ad3c 86ea 7ebe c895 95bd
000000d0: 1f27 e13d 7766 87bc 4a12 9cbd 8951 18be
000000e0: f036 5c3d 81eb 10be 7a18 2c3d c8a4 7cbd
000000f0: e2e0 a9bc ef5a 5f3e 78b9 1ebb ecae 7fbd
00000100: 3d52 8fbd 0875 023e 5ab5 95bd 73c5 febd
00000110: 9999 c4bc e1ca d2bd fd83 643c 7016 b63c
00000120: 8c00 ea3a 9896 cabd 4e39 0c3e 89f9 53bc
00000130: cd4c fdbd c27e b7bd 001d aabc 9199 b5bd
00000140: f93b b23d 90e9 c0ba b756 36bc be85 b9bd
00000150: 34f9 fa3a 967e 78be a321 7abd 48cd 3bbd
00000160: fdff 473d d077 b1bc bfd2 6a3e 107b ef3c
00000170: f0e2 a8bd b43b 07bc aded e3bd 094a 8a3d
00000180: 895c 8e3d 53ec e83d 3b0f a2bd 5529 3dbd
00000190: 59d0 46be 59cc 3a3d f290 f0bd 0695 49bc
000001a0: 3264 bbbd fc0c 85bd 10c9 22bd 2441 a1bd
000001b0: 6da1 50bc 5e08 3ebc 5232 003e 80fc 4b3e
000001c0: 22cf ed3d 690f 4fbd 9883 31bc 023c 2dbd
000001d0: 2c9a f9bc 14b6 4f3d b470 95be 01e8 2bbe
000001e0: 266f 00be 57a2 3abd 4737 a33d 28db 9c3c
000001f0: 2ddf d2bd 5f03 8c3b 0d89 f83c 9bce 023e

norms.1.weight f4 [128]
1.1566788 0.851925 1.1859403 0.9317477 0.9290957 1.0238087 0.9637741 0.8379023
1.3205361 1.0467973 1.0587877 1.1696378 0.99490047 1.147622 1.0666181 1.122936
0.9751906 1.1927786 1.0074949 1.0334207 1.5128216 0.98718476 1.1023946 0.89844584
0.94781333 1.1024271 0.94515413 0.9586289 1.0848703 0.8528848 0.97924477 0.905507
1.0447458 0.97321403 0.9941106 0.9957708 1.1661508 1.054887 0.8559834 0.87938726
1.0413331 0.9197886 1.0691117 1.0097153 0.9619078 1.0664456 1.0149736 1.1388651
0.93910563 0.9061427 0.9688283 0.9547879 1.023478 0.9551587 1.0594689 1.0151619
1.1274202 0.9207923 1.0072387 0.96196175 1.2210014 1.0533183 0.8717381 1.1214371
1.036555 0.98445094 0.89167845 1.1124783 1.1060748 1.0950359 0.7677143 1.0624404
0.9522808 0.9525462 1.0158659 0.9629198 1.0801541 0.9845961 1.0574526 1.1945924
1.0270649 0.8939193 0.95508635 0.933237 0.90430695 1.1366324 1.0208972 0.9886072
1.1235884 1.1666996 0.9365639 0.97907203 1.2938617 0.8760112 1.1341269 1.1967508
0.9794752 1.0467858 0.9393334 1.126782 0.98391366 1.0114002 0.94071674 0.8974373
1.0945108 0.9747346 0.97379625 1.0393231 1.0381428 1.0255485 1.0752926 1.0681564
1.1939636 0.8992237 1.043442 0.9945928 1.0206281 0.96222764 0.9149283 0.88474256
0.998225 0.98531866 1.0519133 0.9234892 1.0160465 0.91955245 0.98749566 1.0951307
00000000: 0d0e 943f c217 5a3f e4cc 973f 0487 6e3f
00000010: 37d9 6d3f 2a0c 833f e6b9 763f c480 563f
00000020: 5407 a93f 74fd 853f 5b86 873f b1b6 953f
00000030: ccb1 7e3f 47e5 923f f186 883f 5ebc 8f3f
00000040: 17a6 793f f8ac 983f 98f5 803f 2147 843f
00000050: 23a4 c13f 24b8 7c3f 441b 8d3f 8c00 663f
00000060: e5a3 723f 551c 8d3f 9ff5 713f b468 753f
00000070: 08dd 8a3f a956 5a3f c9af 7a3f 4fcf 673f
00000080: 3bba 853f 8e24 793f 087e 7e3f d6ea 7e3f
00000090: 6e44 953f 8a06 873f ba21 5b3f 861f 613f
000000a0: 674a 853f 4477 6b3f a7d8 883f 5a3e 813f
000000b0: 973f 763f 4a81 883f a8ea 813f 55c6 913f
000000c0: 3a69 703f f8f8 673f 2205 783f fb6c 743f
000000d0: 5401 833f 4885 743f ad9c 873f d3f0 813f
000000e0: 4e4f 903f 0bb9 6b3f 33ed 803f 2043 763f
000000f0: c649 9c3f 22d3 863f 3a2a 5f3f 408b 8f3f
00000100: d6ad 843f fa04 7c3f 0a45 643f b065 8e3f
00000110: dc93 8d3f 232a 8c3f ed88 443f 0cfe 873f
00000120: adc8 733f 11da 733f e507 823f e981 763f
00000130: 7d42 8a3f 7d0e 7c3f 9b5a 873f 67e8 983f
00000140: dd76 833f e5d7 643f 8a80 743f 9fe8 6e3f
00000150: a980 673f 2c7d 913f c2ac 823f 5d15 7d3f
00000160: bfd1 8f3f 6a56 953f a7c2 6f3f 77a4 7a3f
00000170: 439d a53f 4542 603f 122b 913f 212f 993f
00000180: e3be 7a3f 14fd 853f 2778 703f 643a 903f
00000190: c4e1 7b3f 9075 813f d0d2 703f 73be 653f
000001a0: ee18 8c3f 3588 793f b64a 793f 8a08 853f
000001b0: dde1 843f 2c45 833f 30a3 893f 59b9 883f
000001c0: cdd3 983f 8633 663f 828f 853f a29d 7e3f
000001d0: f1a3 823f 8d54 763f be38 6a3f 7d7e 623f
000001e0: ac8b 7f3f d83d 7c3f 18a5 863f ca69 6c3f
000001f0: d00d 823f ca67 6b3f 84cc 7c3f 3e2d 8c3f

norms.1.bias f4 [128]
0.076161906 0.07600516 -0.023507219 0.108106 0.053322263 -0.07655558 0.06454136 -0.0137855
0.39169374 0.0022067467 0.03116902 0.18341391 -0.034613874 0.011796758 0.02294122 -0.0015851478
0.018497607 0.06525325 0.029097114 0.021690758 0.46282536 -0.08361096 -0.2955305 -0.066461965
0.08284243 -0.011649461 0.059182487 -0.037292343 -0.072781116 -0.062649645 0.038009204 0.01262719
-0.032590725 0.027039636 0.05447828 0.04863997 -0.030698946 -0.07173838 0.005704568 0.044254612
-0.031252906 -0.061079733 -0.08275304 0.09953109 0.04137055 0.23722017 0.021925148 -0.061093416
0.014232063 0.049425904 -0.15269446 -0.089730285 0.0353779 0.067361005 -0.100817226 -0.15600193
0.08838372 -0.100136876 0.004376091 0.0756191 -0.32011193 -0.0074386317 -0.075240955 0.01534165
-0.1022154 0.0069584344 -0.041805618 -0.13413516 0.004160527 -0.09502795 -0.05194502 -0.019487802
-0.057688687 -0.010974196 0.08983921 -0.00930767 -0.08906096 -0.05696969 -0.008114798 0.06514396
0.0017305664 0.040854268 -0.062000684 0.049718987 0.004767343 -0.099172115 0.005079891 0.070579775
0.00063702255 -0.02544269 -0.10373585 0.007554352 0.07623336 -0.052331872 -0.093852304 -0.27287644
0.00019406727 -0.0050420016 -0.08897155 0.030680776 0.011502347 0.020209331 -0.08721453 0.01711925
-0.042456225 -0.013908246 0.043553755 0.025667412 0.010091115 0.030170968 -0.005893361 0.08315357
0.24125607 -0.05436264 -0.02872013 0.055529498 -0.039691366 -0.008845675 -0.15131469 0.05092275
-0.07694602 -0.009076052 0.03224443 -0.022732507 -0.050308954 -0.06292885 0.0015941029 0.057140548
00000000: c6fa 9b3d 98a8 9b3d 3692 c0bc ae66 dd3d
00000010: 7268 5a3d 2cc9 9cbd 432e 843d 94dc 61bc
00000020: 158c c83e 119f 103b 2c56 ff3c dbd0 3b3e
00000030: 47c7 0dbd 3047 413c 3aef bb3c bcc4 cfba
00000040: 4b88 973c 7fa3 853d 125d ee3c d1b0 b13c
00000050: 72f7 ec3e 393c abbd c64f 97be 361d 88bd
00000060: 4ba9 a93d 62dd 3ebc 5669 723d dbbf 18bd
00000070: 440e 95bd 754e 80bd 8aaf 1b3d 46e2 4e3c
00000080: da7d 05bd 3a82 dd3c 9e24 5f3d b53a 473d
00000090: 5b7c fbbc 92eb 92bd 62ed ba3b 5344 353d
000000a0: 0c03 00bd be2e 7abd 6d7a a9bd f5d6 cb3d
000000b0: 2a74 293d d8e9 723e 5e9c b33c 173d 7abd
000000c0: 992d 693c d172 4a3d f05b 1cbe 83c4 b7bd
000000d0: 6be8 103d 91f4 893d 4379 cebd f8be 1fbe
000000e0: 8602 b53d 9014 cdbd 5065 8f3b 30de 9a3d
000000f0: b6e5 a3be c4bf f3bb ee17 9abd 8b5b 7b3c
00000100: 4f56 d1bd 9403 e43b 5e3c 2bbd ba5a 09be
00000110: 0855 883b 049e c2bd 4dc4 54bd e2a4 9fbc
00000120: f94a 6cbd 1dcd 33bc 9ffd b73d 337f 18bc
00000130: 9865 b6bd 0d59 69bd eef3 04bc 326a 853d
00000140: 2cd4 e23a ce56 273d 6ef4 7dbd 23a6 4b3d
00000150: 5f37 9c3b c01a cbbd 3775 a63b 218c 903d
00000160: dcfd 263a 306d d0bc 7673 d4bd 7f8a f73b
00000170: 3c20 9c3d f259 56bd a335 c0bd 76b6 8bbe
00000180: 897e 4b39 6037 a5bb b736 b6bd 4056 fb3c
00000190: 5774 3c3c 0a8e a53c 889d b2bd ab3d 8c3c
000001a0: 94e6 2dbd 69df 63bc 6c65 323d 7744 d23c
000001b0: 3455 253c 1b29 f73c 181d c1bb 6b4c aa3d
000001c0: d50b 773e 5cab 5ebd 7a46 ebbc e672 633d
000001d0: 6a93 22bd 73ed 10bc 3df2 1abe 6094 503d
000001e0: e095 9dbd b9b3 14bc bc12 043d 8639 babc
000001f0: c310 4ebd d7e0 80bd 38f1 d03a 350c 6a3d

norms.2.weight f4 [128]
0.88072664 1.0743158 0.8926302 0.8709013 0.9772681 0.9848757 1.0972039 1.0101494
0.83426064 0.8522858 1.2907423 0.802461 0.97693014 0.94779783 0.83464617 1.0159749
1.0124071 0.97106594 1.1446229 1.0128584 0.8212493 1.0146402 1.1015308 0.8965066
1.1334288 0.9337043 1.2721385 1.0721773 1.0407199 0.9376938 1.1773263 0.8983713
1.0224952 0.9979235 1.0594012 0.95327216 1.0858756 0.8883381 0.99493104 0.9543706
1.0051631 1.0476497 1.1397387 0.9664528 1.0185225 0.9679133 0.9292191 0.9360035
1.1297317 1.1340109 0.8018381 1.2224098 1.0275127 1.153315 1.0511019 1.037425
0.68914735 0.94658226 1.3920668 0.9239643 0.73643345 0.8809198 1.0465951 1.0068254
0.9382638 0.91964716 0.9979044 0.8937985 1.12995 1.181566 1.2321858 0.9736385
1.3002615 0.9658533 1.3246341 1.1492472 1.025073 1.3043336 1.0476415 0.8448403
0.99014723 1.0001818 0.9777497 1.0548104 1.0401348 1.000887 1.0044147 1.1492792
1.0000621 0.8419486 0.91158265 1.0346965 0.9078028 0.99653566 1.0490807 0.8396441
1.0833478 0.95140076 0.9781917 0.9263911 1.041857 1.0994579 1.0257275 1.0810148
1.0130757 0.9999859 0.99579805 1.165819 0.96222323 0.8019214 1.2023252 1.1283393
0.9044309 1.1140599 0.745363 0.92112267 0.8487886 1.065575 1.3492976 0.9674638
0.995849 1.1529859 1.0097681 1.1198803 1.135958 1.147574 0.9910559 1.040828
00000000: 4d77 613f 2e83 893f 6a83 643f 63f3 5e3f
00000010: 3e2e 7a3f d020 7c3f 2d71 8c3f 934c 813f
00000020: 1b92 553f 672f 5a3f 0b37 a53f 166e 4d3f
00000030: 1818 7a3f e1a2 723f 5fab 553f 770b 823f
00000040: 8e96 813f c797 783f 0183 923f 58a5 813f
00000050: 653d 523f bbdf 813f f6fe 8c3f 7581 653f
00000060: 3214 913f 3f07 6f3f 6fd5 a23f 1b3d 893f
00000070: 4f36 853f b30c 703f a1b2 963f a9fb 653f
00000080: 1fe1 823f ea77 7f3f 759a 873f a509 743f
00000090: f9fd 8a3f 206a 633f cdb3 7e3f a251 743f
000000a0: 2fa9 803f 6319 863f f5e2 913f 7369 773f
000000b0: f25e 823f 2bc9 773f 4ee1 6d3f ed9d 6f3f
000000c0: 0c9b 903f 4527 913f 4345 4d3f ed77 9c3f
000000d0: 8985 833f d39f 933f 828a 863f 58ca 843f
000000e0: f66b 303f 3753 723f 3f2f b23f ed88 6c3f
000000f0: e786 3c3f f683 613f d4f6 853f a8df 803f
00000100: 0e32 703f ff6d 6b3f aa76 7f3f facf 643f
00000110: 34a2 903f 8e3d 973f 44b8 9d3f 5f40 793f
00000120: f86e a63f 2942 773f 9c8d a93f 881a 933f
00000130: 9835 833f 67f4 a63f 1e19 863f 7447 583f
00000140: 4a7a 7d3f f505 803f ce4d 7a3f 0704 873f
00000150: 2323 853f 111d 803f a990 803f 951b 933f
00000160: 0902 803f f289 573f 7b5d 693f ef70 843f
00000170: c465 683f f61c 7f3f 4748 863f eaf2 563f
00000180: 24ab 8a3f 008f 733f c56a 7a3f f827 6d3f
00000190: 925b 853f 09bb 8c3f 0a4b 833f b15e 8a3f
000001a0: 77ac 813f 13ff 7f3f 9fec 7e3f 8f39 953f
000001b0: 4354 763f b94a 4d3f cbe5 993f 6c6d 903f
000001c0: c988 673f 8499 8e3f 1cd0 3e3f b2ce 6b3f
000001d0: 364a 593f c364 883f c9b5 ac3f b5ab 773f
000001e0: f6ef 7e3f 0b95 933f 1540 813f 3d58 8f3f
000001f0: 1267 913f b4e3 923f d7b5 7d3f da39 853f

norms.2.bias f4 [128]
0.074135765 0.08069256 0.21297544 0.21121861 0.11457683 -0.115021 0.074461676 -0.059010692
-0.21313289 0.24472046 0.0025624454 0.2514799 0.066374645 0.11150463 0.119305044 -0.10917462
-0.14937897 0.18434116 0.049047656 0.10413887 -0.2062769 -0.11277983 -0.11350282 -0.07201248
0.16000096 0.16384642 0.13589516 -0.123268746 -0.04022257 -0.103273146 0.017315479 0.25975138
0.001338984 0.07494939 -0.032556042 0.17631581 0.10881022 -0.0946441 -0.15401688 0.07083658
-0.06369137 -0.10395473 -0.17004357 0.2223581 0.10252836 0.028703291 0.16488953 -0.18328714
0.022746248 -0.04691772 -0.08535799 -0.035944387 0.07101885 0.02499263 0.040766586 -0.030758338
-0.2233818 0.02725123 0.008093241 0.04705539 0.25519517 -0.24539316 -0.10536921 -0.12080427
-0.15677781 0.039864622 -0.108554065 0.03366107 -0.033407196 0.015335429 -0.082005404 0.089485824
-0.09784443 0.046245113 0.0019612173 -0.056459807 -0.20065892 0.04445513 0.0650863 -0.06403005
-0.04672444 -0.046611115 -0.16572012 -0.010912798 -0.048535813 0.13787848 0.021564541 0.23000307
-0.0028773237 -0.0006782354 -0.18752766 0.03715665 -0.19940898 -0.163375 0.2225237 0.320699
-0.015046779 0.030918619 -0.18461928 0.13503493 0.05455531 -0.073610306 -0.099952586 -0.015949827
0.11886346 -0.036128756 -0.0077174865 0.0728133 -0.114743814 -0.011942446 0.0696998 -0.3584399
-0.015811756 -0.06815417 0.07379487 0.08367188 0.1461216 -0.014030219 -0.10761161 0.04361333
-0.090256795 0.13105164 0.07167394 0.012204248 -0.025805434 0.059772696 -0.11028443 0.07923717
00000000: 7ed4 973d 2442 a53d 3c16 5a3e b149 583e
00000010: 42a7 ea3d 2190 ebbd 5d7f 983d 32b5 71bd
00000020: 823f 5abe 0098 7a3e b3ee 273b f9c1 803e
00000030: 6eef 873d 8a5c e43d 3456 f43d f196 dfbd
00000040: cdf6 18be eec3 3c3e 32e6 483d c346 d53d
00000050: 403a 53be 1df9 e6bd 2b74 e8bd 477b 93bd
00000060: 4bd7 233e 5bc7 273e 1a28 0b3e 5374 fcbd
00000070: 6cc0 24bd df80 d3bd 31d9 8d3c 22fe 843e
00000080: d980 af3a 117f 993d 7c59 05bd 228c 343e
00000090: e5d7 de3d c4d4 c1bd 9ab6 1dbe c512 913d
000000a0: 9f70 82bd 38e6 d4bd e71f 2ebe d7b1 633e
000000b0: 64fa d13d 2a23 eb3c cdd8 283e a0af 3bbe
000000c0: 5756 ba3c cc2c 40bd 2bd0 aebd 6c3a 13bd
000000d0: 5572 913d 58bd cc3c ddfa 263d e9f8 fbbc
000000e0: 33be 64be f93d df3c 8399 043c 27bd 403d
000000f0: f1a8 823e 5848 7bbe d0cb d7bd 3b68 f7bd
00000100: 5d8a 20be 1649 233d 9851 debd 31e0 093d
00000110: fcd5 08bd 7441 7b3c 73f2 a7bd 5844 b73d
00000120: a962 c8bd 846b 3d3d c487 003b 6642 67bd
00000130: 8879 4dbe 9516 363d f74b 853d 3022 83bd
00000140: 2062 3fbd 4ceb 3ebd 89b2 29be 98cb 32bc
00000150: 7dcd 46bd 0430 0d3e 1fa8 b03c ed85 6b3e
00000160: 7b91 3cbb 9bcb 31ba 4007 40be 9231 183d
00000170: de31 4cbe c74b 27be 41dd 633e a932 a43e
00000180: c486 76bc 0b49 fd3c d60c 3dbe 9946 0a3e
00000190: 6475 5f3d 00c1 96bd f1b3 ccbd 36a9 82bc
000001a0: b06e f33d bffb 13bd f8e2 fcbb 241f 953d
000001b0: cefe eabd 40aa 43bc c5be 8e3d 6f85 b7be
000001c0: a887 81bc 6a94 8bbd c421 973d 2a5c ab3d
000001d0: e7a0 153e 01df 65bc 7a63 dcbd e4a3 323d
000001e0: 8ed8 b8bd 6732 063e c9c9 923d 54f4 473c
000001f0: eb65 d3bc 37d4 743d cedc e1bd 1947 a23d

norms.3.weight f4 [128]
1.4170579 1.7914647 1.0816401 1.9174321 2.3049433 2.1702223 1.7666886 2.0734303
0.96001244 1.2286651 1.9561698 1.3516408 2.3113856 2.112198 1.7068366 1.6727428
2.4541867 1.421332 1.8846955 1.721532 0.8396709 2.1486757 1.8030249 1.4441146
2.3089368 1.8408145 2.0112538 2.3847244 1.47817 1.806091 2.0768685 1.1709188
1.94612 1.9145452 1.7121328 2.0417292 1.4505665 1.4089725 1.9150327 2.2544887
1.5991822 1.9047025 1.9510721 1.3835657 1.6738662 1.9426012 1.5508089 2.097248
2.074352 2.2570746 1.3994777 2.0730336 2.087866 1.8437755 1.7652326 1.4432484
1.1948708 2.0513935 1.9620669 1.5129755 1.0484898 1.3443198 1.9168025 2.0132742
1.7081909 1.9776969 2.1368797 2.0510194 1.7648162 1.6607951 1.9305571 1.7685626
1.7089959 1.7892838 2.2681355 2.0244417 1.2174711 1.6994042 2.2522905 1.0598195
2.5627537 1.971888 1.8311347 1.4365717 1.6361433 1.015951 1.3946091 1.4557785
1.8631796 1.6992887 1.4931039 1.9935969 0.9284 1.8162786 1.598971 1.1327716
2.5156476 1.9534969 1.6306412 1.2807156 1.8438059 1.8132274 1.5374843 2.3076575
1.0795157 1.8087261 1.9074041 2.0255156 2.2231708 2.2106154 2.1340153 1.3353429
1.2706108 2.1758094 1.4451671 2.1726024 1.3450894 1.3595186 1.6590866 2.0538466
1.7157984 2.1967885 2.2696562 1.5448885 2.2122366 1.2073485 2.3504996 2.154854
00000000: 2762 b53f b74e e53f 2f73 8a3f 6a6e f53f
00000010: 3184 1340 ece4 0a40 da22 e23f 15b3 0440
00000020: 60c3 753f e644 9d3f c663 fa3f 9102 ad3f
00000030: beed 1340 412e 0740 9f79 da3f 701c d63f
00000040: 6511 1d40 35ee b53f b43d f13f 295b dc3f
00000050: acf4 563f e783 0940 85c9 e63f bfd8 b83f
00000060: 9fc5 1340 cf9f eb3f 62b8 0040 539f 1840
00000070: ad34 bd3f fd2d e73f 6aeb 0440 abe0 953f
00000080: 761a f93f d10f f53f 2b27 db3f b1ab 0240
00000090: 2aac b93f 3659 b43f cb1f f53f 8b49 1040
000000a0: 01b2 cc3f 4bcd f33f bbbc f93f ae18 b13f
000000b0: 3f41 d63f 28a7 f83f e880 c63f 5039 0640
000000c0: 2fc2 0440 e973 1040 1622 b33f 95ac 0440
000000d0: 999f 0540 d600 ec3f 24f3 e13f 5dbc b83f
000000e0: 87f1 983f 084a 0340 0225 fb3f 2ea9 c13f
000000f0: ea34 863f ac12 ac3f c959 f53f 7cd9 0040
00000100: 00a6 da3f 2c25 fd3f a3c2 0840 e743 0340
00000110: 7fe5 e13f ef94 d43f 7f1c f73f 4260 e23f
00000120: 61c0 da3f 4007 e53f 2229 1140 7490 0140
00000130: 18d6 9b3f 1486 d93f 8725 1040 2aa8 873f
00000140: 2804 2440 d366 fc3f 9f62 ea3f 95e1 b73f
00000150: 256d d13f af0a 823f 8d82 b23f f356 ba3f
00000160: ab7c ee3f 4b82 d93f 071e bf3f 2f2e ff3f
00000170: 9fab 6d3f d17b e83f 15ab cc3f a9fe 903f
00000180: 5f00 2140 300c fa3f dab8 d03f 7dee a33f
00000190: d501 ec3f d617 e83f 49cc c43f a9b0 1340
000001a0: 922d 8a3f 5684 e73f d125 f43f 0ca2 0140
000001b0: 6e48 0e40 b97a 0d40 b593 0840 84ec aa3f
000001c0: 60a3 a23f 7640 0b40 3cfb b83f eb0b 0b40
000001d0: e42b ac3f b504 ae3f f35c d43f 3972 0340
000001e0: 489f db3f 2f98 0c40 0c42 1140 e8be c53f
000001f0: 4995 0d40 658a 9a3f 966e 1640 21e9 0940

norms.3.bias f4 [128]
0.20247632 0.05698565 0.18046357 0.039056007 0.18428092 0.010124472 0.060218718 0.010208549
-0.23717001 0.43112853 -0.025107075 0.0855411 -0.105137974 0.086639516 0.10739308 0.103837326
-0.06570732 0.057865407 -0.074221596 0.007436836 -0.34933612 -0.1428971 0.06551876 -0.15214401
0.17345569 0.1680053 0.029835185 0.023333913 -0.032373868 -0.2787743 0.12652192 0.16533746
-0.013964532 0.110098034 0.00965413 0.12930231 0.058550626 -0.30572927 -0.22218482 -0.049458515
-0.09433654 -0.21416786 -0.12670757 0.2368695 -0.10898093 -0.11927736 0.2582819 -0.22582386
-0.091358 0.06322061 0.05835594 -0.045292694 -0.06354301 -0.043098826 -0.012439101 0.07290484
-0.04997623 -0.02839478 0.11025422 0.011061002 0.107419275 -0.29382387 0.080764346 -0.06876208
-0.16386084 0.01672596 -0.23665288 0.13724455 0.081741594 -0.031621464 -0.18456437 0.013151663
0.026023164 0.24476145 0.056894843 0.18338253 -0.10892399 0.07414238 0.08421811 -0.21041952
0.038294043 0.0025259608 -0.028525477 0.05957676 -0.10323251 0.21480927 -0.027550327 0.26950347
-0.093763344 -0.11034859 -0.03311603 0.1013439 -0.15353997 -0.1766933 0.12263411 0.12342449
0.0012306608 0.09085288 -0.3119257 0.23211765 -0.049642812 -0.0371872 0.06049174 0.167783
0.26269236 0.11332657 -0.1666739 0.035516527 -0.16330026 -0.0038810356 0.11465635 0.17595379
0.07582002 0.071348265 0.10140301 0.15381588 -0.062994465 0.09575054 0.038380735 -0.04397679
-0.03907042 0.111890696 0.13341503 0.032755397 -0.1903538 0.08730885 -0.06057436 0.120788544
00000000: f455 4f3e c969 693d 71cb 383e 31f9 1f3d
00000010: 23b4 3c3e 1de1 253c e7a7 763d c241 273c
00000020: b2dc 72be e1bc dc3e 5aad cdbc 2c30 af3d
00000030: 9452 d7bd 0f70 b13d e7f0 db3d aaa8 d43d
00000040: 8f91 86bd 4704 6d3d 7e01 98bd b4b0 f33b
00000050: 2fdc b2be 9e53 12be b32e 863d a4cb 1bbe
00000060: 5e9e 313e 9509 2c3e eb68 f43c c326 bf3c
00000070: 769a 04bd 81bb 8ebe f68e 013e 394e 293e
00000080: 7ecb 64bc 147b e13d 5b2c 1e3c d367 043e
00000090: c8d2 6f3d 8c88 9cbe 6b84 63be 0395 4abd
000000a0: 8433 c1bd d24e 5bbe a1bf 01be eb8d 723e
000000b0: 6531 dfbd b047 f4bd 863d 843e 5f3e 67be
000000c0: e719 bbbd cf79 813d a306 6f3d d584 39bd
000000d0: d622 82bd 6588 30bd 5fcd 4bbc 224f 953d
000000e0: e0b3 4cbd 2b9c e8bc f7cc e13d 3439 353c
000000f0: a3fe db3d 1570 96be c767 a53d 22d3 8cbd
00000100: 23cb 27be e104 893c 2255 72be d689 0c3e
00000110: 2368 a73d 8285 01bd 71fe 3cbe 137a 573c
00000120: 882e d53c bfa2 7a3e 910a 693d a1c8 3b3e
00000130: 8a13 dfbd f6d7 973d 8b7a ac3d 3778 57be
00000140: 37da 1c3d 978a 253b 43ae e9bc c306 743d
00000150: 916b d3bd f6f6 5b3e 39b1 e1bc 5cfc 893e
00000160: ff06 c0bd 71fe e1bd ada4 07bd 648d cf3d
00000170: 9539 1dbe 17ef 34be 9827 fb3d fbc5 fc3d
00000180: 204e a13a 1311 ba3d bab4 9fbe 40b0 6d3e
00000190: 4356 4bbd 9b51 18bd 30c6 773d 4fcf 2b3e
000001a0: 9d7f 863e c317 e83d 90ac 2abe c779 113d
000001b0: 2f38 27be f958 7ebb f3d0 ea3d 3b2d 343e
000001c0: 8747 9b3d 0a1f 923d 62ac cf3d e981 1d3e
000001d0: 3e03 81bd dc18 c43d 1e35 1d3d 0221 34bd
000001e0: 4e08 20bd f326 e53d f39d 083e 862a 063d
000001f0: 1bec 42be fbce b23d d21c 78bd fc5f f73d

post_norm.weight f4 [128]
1.0403622 1.0805072 0.9097111 1.0081271 1.1755272 0.98204404 0.9967576 0.9179955
1.0336094 0.9234649 0.9792485 1.1846596 1.1576806 1.0006201 0.97672975 0.96074134
1.003617 1.2705305 0.97348624 1.0466608 1.0348238 1.1925814 1.031944 0.9969596
0.9927471 1.2968955 0.98634565 0.869801 1.1107395 0.9474058 1.3269111 1.00906
0.92174894 0.76354825 0.99432623 0.9613248 1.0276772 0.8972154 1.0138508 0.9974367
1.0378686 1.2808486 1.0173249 1.1043143 1.0980632 1.0848107 0.9897601 1.0450407
1.0012269 0.9027597 1.2163975 1.0383892 1.0687295 0.873609 0.9615358 1.056445
1.0605677 1.19079 1.0706911 1.0505295 1.4961474 0.99729544 1.0392716 0.9461168
1.0497224 0.95311785 1.0751808 0.982019 1.1021972 1.0388722 1.0807339 0.9974744
1.078257 1.1198839 1.1122851 0.8818497 1.0010521 1.1303989 0.87384254 0.9405391
1.0405529 0.89147574 0.93266946 1.014687 1.0003772 0.91139066 0.9919256 0.97974443
1.1950707 1.0275261 0.96510994 0.9343846 1.0700798 0.9465295 0.9527621 1.2163559
1.0108545 1.1849515 1.1805494 1.1376995 0.9667737 1.0317037 0.97811866 1.029743
1.2171451 1.2525207 0.98987573 0.8710566 0.8856104 1.0217923 1.306931 0.77401215
0.9522958 1.2863326 1.0481107 1.0393292 0.9728579 1.1654128 1.1742193 0.98411727
0.9114479 0.95014095 1.101981 0.92752475 0.9309809 0.9465967 1.1269808 0.86407954
00000000: 972a 853f 0f4e 8a3f d4e2 683f 4f0a 813f
00000010: ad77 963f 3d67 7b3f 822b 7f3f c101 6b3f
00000020: 504d 843f 3268 6c3f 08b0 7a3f eda2 973f
00000030: e12e 943f 5214 803f f60a 7a3f 25f3 753f
00000040: 8676 803f bea0 a23f 6536 793f fbf8 853f
00000050: 1b75 843f 82a6 983f be16 843f bf38 7f3f
00000060: ad24 7e3f ac00 a63f 2681 7c3f 47ab 5e3f
00000070: b62c 8e3f 3089 723f 39d8 a93f e128 813f
00000080: bdf7 6b3f e677 433f 2a8c 7e3f 6219 763f
00000090: ed8a 833f e9af 653f ddc5 813f 0358 7f3f
000000a0: e1d8 843f d9f2 a33f b437 823f 2c5a 8d3f
000000b0: 568d 8c3f 14db 8a3f eb60 7d3f e5c3 853f
000000c0: 3428 803f 421b 673f eab2 9b3f f0e9 843f
000000d0: 21cc 883f d7a4 5f3f 3627 763f 9739 873f
000000e0: afc0 873f cf6b 983f 680c 893f c077 863f
000000f0: c281 bf3f c14e 7f3f da06 853f b634 723f
00000100: 4e5d 863f 88ff 733f 869f 893f 9965 7b3f
00000110: cc14 8d3f c4f9 843f 7d55 8a3f 7b5a 7f3f
00000120: 5304 8a3f 5b58 8f3f 5c5f 8e3f e7c0 613f
00000130: 7a22 803f e9b0 903f 25b4 5f3f 2cc7 703f
00000140: d630 853f c137 643f 6dc3 6e3f 43e1 813f
00000150: 5c0c 803f e650 693f d6ee 7d3f 88d0 7a3f
00000160: 14f8 983f fa85 833f 7211 773f d433 6f3f
00000170: 60f8 883f c24f 723f 38e8 733f 8db1 9b3f
00000180: ae63 813f 7eac 973f 3e1c 973f 23a0 913f
00000190: 7b7e 773f de0e 843f fc65 7a3f 9ece 833f
000001a0: 69cb 9b3f 9952 a03f 7f68 7d3f 91fd 5e3f
000001b0: 5db7 623f 17ca 823f 8449 a73f a925 463f
000001c0: a8c9 733f 8ca6 a43f 7e28 863f bd08 853f
000001d0: 370d 793f 3f2c 953f d14c 963f 1cef 7b3f
000001e0: a654 693f 703c 733f b70d 8d3f 4372 6d3f
000001f0: c454 6e3f 2954 723f e840 903f 5134 5d3f

post_norm.bias f4 [128]
-0.023904381 -0.24450564 0.19511122 0.0043254658 -0.04753931 0.013551171 -0.01579499 -0.07119728
0.097423136 -0.10075307 -0.116331354 0.16751528 -0.025640512 0.034144938 -0.10967506 -0.11865689
-0.10350044 -0.039773703 -0.040855035 -0.16151474 0.21868697 -0.04121809 0.00336842 0.10433564
0.09093395 0.051125493 0.11742516 -0.18172346 -0.025780497 -0.03928088 -0.055130713 0.09738533
0.05863272 -0.26295072 0.16858292 -0.032460965 0.17771292 -0.120617196 -0.049495164 0.07924763
-0.08821692 0.1015866 -0.03955227 -0.1378009 -0.11497643 0.13923934 -0.01976235 0.11026126
-0.018459067 -0.08492696 -0.009675571 -0.048831087 -0.23359832 0.16724694 0.056188535 -0.062026516
-0.15454817 0.016678132 0.045625698 -0.08144275 -0.19627905 -0.045070168 -0.10162128 -0.05204946
0.11340742 -0.03250835 -0.01937178 -0.060455687 -0.13228586 0.061420847 -0.10503747 0.08166492
0.11727834 0.08663028 -0.053749662 -0.02965097 -0.11154296 -0.040345564 -0.08278868 -0.09837121
-0.012264179 0.093408555 -0.022964 -0.18822949 0.24119005 -0.19903176 0.062035087 0.042741004
-0.05179747 0.07659603 0.026275218 -0.15985224 0.13079801 0.048291568 -0.08633533 -0.13270162
0.078365736 -0.19561252 -0.015399465 -0.223463 0.036915306 -0.10395918 -0.0604521 0.06833031
0.058163106 0.065228514 0.06121827 0.10503471 0.14512256 0.14989907 -0.06811857 -0.30711174
0.01105742 -0.022956157 -0.104368 0.10957146 0.08821894 0.048470885 0.04607886 0.06131875
-0.1571809 0.008837183 0.08695428 -0.101450294 -0.067968115 0.10921059 0.0038217357 -0.100720875
00000000: 1fd3 c3bc b05f 7abe 3ccb 473e a3bc 8d3b
00000010: 94b8 42bd bb05 5e3c 7f64 81bc e1cf 91bd
00000020: c885 c73d a057 cebd 223f eebd 2089 2b3e
00000030: 0d0c d2bc 90db 0b3d 519d e0bd 6202 f3bd
00000040: 0af8 d3bd c0e9 22bd 9c57 27bd 1f64 25be
00000050: 7aef 5f3e 4dd4 28bd b6c0 5c3b edad d53d
00000060: 943b ba3d f768 513d 9a7c f03d b715 3abe
00000070: 9f31 d3bc fde4 20bd bed0 61bd f671 c73d
00000080: dd28 703d 7aa1 86be 00a1 2c3e caf5 04bd
00000090: 60fa 353e 2606 f7bd 71bb 4abd 954c a23d
000000a0: 13ab b4bd a30c d03d 9001 22bd ae1b 0dbe
000000b0: c378 ebbd c294 0e3e a7e4 a1bc a8d0 e13d
000000c0: 7837 97bc 30ee adbd 4986 1ebc 1b03 48bd
000000d0: 6634 6fbe c842 2b3e f325 663d 840f 7ebd
000000e0: e041 1ebe 94a0 883c 03e2 3a3d 75cb a6bd
000000f0: 60fd 48be 7f9b 38bd d11e d0bd d131 55bd
00000100: 2642 e83d 7a27 05bd 91b1 9ebc 62a0 77bd
00000110: f275 07be 6d94 7b3d e31d d7bd f03f a73d
00000120: a02f f03d 376b b13d 9b28 5cbd 97e6 f2bc
00000130: a370 e4bd 6441 25bd 1d8d a9bd d876 c9bd
00000140: b2ef 48bc fc4c bf3d 001f bcbc 3bbf 40be
00000150: 86fa 763e fbce 4bbe 8118 7e3d 3111 2f3d
00000160: 9529 54bd 61de 9c3d 203f d73c 4eb0 23be
00000170: eaef 053e 61cd 453d 94d0 b0bd efe2 07be
00000180: 377e a03d a64e 48be 0a4e 7cbc 7cd3 64be
00000190: 8134 173d 8de8 d4bd 9f9c 77bd c3f0 8b3d
000001a0: 703c 6e3d 8796 853d 02c0 7a3d 701c d73d
000001b0: 029b 143e 247f 193e c081 8bbd c03d 9dbe
000001c0: 2e2a 353c 8d0e bcbc e4be d5bd 0067 e03d
000001d0: 22ac b43d 6889 463d 30bd 3c3d 5f29 7b3d
000001e0: 08f4 20be d5c9 103c 1615 b23d 2cc5 cfbd
000001f0: de32 8bbd cda9 df3d 1676 7a3b bf46 cebd

input.weight f4 [128, 3]
0.28408223 0.1476387 0.5504479 -0.14139299 0.03275813 -0.10794911 0.12339918 -0.44107738
-0.45006317 0.30459237 0.19014934 -0.28321165 -0.14944682 0.49080524 -0.36354202 0.3650571
0.30333263 -0.43701828 0.33707088 -0.35279024 0.45064682 -0.15978417 0.031375837 0.10475315
0.54713327 -0.30517828 -0.5475619 0.54264873 0.5068072 -0.37183893 0.05111411 0.50358415
0.47168735 -0.22611435 -0.20302185 -0.42450905 -0.14338942 0.2424444 -0.64947367 0.01769213
-0.59763217 -0.060799293 -0.10586462 -0.12012012 0.14581388 0.45379284 -0.43663675 0.22633761
0.30940986 0.021310864 0.2803654 -0.36998844 0.45468736 -0.118098445 0.25430393 -0.2299824
-0.1806256 -0.22725274 -0.2258784 0.038428266 -0.394243 0.34841198 0.58049303 -0.0028818676
-0.29996088 -0.3183581 0.53349936 0.05740374 -0.23880728 -0.4403877 0.104331225 -0.3950683
0.20839895 -0.34227043 -0.5263302 -0.29057768 -0.07515465 -0.057991467 -0.45212206 -0.32187888
-0.4648218 0.14763565 0.30384788 -0.6662522 -0.5959773 -0.24662097 0.30863622 0.4855924
0.6120636 -0.4483671 0.07117139 0.5956068 0.32756212 -0.6624575 -0.36037645 -0.21281618
-0.19729418 0.009386627 -0.061632883 -0.2824336 0.2849153 0.2833165 0.16558439 -0.16089967
-0.65275264 0.07095741 0.03704611 0.51596934 -0.20594193 0.116881594 0.54090106 0.6234553
0.11743703 -0.479994 -0.4018912 0.48640344 -0.2894245 -0.41346595 -0.36398387 0.5550045
0.43974712 0.50403285 0.31017944 -0.05521662 -0.17549892 -0.36041814 0.59307176 -0.043882873
-0.13441049 -0.5491116 -0.43885753 0.45512477 0.42868114 -0.058088675 0.0854885 -0.26941755
-0.22244398 -0.03474454 -0.1263889 -0.034275126 -0.27166793 -0.32736224 -0.17022635 -0.40887073
0.055531748 -0.5161504 -0.1114804 -0.75071365 0.3130126 0.26713184 0.24951299 0.08855768
-0.36159566 -0.12982073 -0.09319817 0.4782074 -0.12754379 -0.23258509 0.41907445 -0.35926288
-0.3100235 -0.17991275 -0.38562253 0.32029113 -0.5231693 -0.111815415 0.23721734 -0.51595974
0.3349668 0.30667245 -0.2329731 0.51857144 -0.06556758 -0.6200775 -0.49456388 -0.05829215
0.45042685 0.14531776 -0.41247892 -0.37029305 0.15563945 0.32792366 0.30294755 -0.47933358
0.5799093 0.37428305 -0.4505721 -0.31951162 0.12828986 0.32713306 -0.17998484 -0.0071842102
-0.2473365 -0.4716476 0.03004981 0.7128302 -0.2004835 -0.49105826 -0.038764846 0.026523972
-0.354994 -0.3671776 0.2586053 0.5032432 0.31544712 0.17586179 0.011653994 -0.21262038
-0.45393807 0.7851417 0.023864029 0.55505365 -0.010804385 -0.5519274 -0.36525124 0.028125511
0.26981226 0.19718748 -0.6515518 -0.14247285 -0.38675958 -0.2543878 0.23340984 0.24824841
0.19005567 0.5496008 -0.5656941 0.3271192 -0.05261096 0.4296412 -0.12724914 -0.24159989
-0.17559747 0.26071906 0.3444736 -0.13498978 -0.53361243 -0.10157524 0.44444516 0.2816404
-0.17357506 0.10557085 0.6781236 -0.3581804 0.2877919 -0.33487508 0.108287916 0.2209151
0.12509991 0.5911084 0.025585921 -0.15459338 -0.058985353 0.47566825 0.28509945 -0.5957388
00000000: 3a73 913e 992e 173e 27ea 0c3f 53c9 10be
00000010: 642d 063d 6c14 ddbd b6b8 fc3d e5d4 e1be
00000020: ae6e e6be 88f3 9b3e 82b6 423e 1e01 91be
00000030: 9608 19be d34a fb3e 2e22 babe c4e8 ba3e
00000040: 6a4e 9b3e dcc0 dfbe 8e94 ac3e eca0 b4be
00000050: 2ebb e63e 769e 23be f383 003d d288 d63d
00000060: ed10 0c3f 5440 9cbe 042d 0cbf 07eb 0a3f
00000070: 1ebe 013f ac61 bebe 075d 513d e4ea 003f
00000080: 0181 f13e 858a 67be f6e4 4fbe 4059 d9be
00000090: add4 12be 5843 783e e843 26bf 16ef 903c
000000a0: 6cfe 18bf ae08 79bd 8dcf d8bd 8a01 f6bd
000000b0: 3c50 153e 8957 e83e da8e dfbe 0cc5 673e
000000c0: f86a 9e3e 1f94 ae3c 0e8c 8f3e 206f bdbe
000000d0: c8cc e83e 99dd f1bd 2034 823e 8280 6bbe
000000e0: ebf5 38be f1b4 68be ab4c 67be f566 1d3d
000000f0: 38da c9be 0e63 b23e 319b 143f b7dd 3cbb
00000100: 7994 99be d5ff a2be 6a93 083f 2f20 6b3d
00000110: e589 74be 7f7a e1be 9cab d53d 6446 cabe
00000120: 8966 553e 123e afbe 93bd 06bf 99c6 94be
00000130: aeea 99bd 7688 6dbd 8b7c e7be 4fcd a4be
00000140: 1ffd edbe cd2d 173e f391 9b3e 818f 2abf
00000150: f891 18bf 358a 7cbe 9105 9e3e 919f f83e
00000160: 33b0 1c3f 5f90 e5be 4ec2 913d b079 183f
00000170: 39b6 a73e d196 29bf 4383 b8be 7cec 59be
00000180: 7c07 4abe 5eca 193c c372 7cbd 239b 90be
00000190: 6be0 913e dc0e 913e f48e 293e e2c2 24be
000001a0: cc1a 27bf 1e52 913d a9bd 173d 9116 043f
000001b0: 71e2 52be 9e5f ef3d 7e78 0a3f c49a 1f3f
000001c0: d382 f03d c6c1 f5be afc4 cdbe df09 f93e
000001d0: 732f 94be cfb1 d3be 185c babe c614 0e3f
000001e0: 8926 e13e 4c08 013f d7cf 9e3e d32a 62bd
000001f0: fdb5 33be ba88 b8be 8dd3 173f 87be 33bd
00000200: e7a2 09be 9492 0cbf efb1 e0be 1d06 e93e
00000210: 187c db3e 64ee 6dbd 9814 af3d 19f1 89be
00000220: 5bc8 63be 4a50 0ebd 186c 01be 1364 0cbd
00000230: 0f18 8bbe 069c a7be d14f 2ebe 8157 d1be
00000240: 4275 633d 6f22 04bf d64f e4bd c52e 40bf
00000250: 3043 a03e 81c5 883e 5580 7f3e bb5d b53d
00000260: 1123 b9be baef 04be afde bebd 9ad7 f43e
00000270: d79a 02be c92a 6ebe ed90 d63e 4ef1 b7be
00000280: 66bb 9ebe 0c3b 38be 5170 c5be 33fd a33e
00000290: 6cee 05bf 7bff e4bd 1ae9 723e f015 04bf
000002a0: c580 ab3e 2c04 9d3e 8090 6ebe 19c1 043f
000002b0: 4c48 86bd 66bd 1ebf 7a37 fdbe c0c3 6ebd
000002c0: 599e e63e 2ece 143e 7030 d3be 0d97 bdbe
000002d0: f35f 1f3e 9ce5 a73e f11b 9b3e 366b f5be
000002e0: f074 143f 07a2 bf3e 63b1 e6be 0797 a3be
000002f0: 6b5e 033e fc7d a73e f24d 38be 8669 ebbb
00000300: c845 7dbe cb7b f1be 052b f63c 0a7c 363f
00000310: 8c4b 4dbe fd6b fbbe e3c7 1ebd cd48 d93c
00000320: c6c1 b5be b4fe bbbe ea67 843e 8cd4 003f
00000330: 4982 a13e 1d15 343e 65f0 3e3c 28b9 59be
00000340: 926a e8be 0cff 483f 7f7e c33c ff17 0e3f
00000350: e004 31bc 1d4b 0dbf 3602 bbbe 7967 e63c
00000360: d524 8a3e 84eb 493e 19cc 26bf 67e4 11be
00000370: 5a05 c6be 1e3f 82be fd02 6f3e d534 7e3e
00000380: f49d 423e a3b2 0c3f 54d1 10bf 2b7c a73e
00000390: 977e 57bd eef9 db3e 994d 02be f665 77be
000003a0: d3cf 33be f87c 853e d85e b03e c33a 0abe
000003b0: d39a 08bf ae06 d0bd 518e e33e 2c33 903e
000003c0: a9bd 31be 8835 d83d 8299 2d3f 6c63 b7be
000003d0: 7659 933e bf74 abbe 0ec6 dd3d 9137 623e
000003e0: 311a 003e e152 173f 9199 d13c ba4d 1ebe
000003f0: a09a 71bd ca8a f33e 8ef8 913e 5782 18bf

input.bias f4 [128]
-0.18240474 -0.43205336 0.25017852 -0.33635175 -0.0034326934 0.26303178 -0.03979241 0.40658203
0.39191777 -0.5287167 -0.57334095 0.17658152 0.27865544 0.11079655 0.46680796 0.2550174
-0.2590592 -0.008385333 0.38286108 -0.30005458 0.28659713 0.4863637 -0.2659741 -0.28082302
-0.06677605 0.24628179 -0.113219835 0.4160351 0.4289484 -0.37471524 -0.2900795 -0.16468748
-0.22714654 0.052326445 -0.09748098 0.020848894 0.27543753 0.06403869 -0.2900292 0.042893697
-0.0891218 0.41363063 -0.12759133 -0.2948801 -0.33958682 0.07385679 0.21642382 0.19786622
0.35156366 0.13506211 0.7546251 0.45692915 -0.3427162 0.05720169 0.36236632 0.3460947
-0.23894607 0.121592626 0.06356369 0.4150794 -0.7012627 -0.18757522 -0.3543241 -0.005483612
0.2128638 -0.429861 0.34374788 0.07356393 -0.33894274 -0.24533698 -0.09399902 -0.16511028
0.059064202 0.45089668 -0.5210886 -0.25063622 0.50388163 0.06724908 0.2119129 0.3503034
-0.29941294 -0.10619825 0.13114801 -0.3564879 0.22964554 0.05830777 0.32798702 -0.23917031
-0.105094835 0.5450689 0.34205797 -0.1836656 0.23621647 -0.29310077 0.5121667 -0.44574142
-0.4477133 -0.5435913 0.3866058 -0.1488326 0.23528638 -0.36926654 0.20532286 0.24176192
0.43316236 0.19779935 0.02198424 -0.046243157 -0.26466635 -0.025876803 -0.72108793 0.013428394
-0.26799595 0.46094802 -0.443461 -0.0149763115 -0.07823654 -0.28861624 0.08354509 -0.0146098
0.077372044 0.31809026 -0.3785106 -0.17367622 0.17595418 -0.05666363 -0.52387583 0.41496637
00000000: 4fc8 3abe 1936 ddbe 6617 803e 4c36 acbe
00000010: 0af7 60bb 1aac 863e 5efd 22bd 852b d03e
00000020: 72a9 c83e fa59 07bf 79c6 12bf c9d1 343e
00000030: edab 8e3e 4de9 e23d 7401 ef3e a491 823e
00000040: 68a3 84be a362 09bc 5e06 c43e c1a0 99be
00000050: dcbc 923e aa04 f93e c22d 88be 09c8 8fbe
00000060: e2c1 88bd 4b31 7c3e cddf e7bd 8d02 d53e
00000070: 209f db3e adda bfbe 4d85 94be d6a3 28be
00000080: 1a99 68be 4154 563d 1ca4 c7bd 4dcb aa3c
00000090: 2606 8d3e b726 833d b57e 94be 4db1 2f3d
000000a0: 7e85 b6bd 65c7 d33e 4da7 02be 86fa 96be
000000b0: 53de adbe 3b42 973d 359e 5d3e 719d 4a3e
000000c0: 2700 b43e b94d 0a3e 1c2f 413f 9ef2 e93e
000000d0: 7f78 afbe 524c 6a3d 1488 b93e 5333 b13e
000000e0: 47ae 74be 8e05 f93d ae2d 823d 4a85 d43e
000000f0: f485 33bf b813 40be f869 b5be dfaf b3bb
00000100: f8f8 593e be16 dcbe b9ff af3e b0a8 963d
00000110: e789 adbe 9e39 7bbe 8f82 c0bd ab12 29be
00000120: 4eed 713d eedb e63e 1066 05bf 6453 80be
00000130: 63fe 003f e3b9 893d b2ff 583e f85a b33e
00000140: a74c 99be 787e d9bd aa4b 063e 9585 b6be
00000150: 3328 6b3e 21d4 6e3d eaed a73e 10e9 74be
00000160: f63b d7bd a389 0b3f 3922 af3e d612 3cbe
00000170: bbe2 713e 4e11 96be 5b1d 033f 3838 e4be
00000180: ad3a e5be cd28 0bbf 32f1 c53e 9367 18be
00000190: eaee 703e 8110 bdbe 2840 523e 7090 773e
000001a0: 75c7 dd3e ea8b 4a3e 4b18 b43c 7769 3dbd
000001b0: 5982 87be 97fb d3bc 3899 38bf c402 5c3c
000001c0: c436 89be 6101 ec3e 520d e3be 345f 75bc
000001d0: 7b3a a0bd 82c5 93be b019 ab3d f15d 6fbc
000001e0: 3c75 9e3d badc a23e 24cc c1be 2ed8 31be
000001f0: 552d 343e 1f18 68bd ba1c 06bf 7976 d43e

mapping_layers.0.D f4 [1, 128]
-0.31207183 0.16145329 -0.2620204 -1.8637052 -0.036503922 -0.52732027 0.98323226 0.31013185
-0.22252516 0.6677559 -0.5105544 0.8624774 0.107218646 0.7727559 -1.1951772 -0.3585223
-1.297704 -2.6707883 0.6878338 -0.7662068 0.60807306 -0.58626276 -0.32490146 -0.7017507
-0.939303 -0.59762436 -1.5102235 -0.03275239 0.7552629 0.7846465 -0.62575895 1.0048318
0.10452875 1.9956914 0.34780425 0.67160213 1.4722627 -2.0200903 -0.473361 -0.57069284
0.34703392 -1.1773611 -1.0630013 -0.06079327 0.76018035 -0.15132844 0.110243425 0.68575585
0.39858523 -0.66813827 -0.798484 -0.113661975 0.13520573 1.222436 -0.6260596 -0.6572574
0.49656993 1.9948027 0.29510826 0.6641338 -1.6362928 -0.17524987 -0.61927396 0.50627023
0.029678814 -1.4567136 -0.6473659 1.8173033 -1.2020702 -1.878849 1.3019248 -0.84938234
-1.4616412 1.4487689 0.69247967 0.27466455 -0.237183 -0.74155205 1.2593861 -1.1031307
-0.5610314 0.18412723 0.9855411 0.7551079 0.6074786 0.058233373 0.75051177 -0.36756033
1.0799259 1.5627652 0.629911 -1.4015496 0.18387054 -0.13748148 -0.95259285 0.105661176
-1.2292833 0.67488265 0.040903408 0.7162319 2.089939 -0.22187029 0.32031772 -1.1873826
1.4757203 -0.31400558 -0.5615144 -0.54851073 0.21893339 0.642549 -0.9134564 -1.2221318
-0.9680381 0.5146098 1.4422878 -0.5138535 0.53960824 -0.40262893 -1.140717 -0.3636808
0.42187405 -0.17779326 -1.3471203 -0.7272777 -1.0142303 0.5844843 -0.18390593 -1.7316295
00000000: e1c7 9fbe 0354 253e 8a27 86be e48d eebf
00000010: 2385 15bd 76fe 06bf 1cb5 7b3f 9ac9 9e3e
00000020: a3dd 63be 0df2 2a3f b1b3 02bf 52cb 5c3f
00000030: 7395 db3d 55d3 453f 91fb 98bf 3c90 b7be
00000040: 2a1b a6bf 32ee 2ac0 e015 303f 2126 44bf
00000050: adaa 1b3f 5115 16bf 7c59 a6be efa5 33bf
00000060: 2976 70bf e9fd 18bf 014f c1bf 5f27 06bd
00000070: e958 413f 98de 483f bd31 20bf 549e 803f
00000080: 2b13 d63d d172 ff3f 6613 b23e 1eee 2b3f
00000090: 1b73 bc3f 2949 01c0 5f5c f2be ed18 12bf
000000a0: 6eae b13e c5b3 96bf 6d10 88bf 5d02 79bd
000000b0: 2e9b 423f d8f5 1abe 4ec7 e13d b28d 2f3f
000000c0: 5d13 cc3e 1c0b 2bbf 7369 4cbf 9cc7 e8bd
000000d0: 5f73 0a3e c878 9c3f 7145 20bf 0542 28bf
000000e0: 6a3e fe3e b255 ff3f 6e18 973e ac04 2a3f
000000f0: 0b72 d1bf b474 33be bd88 1ebf ed9a 013f
00000100: fc20 f33c 9775 babf c6b9 25bf 659d e83f
00000110: 70dd 99bf 207e f0bf 79a5 a63f 1f71 59bf
00000120: 0f17 bbbf 4271 b93f 5946 313f d5a0 8c3e
00000130: 1ae0 72be 5bd6 3dbf 9033 a13f 6333 8dbf
00000140: c19f 0fbf d98b 3c3e 6c4c 7c3f c04e 413f
00000150: b883 1b3f 1e86 6e3d 8a21 403f de30 bcbe
00000160: 033b 8a3f b108 c83f d941 213f fa65 b3bf
00000170: 8f48 3c3e f2c7 0cbe 20dd 73bf e364 d83d
00000180: 2859 9dbf 1cc5 2c3f 558a 273d f95a 373f
00000190: 90c1 0540 f731 63be af00 a43e 27fc 97bf
000001a0: 67e4 bc3f 57c5 a0be 68bf 0fbf 336b 0cbf
000001b0: 1330 603e 177e 243f 47d8 69bf d16e 9cbf
000001c0: 58d1 77bf 78bd 033f e39c b83f e78b 03bf
000001d0: c423 0a3f 6125 cebe 0403 92bf 5f34 babe
000001e0: e0ff d73e 700f 36be 706e acbf df2e 3abf
000001f0: 4cd2 81bf c3a0 153f d651 3cbe 09a6 ddbf

mapping_layers.0.kernel.kernel.C f4 [1, 128, 32, 2]
0.9229668 -1.0133183 0.3443925 -0.057695474 -0.38063088 0.11482109 -0.43811926 -0.57359564
0.37714124 0.5782215 -1.6961501 -0.11244087 -0.37269717 0.9415455 0.12881327 -0.20247957
0.97446775 -0.8436865 -0.61358464 0.63579416 -0.36960155 0.11463442 0.08896299 0.6137198
-0.2565996 -1.2094812 0.464532 2.1966496 0.6119755 -0.7701227 -0.15475556 0.654398
0.50901127 -0.32913435 -0.29377317 0.4952083 0.74139744 -0.2433753 1.0899681 -0.78865933
-0.228001 0.28999442 -0.382829 -0.26987678 -1.3886776 0.28651857 0.49741998 -0.54182905
-0.38734722 -0.12643833 0.68011093 -0.1583708 -0.116005644 -1.244578 -0.34732625 0.9083566
-1.4633528 -0.75953346 1.3046739 2.0937698 1.6528945 -0.29473135 0.4147337 -0.33328614
-1.2493466 -0.403423 0.66947675 0.18660705 -0.28346407 -1.2147434 -0.93813336 0.3510281
-0.16585279 0.9314608 0.22251265 -1.2205575 0.230922 0.2496002 0.8674347 -0.81553566
0.75934774 0.09993023 -0.6707358 -1.0233719 0.03495915 0.5264724 1.1624199 -0.056135986
1.0776119 -0.43661872 1.441289 0.1357184 0.44396624 1.0237775 0.15765123 0.7739504
-0.22305086 -0.93175507 0.14919399 0.07014858 0.79860336 0.036063243 -0.3128982 0.33256087
1.1679032 -0.77824783 -0.29130173 0.9788385 0.39397275 -1.813259 -0.32709688 -1.1530919
0.18166482 -0.60843086 1.2309766 0.7140599 -0.1468243 -0.2860644 0.5381343 -1.4993203
-0.17907439 0.22808209 0.06459934 -0.6456092 -1.209911 0.66399187 0.1228564 -0.54617393
-1.0249276 -1.3613297 1.2225121 0.33381477 -0.62307197 1.1643512 0.5463268 1.676595
0.20362179 0.3828481 -0.14016378 -0.05588703 0.60455805 -0.45916435 -0.091311626 0.05933055
-1.2572381 -0.52842236 0.104724646 0.4624043 0.7582648 0.8069946 0.3858967 -0.13831547
-0.7993465 1.4384046 0.6589323 -0.14224318 2.0790434 0.51458 0.8121861 0.85454196
-0.55782616 0.67495626 0.749488 0.44417822 0.019361686 0.31850246 0.23167607 -0.112832956
-0.17399886 1.0354652 -0.3886673 0.07277366 -0.58486825 0.2560874 0.4105414 0.1819458
0.21793008 -0.90376693 0.6060611 0.46085224 -0.13554187 -0.20033848 -0.090712495 -0.649185
0.19489676 -0.8911259 -0.051354922 -0.36185768 0.99271286 -0.42464173 0.14369828 0.23913218
1.2818235 0.61430466 0.20862845 0.51400864 -0.03342793 -0.3400502 0.67118454 -1.0105382
-0.15784168 0.32384092 1.9066634 -0.29391995 0.88506174 0.36970964 1.8514985 -0.74392086
-0.83274084 -0.104521304 -0.6974712 -0.71576715 0.03453116 0.42553532 1.8619561 -0.1810247
-0.3866084 0.14030989 1.1248454 -0.6489217 0.2561717 -0.43506336 -0.80248135 -0.3267045
1.165472 -1.1788774 0.51602685 0.77463084 -1.4684527 -0.803146 0.21191528 0.5370915
-0.010925184 0.0050295615 1.0705777 -0.16152138 -0.03331326 -0.6156925 0.052502044 0.06703938
0.43344662 1.1013249 0.74589705 -0.75700974 -0.82052654 0.47722143 -0.87573594 0.24809887
0.91759354 1.0760491 -0.8882031 0.6322793 -1.2141176 0.19928852 0.108772755 1.6543627
00000000: 8d47 6c3f 6ab4 81bf 3754 b03e 1752 6cbd
00000010: 0de2 c2be 5227 eb3d 2b51 e0be 2ad7 12bf
00000020: a818 c13e 5306 143f 721b d9bf 6647 e6bd
00000030: 2ad2 bebe 2009 713f a0e7 033e ce56 4fbe
00000040: b876 793f d7fb 57bf e213 1dbf 68c3 223f
00000050: 6a3c bdbe 73c5 ea3d 3a32 b63d be1c 1d3f
00000060: 0661 83be 48d0 9abf 23d7 ed3e e895 0c40
00000070: 6daa 1c3f c326 45bf 3e78 1ebe a186 273f
00000080: 904e 023f 4c84 a8be 7069 96be f18b fd3e
00000090: 39cc 3d3f 6037 79be 1384 8b3f 94e5 49bf
000000a0: 1879 69be 267a 943e 2a02 c4be 4a2d 8abe
000000b0: 30c0 b1bf 90b2 923e d5ad fe3e 4fb5 0abf
000000c0: 6052 c6be 0d79 01be c01b 2e3f f42b 22be
000000d0: 5e94 edbd 554e 9fbf bfd4 b1be 0f8a 683f
000000e0: 254f bbbf c970 42bf 8eff a63f 5300 0640
000000f0: 0c92 d33f 07e7 96be fa57 d43e 7ba4 aabe
00000100: 97ea 9fbf 768d cebe d462 2b3f eb15 3f3e
00000110: 3422 91be b67c 9bbf 8229 70bf f5b9 b33e
00000120: 50d5 29be 3774 6e3f 5bda 633e 3a3b 9cbf
00000130: d176 6c3e 3297 7f3e 3310 5e3f f2c6 50bf
00000140: 9d64 423f 38a8 cc3d 57b5 2bbf dafd 82bf
00000150: 5331 0f3d e5c6 063f 2dca 943f d9ee 65bd
00000160: 30ef 893f 7d8c dfbe 287c b83f c4f9 0a3e
00000170: 8b4f e33e 240b 833f 536f 213e 9d21 463f
00000180: 7267 64be 8087 6ebf 4fc6 183e 0faa 8f3d
00000190: 4571 4c3f 0db7 133d 3134 a0be 6b45 aa3e
000001a0: da7d 953f 403b 47bf 8025 95be 2995 7a3f
000001b0: ccb6 c93e df18 e8bf 3e79 a7be 8498 93bf
000001c0: 5806 3a3e 20c2 1bbf a490 9d3f a1cc 363f
000001d0: 1c59 16be 0877 92be 2bc3 093f bae9 bfbf
000001e0: 475f 37be 5a8e 693e a94c 843d a546 25bf
000001f0: 5dde 9abf 5ffb 293f 239c fb3d 0ed2 0bbf
00000200: d430 83bf 0d40 aebf 477b 9c3f c5e9 aa3e
00000210: a581 1fbf 7609 953f 13dc 0b3f aa9a d63f
00000220: 3b82 503e ab04 c43e 1887 0fbe cce9 64bd
00000230: 51c4 1a3f 9717 ebbe 9701 bbbd 9704 733d
00000240: 2eed a0bf b046 07bf e079 d63d 42c0 ec3e
00000250: a41d 423f 3397 4e3f 4194 c53e 92a2 0dbe
00000260: f9a1 4cbf a41d b83f caaf 283f 32a8 11be
00000270: 0c0f 0540 84bb 033f 6eeb 4f3f 43c3 5a3f
00000280: b2cd 0ebf efc9 2c3f 72de 3f3f 546b e33e
00000290: 669c 9e3c c112 a33e 7e3c 6d3e f714 e7bd
000002a0: c22c 32be 208a 843f 66ff c6be 5b0a 953d
000002b0: edb9 15bf e31d 833e 7b32 d23e 0050 3a3e
000002c0: 1029 5f3e 455d 67bf d226 1b3f d3f4 eb3e
000002d0: 7dcb 0abe 8825 4dbe 79c7 b9bd fd30 26bf
000002e0: 0493 473e d420 64bf 8a59 52bd 6945 b9be
000002f0: 6e22 7e3f a46a d9be a425 133e 11df 743e
00000300: cb12 a43f 1243 1d3f b2a2 553e 1296 033f
00000310: baeb 08bd 0f1b aebe c0d2 2b3f 5159 81bf
00000320: 40a1 21be 7ace a53e 8c0d f43f ad7c 96be
00000330: 6893 623f 954a bd3e e7fd ec3f 9971 3ebf
00000340: 812e 55bf 440f d6bd 798d 32bf 843c 37bf
00000350: 8c70 0d3d c4df d93e 9454 ee3f 8a5e 39be
00000360: 89f1 c5be 65ad 0f3e effa 8f3f bc1f 26bf
00000370: f028 833e a0c0 debe 6b6f 4dbf d045 a7be
00000380: 302e 953f 74e5 96bf 561a 043f 354e 463f
00000390: 42f6 bbbf fa9a 4dbf 5200 593e d47e 093f
000003a0: 8bff 32bc 05cf a43b b108 893f dc65 25be
000003b0: 7c73 08bd 069e 1dbf 620c 573d f14b 893d
000003c0: b7ec dd3e 37f8 8c3f 1cf3 3e3f 64cb 41bf
000003d0: 070e 52bf 5e56 f43e 3b30 60bf a10d 7e3e
000003e0: 69e7 6a3f fabb 893f 4761 63bf 0edd 213f
000003f0: 3568 9bbf 4a12 4c3e 40c4 de3d 28c2 d33f
