checkpoints/SSM/CIFAR10/180_epochs/none/Nat/lr_0.001_alpha_0/SSMNat-epoch180.pt (torch, 434571 bytes, 50 tensors)

norms.0.weight f4 [128]
000000 9c 79 9d 3f ec 0f 5e 3f 70 67 86 3f 69 13 7b 3f
       1.2302737 0.86743045 1.0500317 0.9807649
000010 ba b0 8e 3f ed 9f 72 3f 52 51 55 3f 77 05 94 3f
       1.1147683 0.9477528 0.8332721 1.1564168
000020 e5 41 79 3f c4 c7 b5 3f 8d d5 75 3f 0b 99 50 3f
       0.9736617 1.4201589 0.9602898 0.81483525
000030 00 f5 92 3f 53 48 63 3f 7a 38 85 3f 07 a5 54 3f
       1.1481018 0.88782233 1.040786 0.8306431
000040 c1 f6 6b 3f 3c c6 7c 3f 71 6f 80 3f c9 34 47 3f
       0.9217339 0.9873998 1.0034009 0.7781492
000050 7c 7f 5b 3f f2 97 36 3f 8f c5 79 3f d8 28 8a 3f
       0.857414 0.713256 0.97567075 1.0793715
000060 03 59 5c 3f a5 41 8d 3f ca 40 3f 3f 19 83 83 3f
       0.8607332 1.1035658 0.74708235 1.0274383
000070 d3 0d 4b 3f aa b6 4c 3f de 46 90 3f 34 0e 60 3f
       0.7931797 0.79966223 1.1271627 0.8752167
000080 02 e2 88 3f ec b3 81 3f 0a b6 73 3f b4 aa 84 3f
       1.0693972 1.0133033 0.95199645 1.0364594
000090 c9 f4 8b 3f a0 bf 70 3f 5f 27 8c 3f d7 f3 57 3f
       1.0934078 0.94042397 1.0949515 0.84356445
0000a0 f2 50 89 3f c3 8d 95 3f f3 e6 77 3f 8a 5d 61 3f
       1.0727828 1.1683887 0.96836776 0.88033354
0000b0 b3 ab 91 3f b0 aa 86 3f 47 5e 92 3f ae 75 8f 3f
       1.1380523 1.052084 1.1435021 1.1207788
0000c0 9f dc 83 3f dd 90 7e 3f d9 27 3f 3f 14 06 56 3f
       1.0301703 0.99439794 0.7467018 0.83603024
0000d0 fd ff 7d 3f 0d ca 39 3f 27 d7 91 3f 4b 1a 4e 3f
       0.9921873 0.7257393 1.1393784 0.8050887
0000e0 34 f5 aa 3f 81 a4 75 3f ad 4b 43 3f f9 e7 81 3f
       1.335608 0.9595414 0.7628735 1.0148917
0000f0 a7 c0 89 3f 0e 4a 5e 3f ce 10 84 3f 90 29 88 3f
       1.0761918 0.8683175 1.0317628 1.0637684
000100 d0 44 8c 3f 42 34 95 3f 2f 9a 91 3f 3e 8f 7b 3f
       1.09585 1.1656573 1.1375178 0.98265445
000110 8d 83 38 3f 03 15 70 3f 6c 55 6c 3f f2 8e 68 3f
       0.7207573 0.9378206 0.92317843 0.9084312
000120 9b 7d 8c 3f f9 02 a0 3f ef da 8d 3f 13 d7 57 3f
       1.0975832 1.2500907 1.1082438 0.8431255
000130 7d 73 65 3f 4d c8 96 3f 6d 42 84 3f 7e 24 82 3f
       0.89629346 1.1779877 1.0332772 1.0167387
000140 12 0a 85 3f bb c7 78 3f 0f 3c 86 3f d8 f4 85 3f
       1.0393698 0.97179765 1.0487078 1.0465345
000150 b2 4d 64 3f 4c ff 98 3f b3 83 48 3f aa 5c 94 3f
       0.89181054 1.195291 0.7832596 1.1590779
000160 3f b2 80 3f 0b 05 77 3f a4 9a 85 3f 20 15 73 3f
       1.0054396 0.9649207 1.0437818 0.9495411
000170 b4 76 84 3f 84 0a 85 3f f8 09 8c 3f be f0 86 3f
       1.0348725 1.0393834 1.0940542 1.0542219
000180 b4 dd 7c 3f ba cd 8d 3f 4a 2f 9e 3f c2 b7 92 3f
       0.9877579 1.1078408 1.2358181 1.1462328
000190 c6 17 7b 3f f5 d0 65 3f f0 69 80 3f d0 b3 7f 3f
       0.9808315 0.8977197 1.003233 0.9988375
0001a0 f5 4b 6d 3f 8f 22 69 3f d1 ae 8a 3f 8b dd 84 3f
       0.92694026 0.9106836 1.08346 1.038011
0001b0 47 dc 5c 3f c7 56 7d 3f ce f9 5c 3f c4 91 7b 3f
       0.86273617 0.98960537 0.8631867 0.98269296
0001c0 a5 0e 9d 3f e6 ea 84 3f f6 a8 55 3f f3 e9 92 3f
       1.2270094 1.0384185 0.8346094 1.1477646
0001d0 51 6c 99 3f ac 17 5c 3f bc a7 77 3f 64 03 4e 3f
       1.198618 0.8597362 0.9674032 0.80473924
0001e0 8b a9 75 3f a3 14 9d 3f 9a b0 68 3f 6a 41 73 3f
       0.9596183 1.2271923 0.9089447 0.9502169
0001f0 aa be 77 3f f0 e4 6a 3f 28 04 3f 3f 59 92 73 3f
       0.96775305 0.9175558 0.74615717 0.95145184

norms.0.bias f4 [128]
000000 e9 e9 a1 be 54 66 ba be ef 03 68 bd d8 66 ab bd
       -0.31623772 -0.36406195 -0.056644376 -0.08369225
000010 e9 55 48 3e 45 74 80 bd 19 58 20 be 04 5f dd 3d
       0.19564022 -0.06272177 -0.15658607 0.108091384
000020 3f 0d b3 bb 0f 22 38 3d 63 cc 18 3d 1d 3d ab bd
       -0.0054642255 0.044954356 0.037304293 -0.08361266
000030 61 f2 f9 3d 70 68 56 bd 2b 1c f0 3d 7e a4 e8 be
       0.12204433 -0.052345693 0.117241226 -0.45437998
000040 b7 d8 9f be d9 56 af 3e f7 5d 03 bd bd 09 d5 3e
       -0.31220028 0.34245947 -0.032072034 0.41608992
000050 03 5c a2 3e 75 ed 9a be 7e 8b 59 bd 51 af 4f 3e
       0.31710824 -0.3025929 -0.053111546 0.20281722
000060 2a 5a 99 bd 99 03 d7 3d 78 ef 20 3f 8c df 87 bc
       -0.074879006 0.10498733 0.628654 -0.016586088
000070 2b 41 48 3e 15 8b 9c 3e b6 67 37 bc d3 31 c3 3c
       0.1955611 0.3057486 -0.01119416 0.023827469
000080 b8 e5 03 3e 4e bf 55 3e a1 39 07 3e 65 bc 9f bd
       0.128806 0.20873758 0.13205577 -0.07799605
000090 ec 51 e4 bc 47 ed d4 be ea 7d 7d bb 62 48 b9 bd
       -0.027871095 -0.41587278 -0.0038679787 -0.09047009
0000a0 5f d6 62 3e 5a ee 1c bd 49 91 ca bd d7 ea 8c 3d
       0.22152089 -0.038313247 -0.09890992 0.0688073
0000b0 42 40 d9 bc 7d 66 b9 3c f1 d3 72 be ae 52 4d 3e
       -0.026519898 0.022631878 -0.23713662 0.20051071
0000c0 40 fb 3a be c6 c6 14 3b 8e 9a b8 3e 27 c8 13 3e
       -0.18259907 0.0022701486 0.36055416 0.14431821
0000d0 e4 5a 44 3e 55 ab 82 be 2d fe de bd af 8d 13 3d
       0.19175297 -0.2552134 -0.10888324 0.036023792
0000e0 e3 a0 88 be aa 04 91 3d fd 43 cb 3d 67 66 a4 3e
       -0.26685247 0.07080968 0.09925077 0.32109377
0000f0 d4 e0 d5 bc 30 36 b5 bc bb 13 25 3e b1 ad 89 be
       -0.026108183 -0.022120565 0.16120808 -0.2689033
000100 df b0 03 be 57 fa 0e bc d4 1b 81 bd 52 00 7e 3e
       -0.1286044 -0.008726678 -0.06304136 0.2480481
000110 fe a7 d0 be c4 9f 43 bc ac a8 92 3b a6 67 d2 3c
       -0.40753168 -0.011939947 0.0044756737 0.025684189
000120 c2 60 45 3e 54 76 37 bd 4c 30 79 3e 55 62 ed 3d
       0.19275191 -0.04479058 0.2433483 0.11591021
000130 b5 d0 33 bf f7 f0 59 3c f2 5c 7e bb a0 4e 9c 3e
       -0.70240337 0.013302079 -0.0038812724 0.30528736
000140 9c 6f fa 3d cd 47 9e be 9a 35 03 be 0e a2 c1 3e
       0.12228319 -0.30914155 -0.12813416 0.3781895
000150 48 d9 20 bd eb 95 f1 bd a4 a4 97 3c 5e 3d 04 be
       -0.039269716 -0.11796173 0.018511124 -0.12914035
000160 c4 ad 53 be 07 27 08 3e 25 fd 4e be ff 8b 06 bf
       -0.20671755 0.13296138 -0.20213754 -0.5255737
000170 25 62 12 3e a5 d4 f5 bc e0 02 73 be 27 c2 1e 3d
       0.14295252 -0.030008623 -0.23731565 0.038759377
000180 81 4c 53 bc 00 26 a2 be 92 54 0f 3e 43 82 26 3e
       -0.012896658 -0.31669617 0.13997105 0.16260628
000190 b6 a0 f6 3c f6 36 7b bd 13 00 22 bd bb 32 53 be
       0.03010593 -0.06133171 -0.039550852 -0.20624821
0001a0 b0 1c 83 be a3 aa 00 3e 08 d2 a9 be c6 d9 63 37
       -0.25607824 0.12565093 -0.33168054 1.3580959e-05
0001b0 74 5e 57 3e c1 68 0a 3e cd 4c 77 be 02 ff 75 3d
       0.21032125 0.13516523 -0.24150391 0.060057648
0001c0 4d c5 15 3f 33 b5 16 be ba de 20 bc d6 fb bf bc
       0.5850418 -0.1471756 -0.009818727 -0.023435514
0001d0 f8 c1 12 3e fb e6 9a bd 91 30 12 be 66 49 de be
       0.14331806 -0.07563587 -0.14276339 -0.43415374
0001e0 17 ea ed 3d 06 87 88 3e 9f 97 29 3d 90 44 5a be
       0.11616915 0.26665515 0.041404363 -0.21315217
0001f0 87 d3 92 be 71 b7 a2 bc 0c df 84 3e 64 81 f3 3b
       -0.28677008 -0.019862862 0.2595142 0.007431196

norms.1.weight f4 [128]
000000 8e e2 78 3f a2 48 93 3f 94 84 89 3f 0c 67 8b 3f
       0.97220695 1.1506541 1.0743585 1.0890822
000010 f9 2e 79 3f 2b 16 7c 3f 58 24 93 3f 9e 84 72 3f
       0.973373 0.98471326 1.1495466 0.9473361
000020 f1 0a 63 3f 21 ac 60 3f 1c 05 89 3f 3e b4 92 3f
       0.8868857 0.8776265 1.0704684 1.1461256
000030 05 54 7d 3f 64 84 86 3f 6d 56 78 3f 12 94 8a 3f
       0.9895633 1.0509152 0.97006875 1.0826437
000040 69 60 8e 3f 93 a0 87 3f eb f1 55 3f 85 2f 80 3f
       1.1123172 1.0595878 0.8357226 1.0014502
000050 52 8f 85 3f 97 7f 83 3f 33 55 85 3f a1 83 91 3f
       1.0434363 1.0273312 1.0416626 1.1368295
000060 ed 68 84 3f 18 83 81 3f e3 9c 7f 3f 90 db 8d 3f
       1.0344521 1.0118132 0.99848765 1.108263
000070 20 ea 64 3f 24 bb 82 3f 9f 8b 8f 3f 4c 51 68 3f
       0.89419746 1.0213361 1.1214484 0.9074905
000080 33 86 88 3f 05 4e 87 3f de 95 ac 3f 1e 0b 78 3f
       1.0665954 1.0570685 1.3483236 0.96891963
000090 93 60 7d 3f c0 55 8d 3f bb aa 8a 3f 05 3c 7d 3f
       0.98975486 1.1041794 1.0833353 0.9891971
0000a0 94 59 76 3f 89 82 94 3f a6 4b 7c 3f 79 52 88 3f
       0.96230435 1.1602336 0.9855293 1.0650169
0000b0 d8 f5 8d 3f 0e 39 83 3f 42 18 58 3f a3 5f 62 3f
       1.109065 1.0251787 0.84412014 0.8842718
0000c0 ef 77 6f 3f 06 46 95 3f 21 fe 77 3f 44 d0 91 3f
       0.9354238 1.1661994 0.96872145 1.1391683
0000d0 01 51 82 3f eb 3e 69 3f d3 22 7a 3f 5b dd 82 3f
       1.018097 0.9111163 0.9770939 1.0223802
0000e0 11 60 86 3f 9f ba 8c 3f fa e8 50 3f b4 2a 89 3f
       1.0498067 1.0994452 0.81605494 1.0716157
0000f0 01 fe 89 3f a5 e9 81 3f 1f 3f a1 3f 33 fe 88 3f
       1.0780641 1.0149428 1.2597388 1.0702575
000100 dd a3 6c 3f 8c 20 56 3f be 8c 93 3f aa 4c 8c 3f
       0.92437536 0.8364341 1.1527326 1.0960896
000110 74 63 99 3f db b8 a9 3f 55 4d 74 3f 36 bf 90 3f
       1.1983476 1.3259538 0.954305 1.1308353
000120 f1 a6 9e 3f 62 b5 84 3f 73 4d 5a 3f 4f 47 7d 3f
       1.2394696 1.0367854 0.8527443 0.98936933
000130 b9 ec a2 3f 9b ac 8a 3f 1f e2 82 3f 9f 2b 93 3f
       1.2728492 1.0833925 1.0225257 1.1497687
000140 91 28 89 3f 69 b2 8e 3f a2 fc 89 3f 2d b9 88 3f
       1.0715505 1.1148196 1.0780222 1.0681511
000150 02 8a 86 3f 86 ec 7f 3f 5d 79 91 3f 4a 48 84 3f
       1.0510867 0.9997028 1.1365162 1.0334561
000160 7d 5f 97 3f 1e a2 82 3f a0 48 8c 3f 98 2c 92 3f
       1.1826016 1.0205724 1.0959663 1.1419859
000170 5f 2a 67 3f 00 f5 9d 3f 50 1c 93 3f 9e 8f 76 3f
       0.9029903 1.2340393 1.1493015 0.9631289
000180 cd f1 92 3f 34 20 87 3f 26 b3 7e 3f cc 16 5e 3f
       1.1480042 1.0556703 0.9949211 0.86753535
000190 db 86 8a 3f 34 2c 83 3f ea 6d 64 3f e2 db 92 3f
       1.0822405 1.0247865 0.89230216 1.1473353
0001a0 dc 89 7b 3f ae 0b 86 3f 8b de 8a 3f 2b e4 47 3f
       0.9825723 1.0472314 1.0849165 0.7808253
0001b0 4e e3 87 3f f1 eb 84 3f a0 6d 87 3f a3 59 60 3f
       1.0616243 1.0384504 1.058033 0.87636775
0001c0 a6 18 80 3f cd 34 83 3f a1 9d 83 3f 76 04 88 3f
       1.0007522 1.0250489 1.028248 1.0626361
0001d0 2a 10 63 3f 02 0b 8e 3f 2a fd 72 3f 84 63 a6 3f
       0.8869654 1.1097109 0.9491755 1.299912
0001e0 d0 ab 80 3f c4 d1 7c 3f f3 21 66 3f bb 1f 82 3f
       1.0052433 0.98757577 0.8989555 1.0165933
0001f0 f2 83 8e 3f 4c 65 84 3f 46 4c 92 3f 50 37 8d 3f
       1.1134017 1.0343413 1.1429527 1.1032505

norms.1.bias f4 [128]
000000 e9 85 58 be 64 47 13 3d 9f 05 90 bd 82 c1 eb 3c
       -0.21144833 0.035956755 -0.07032322 0.028778795
000010 ad 77 87 bd ae 40 b5 3c eb d5 af bd 3a 2d 75 3d
       -0.06614623 0.022125568 -0.085857235 0.059857585
000020 d5 2e 4e bc 66 36 c5 bc 9e b0 fb 3c 31 46 a6 bc
       -0.012584408 -0.02407379 0.030723866 -0.020297142
000030 b7 a2 b0 bd 40 a6 f7 3b ee 89 55 3e 2d da 42 3c
       -0.086247854 0.0075576603 0.20853397 0.0118928375
000040 86 55 8d 3b d5 73 77 3d a0 cb 26 bd 5d 42 9e bb
       0.0043131737 0.0604132 -0.040721536 -0.0048296885
000050 7b 4b 30 3c ac cc 88 3d bf 4d 10 bd 32 70 92 3d
       0.010760183 0.06679663 -0.035230394 0.07150306
000060 2a 88 72 3c a0 70 9c be 5e 01 1e 3f d2 51 eb bb
       0.014802972 -0.30554676 0.61720836 -0.0071813846
000070 55 4e 5f 3d 88 60 bf bc 12 32 0a bc 76 c4 2c 3d
       0.054518063 -0.02336146 -0.008434789 0.042179547
000080 dc 03 8f bd db bc 52 bd 6a 3c 93 3d f9 6b 8a bb
       -0.06983158 -0.051449638 0.071892574 -0.004224297
000090 0f 0a 4b bd 6d 75 c5 3d 41 30 53 3d f5 f3 16 bc
       -0.04957014 0.09641538 0.05155969 -0.009213437
0000a0 b5 57 38 bd 18 13 53 3c 07 a2 95 bd 9b 2a 01 bd
       -0.04500552 0.01288297 -0.07306295 -0.031534772
0000b0 21 23 f2 bd 8c 32 50 bc 66 e3 b3 3c 92 91 4e be
       -0.118231066 -0.012707364 0.021959018 -0.20172718
0000c0 c2 8d 9e 3d 01 dd 5b bd ef 72 4a bc 81 66 ff 3c
       0.07741882 -0.053677563 -0.012356504 0.031176807
0000d0 24 32 5e 3d 1a 3b 6d be b9 94 de bc 72 5c fb 3d
       0.054247037 -0.23167077 -0.027170526 0.12273492
0000e0 7e ed eb 3d 63 48 ac bd 72 c1 64 3e a6 56 e0 bd
       0.115199074 -0.08412244 0.22339419 -0.10954027
0000f0 71 9a 33 bd a1 a3 21 bd 23 51 9b 3d b0 6c aa 3b
       -0.04384846 -0.03946269 0.07583835 0.005200945
000100 da 98 b3 3e 7a 06 06 bc 90 21 77 bc 9e 45 a0 bd
       0.35077554 -0.008180255 -0.0150836855 -0.078257784
000110 96 23 da 3c c5 97 1a 3d 95 5b 2c 3d 2f 90 6a bc
       0.026628297 0.037742395 0.042079527 -0.014316603
000120 27 6e ab 3d a3 b4 cb bd d7 e6 63 3d b2 3c 05 3d
       0.08370619 -0.09946563 0.055640068 0.032528587
000130 04 57 5a bf ab 2d 13 be 73 ab b4 bc 5c b5 00 3c
       -0.85289025 -0.1437289 -0.02205441 0.007855739
000140 0c 13 9a bc fa ba f2 bb 94 1f b3 bb 48 7d 8d 39
       -0.01880791 -0.0074075432 -0.005466411 0.00026986958
000150 a7 c7 36 bd 39 99 2b bf 0c 02 93 3d e4 0d 11 bc
       -0.044623997 -0.67030674 0.07178125 -0.008853409
000160 20 90 61 3c 7f 08 d6 3c 50 9d 08 be 39 0b 17 3b
       0.013767272 0.026127098 -0.1334126 0.002304746
000170 d7 b3 b2 3d 34 60 ea 3b 7c af 2e bd f0 e3 83 3c
       0.08725708 0.0071525816 -0.042647824 0.0160999
000180 fc 40 b9 bc 9c d3 71 3d 18 05 7b 3c 5c f4 0e be
       -0.022613995 0.059039697 0.015321039 -0.13960403
000190 d7 36 0d 3d 3a 71 8e bd 31 a9 46 be 9b 5e ce bd
       0.034476127 -0.0695519 -0.19400479 -0.10076638
0001a0 de fe 01 bd 6f 73 f5 bb 5f 4d 1b 3e eb 77 6e bc
       -0.0317372 -0.0074905674 0.15166233 -0.014554958
0001b0 45 59 0a bd 30 02 37 bd de 3b 04 bd c8 5a 3e 3d
       -0.03377654 -0.04467982 -0.032283656 0.046473294
0001c0 f9 76 2c 3e cc 63 5d bc 21 41 f7 bd a6 5b eb 3c
       0.1684226 -0.013512563 -0.12072969 0.028730225
0001d0 5e 88 f8 bd 6f 77 df bc 5e 2c 2d bc 09 e7 ae 3d
       -0.12135385 -0.02727863 -0.01056966 0.0854016
0001e0 96 ec b2 bc d8 28 1d be ac e4 db 3c 17 42 47 bd
       -0.021841329 -0.15347612 0.026842438 -0.048647013
0001f0 07 95 0e 3c 66 81 75 bc c0 7b 98 3d 4f 47 3a bc
       0.008702523 -0.014984464 0.074454784 -0.01136954

norms.2.weight f4 [128]
000000 cb 2e 3b 3f 47 0d b6 3f 5d ce 85 3f 61 c3 40 3f
       0.73118275 1.4222802 1.0453602 0.75298125
000010 94 bd 8a 3f cd 50 90 3f 42 f8 93 3f 8b ad 86 3f
       1.0839105 1.1274658 1.1560137 1.0521711
000020 b4 02 a3 3f 52 23 77 3f 55 53 80 3f e8 e1 87 3f
       1.27352 0.9653827 1.0025431 1.0615816
000030 97 2d 6c 3f fb 26 81 3f 4e e4 7e 3f 82 e5 9d 3f
       0.92257065 1.0090021 0.99567115 1.2335665
000040 55 f5 76 3f b5 d8 3d 3f b2 cb 8f 3f 3b 20 9a 3f
       0.96468097 0.74158794 1.1234038 1.2041086
000050 da f0 9a 3f 80 a6 6d 3f ea ed 99 3f 42 37 97 3f
       1.2104752 0.92832184 1.2025731 1.1813738
000060 6b 0b 95 3f 95 f3 30 3f f1 2a 45 3f 35 91 a0 3f
       1.164411 0.69121677 0.7701865 1.2544314
000070 db bd 68 3f f1 61 70 3f e0 74 80 3f f0 a6 68 3f
       0.90914696 0.93899447 1.0035667 0.90879726
000080 15 4e 65 3f 36 e0 83 3f ee 57 89 3f 80 95 89 3f
       0.8957227 1.0302799 1.0729959 1.0748749
000090 b2 8d 6a 3f 12 49 94 3f 7a fc 63 3f b7 40 7f 3f
       0.9162246 1.1584799 0.89057124 0.9970812
0000a0 9a 82 9a 3f 72 67 7b 3f bb 93 81 3f 7e 2d 46 3f
       1.2071106 0.9820472 1.0123209 0.77413166
0000b0 f2 68 a0 3f 4c b9 57 3f 7b 92 6a 3f 0a 72 94 3f
       1.2532027 0.84267116 0.9162976 1.1597302
0000c0 2d a1 9a 3f 9a 75 87 3f f4 c3 6f 3f 3f 69 9e 3f
       1.2080437 1.0582764 0.93658376 1.2375869
0000d0 af 54 8d 3f 75 63 7e 3f af e2 93 3f 6e 22 a1 3f
       1.1041468 0.9937051 1.1553553 1.2588632
0000e0 b1 fc 82 3f 9f 95 89 3f 70 03 58 3f a1 f9 46 3f
       1.0233365 1.0748786 0.84380245 0.77724653
0000f0 84 ef 91 3f 7e 32 80 3f 26 89 93 3f c1 d2 81 3f
       1.1401219 1.0015409 1.1526229 1.0142442
000100 99 97 94 3f 5c 85 b5 3f 54 19 7d 3f 0d e9 92 3f
       1.1608764 1.4181323 0.9886677 1.1477371
000110 41 e9 94 3f 5f 1e 92 3f 7f 3a 7c 3f b7 fa 90 3f
       1.1633683 1.1415519 0.9852676 1.1326512
000120 aa f2 9e 3f 66 ae 8b 3f 75 3e 72 3f 83 9c 93 3f
       1.2417805 1.0912597 0.9462655 1.1532139
000130 50 b9 33 3f 6c 3b 92 3f f6 11 94 3f 68 e5 51 3f
       0.7020464 1.1424384 1.1567981 0.8199067
000140 9a ed 86 3f 83 1c 3c 3f 60 7e 6f 3f 25 cc 55 3f
       1.054126 0.73481005 0.9355221 0.83514625
000150 fd 9a 9d 3f b5 04 2b 3f 61 44 a5 3f d2 83 82 3f
       1.2312924 0.6680406 1.2911493 1.0196478
000160 26 62 81 3f 1e a7 91 3f 88 fd 8f 3f 69 18 88 3f
       1.0108078 1.1379125 1.1249247 1.0632449
000170 9e 96 93 3f 37 fc 60 3f 46 17 82 3f 11 81 81 3f
       1.153034 0.8788485 1.0163352 1.0117513
000180 e2 2d 7b 3f 00 8e 59 3f 68 0e a5 3f 09 3e 7f 3f
       0.98116887 0.849823 1.2895021 0.99704033
000190 a5 e7 6a 3f 1f 23 9a 3f 2b c2 93 3f 86 dd 81 3f
       0.9175971 1.2041968 1.154363 1.0145729
0001a0 0f 04 85 3f c3 27 8d 3f 04 b0 74 3f d5 41 7e 3f
       1.0391864 1.1027759 0.9558108 0.993192
0001b0 0b 40 81 3f 11 bf 8a 3f 6d 50 85 3f 6b 74 86 3f
       1.0097669 1.0839559 1.0415169 1.0504278
0001c0 51 2d 14 3f 38 54 63 3f 8d 52 a6 3f 55 a7 81 3f
       0.5788165 0.8880038 1.2993942 1.0129191
0001d0 05 2d 76 3f 97 a1 82 3f a0 23 81 3f c2 9c 8b 3f
       0.96162444 1.0205563 1.0088997 1.0907214
0001e0 e6 77 87 3f 0b f4 89 3f b5 4d 91 3f df af 97 3f
       1.0583465 1.0777601 1.1351839 1.1850547
0001f0 ce 26 95 3f bb a1 8b 3f 92 4c 46 3f 6f 8e 82 3f
       1.1652467 1.0908731 0.7746059 1.0199717

norms.2.bias f4 [128]
000000 c1 9c 8a bd df 70 63 bd ce d3 83 bd 09 f0 79 bc
       -0.0676818 -0.055527564 -0.06436883 -0.015254983
000010 8a e8 15 bd e2 9e 5f bc 35 83 a2 3c f8 e9 a4 3d
       -0.03659872 -0.01364872 0.019837955 0.080524385
000020 f6 16 fb bb d4 79 49 bd 9c c4 9f b9 33 22 98 3d
       -0.0076626493 -0.04918845 -0.0003047333 0.07428398
000030 18 a6 64 bd c9 35 00 3d 2a c0 1c 3e 27 5e 07 3c
       -0.05582246 0.031301294 0.1530768 0.008262194
000040 f5 ad 1b bd e8 93 86 bd b6 4e 88 3c 0d 9b 86 3d
       -0.038007695 -0.0657118 0.016639095 0.06572542
000050 89 cf 18 3c 15 fa 8e 3d dd e3 84 3e b7 59 c2 bd
       0.009326824 0.06981293 0.25955096 -0.09489768
000060 14 eb ae 3c 4a 8f 30 be c4 6f a1 3c 4a 04 12 3a
       0.021352328 -0.1724216 0.019706614 0.0005570097
000070 4f 92 e9 bc 90 4b 06 3a dd 31 29 ba bd b4 78 bc
       -0.028512148 0.0005122954 -0.00064542686 -0.01517981
000080 73 66 38 be b3 29 0e 3d b4 e8 31 3c b1 7a 12 bd
       -0.18007831 0.034707736 0.010858703 -0.03576154
000090 78 86 cb 3c 82 7f 63 3e 91 47 00 3d 7d de 61 3d
       0.024844393 0.22216609 0.03131825 0.055143822
0000a0 a9 b1 b5 bb 9b fc 47 bd d9 5f dc bc a6 f2 04 3e
       -0.0055448604 -0.048824888 -0.026901172 0.12983188
0000b0 1c 94 fa bd 2c 2e cb 3d 63 0e 1f 3f d6 f7 83 bd
       -0.12235281 0.09920916 0.6213133 -0.06443755
0000c0 18 a7 1c bc a9 d3 c1 ba 3a 89 82 bd 21 ea d4 3b
       -0.009561323 -0.0014787811 -0.0637383 0.006497637
0000d0 4e e0 77 3c 3f 6b 5b bd ae ed 70 3d 4e 97 07 bc
       0.015129162 -0.053569075 0.05882042 -0.00827582
0000e0 53 99 9a 3d 23 ad c2 bd e1 a0 0c 3e b3 f4 42 be
       0.075487755 -0.095056795 0.13733245 -0.19038658
0000f0 a7 1e 59 bd 03 45 ab 3c 36 2d da bb 85 bf 22 3b
       -0.053007748 0.02090693 -0.0066582216 0.0024833393
000100 10 fe 38 3a 71 ff 3b bd 89 38 60 bb 0a 88 f0 bc
       0.0007056901 -0.045897905 -0.0034213385 -0.029361743
000110 72 9c a5 3a 08 89 77 3b c2 29 42 3d f5 97 80 bd
       0.0012635125 0.0037770886 0.047403105 -0.062789835
000120 ec 73 c3 3c 77 3b 5a bd fe ce 76 3d dc d2 73 3c
       0.023858987 -0.053279366 0.060255997 0.014881816
000130 f8 87 70 3d 2b 46 d9 bd 96 b9 4e bc 08 40 a8 bd
       0.05872342 -0.106090866 -0.012617489 -0.08215338
000140 9e 5a aa 3c 6f 1b 96 3e 28 c3 04 39 86 b6 37 bd
       0.020795163 0.29317805 0.00012661202 -0.044851802
000150 9c 59 07 bc 41 96 82 be 61 b8 9d 3d ed db 2a 3d
       -0.008261111 -0.2550526 0.07701183 0.041713644
000160 14 b4 25 bd ee 5d ef bb 40 2a d8 bc 0e d8 0a 3d
       -0.04045494 -0.0073048985 -0.026387334 0.033897452
000170 ca 0f 48 3d 17 8f 15 3e 16 60 53 3b cf 34 18 bd
       0.048843183 0.14605366 0.0032253317 -0.037159737
000180 21 3c d4 bd 5c ef 9b 3e 99 f8 50 bd 7a 33 b9 bd
       -0.10363031 0.30456054 -0.05101833 -0.090430215
000190 be 0c de be 51 a0 98 bb bc 57 2b 3e f4 78 2a bd
       -0.43369097 -0.004657783 0.16732687 -0.041619256
0001a0 b6 e3 dc bc 5e 38 a7 bc 1a a5 56 3c 2c 52 07 be
       -0.02696405 -0.02041262 0.013100887 -0.1321494
0001b0 f5 c9 f0 bb 5e fb be bd 01 b2 08 bc 8f fb a2 bc
       -0.007348294 -0.09325288 -0.008343221 -0.019895343
0001c0 d8 38 6a be 56 1c 03 bd 8c 60 81 3d 08 2c 3f bd
       -0.22873247 -0.032009445 0.06317243 -0.04667285
0001d0 f3 a1 0b be 07 3a 8c bc 88 e4 7f 3d d2 4c 8e 3d
       -0.13635997 -0.017117513 0.062473804 0.06948246
0001e0 8d ca 1d 3c b4 3e 90 bd 0f bc 2e bc 8d 35 b5 bb
       0.009630811 -0.0704321 -0.010664954 -0.0055300654
0001f0 00 ae f3 3d 1d 62 52 3c f0 e1 ea bd 7b f8 3e 3c
       0.11898422 0.012840775 -0.114688754 0.011655922

norms.3.weight f4 [128]
000000 7a 39 8f 3f a5 99 3f 40 b7 eb 2c 40 c8 83 47 40
       1.1189415 2.9937527 2.701887 3.1174183
000010 f7 8d e1 3f 81 72 2f 40 a2 37 c8 3f d0 96 28 40
       1.7621449 2.7413638 1.5641978 2.6342049
000020 ba b0 5d 40 2c 41 67 3f f8 7b bf 3f af 37 88 3f
       3.4639115 0.9033382 1.4959707 1.0641993
000030 24 10 30 40 b4 a6 25 40 d7 a6 28 40 13 a3 4e 40
       2.7509851 2.5882998 2.635183 3.2287033
000040 19 b8 52 40 fc be 88 3f 7d 27 e8 3f da 00 c7 3f
       3.2924864 1.0683284 1.8137051 1.5547135
000050 17 e8 a1 3f 50 6d 14 40 bb d3 85 3f dc 31 45 40
       1.2648953 2.319172 1.045524 3.0811682
000060 b8 57 69 40 45 da 76 3f 5f 17 87 3f cc 34 54 40
       3.645979 0.964268 1.0554007 3.3157225
000070 d0 6b 14 40 e4 9e c1 3f 17 cf f8 3f 79 0c 89 3f
       2.3190804 1.5126615 1.9438199 1.0706931
000080 e2 bb d8 3f b4 b7 40 40 18 7a de 3f 16 82 e1 3f
       1.6932337 3.0112123 1.738101 1.7617824
000090 3a 1f 0c 40 3c 09 07 40 f4 38 25 40 28 90 07 40
       2.189406 2.1099386 2.5816011 2.1181736
0000a0 7a c4 ca 3f 2c 21 3c 40 6b c5 1f 40 50 97 bf 3f
       1.584121 2.9395247 2.4964244 1.4968052
0000b0 cd 19 d4 3f ec 75 32 40 54 75 60 3f 05 02 13 40
       1.6570374 2.7884474 0.8767903 2.2969983
0000c0 19 15 41 40 7d dd 33 40 6a 50 b5 3f 05 69 1b 40
       3.0169127 2.8103936 1.4165165 2.428285
0000d0 20 8f 40 40 5b e4 38 40 13 1f a0 3f 32 ac 43 40
       3.0087357 2.8889377 1.2509483 3.057385
0000e0 b5 b6 1c 40 32 07 e9 3f e4 5e 82 3f 06 fc 69 3f
       2.4486516 1.8205321 1.0185208 0.9140018
0000f0 6f b5 01 40 d9 a3 09 40 c6 0e 05 40 8a 92 f9 3f
       2.0266988 2.1506255 2.0790267 1.9497845
000100 94 7b 8a 3f dd 5e d9 3f 9f 20 08 40 ba 5a 1e 40
       1.0818963 1.6982075 2.126991 2.4742875
000110 85 de 62 40 16 ea fd 3f 4c 5d 18 40 bf 8a fe 3f
       3.5448315 1.9837062 2.3806944 1.9886092
000120 b9 ec 3e 40 08 dd 09 40 22 37 93 3f d1 80 4c 40
       2.9831984 2.1541157 1.15012 3.1953623
000130 b5 c7 5a 3f 89 1e 0b 40 17 9a 2c 40 71 b5 5d 3f
       0.8546098 2.1737387 2.696905 0.8660498
000140 ba 5b 80 3f 1a 60 94 3f 32 cf 09 40 ce bb f2 3f
       1.0027993 1.1591828 2.1532712 1.8963563
000150 1f 48 f5 3f 75 16 57 3f 91 9d db 3f e4 71 f6 3f
       1.9162635 0.8401864 1.715746 1.9253507
000160 bb eb 1b 40 9c f2 14 40 c8 09 f1 3f f1 a7 26 40
       2.4362628 2.3273077 1.883111 2.6040003
000170 d6 15 b3 3f 94 36 f0 3f 1b 92 25 40 bd 44 23 40
       1.3991039 1.8766656 2.5870426 2.5510705
000180 df 1f 33 40 9a 8d 8b 3f 9d f3 27 40 1a 68 38 40
       2.7988203 1.0902588 2.624244 2.8813539
000190 b6 6b 55 3f 10 7b 35 40 50 41 c3 3f bf ad 39 40
       0.8336748 2.8356361 1.5254307 2.9012296
0001a0 2c af 25 40 78 8f 2b 40 dc 05 da 3f 07 3e 8c 3f
       2.5888166 2.6806316 1.7033038 1.0956429
0001b0 11 1c 11 40 fa c7 9a 3f 3c 02 3e 40 1e 6a 9d 3f
       2.267338 1.2092278 2.9688864 1.2298009
0001c0 77 d0 6d 3f 3a 79 3e 40 26 38 2c 40 d2 4c 0d 40
       0.9289622 2.976149 2.690927 2.2078137
0001d0 03 35 02 40 3d 1b 78 40 ce 8e 78 40 86 62 00 40
       2.0344856 3.8766625 3.883716 2.0060134
0001e0 97 f0 42 40 29 f3 42 40 aa b0 42 40 bf 63 a3 3f
       3.0459344 3.0460913 3.0420327 1.2764815
0001f0 64 38 17 40 98 13 38 40 13 c6 6c 3f 64 84 43 40
       2.3628168 2.876196 0.9248974 3.0549555

norms.3.bias f4 [128]
000000 32 81 4c bd ac 86 ad bc af 81 0b bd 9e f0 db 3d
       -0.049927898 -0.02118238 -0.034059223 0.107392535
000010 82 a5 9c 3d 0f 37 85 3c 3b 11 05 3d 01 b1 00 3e
       0.076487556 0.016261606 0.032487135 0.12567522
000020 1b cd 32 bc 87 c1 e1 bb 52 59 69 3b fe da 94 bc
       -0.010913159 -0.0068895253 0.0035606218 -0.01817083
000030 97 b1 9e bc 4b ef 3f bd cb 7b 8b 3d 0d 49 84 bd
       -0.01937179 -0.046859067 0.06810721 -0.06459246
000040 4e 62 d7 bc 5f 64 06 bd ef f1 0a 3d 7f e3 de 3c
       -0.026291993 -0.032810565 0.033922132 0.027208088
000050 38 a4 cb bc 5a b5 21 3c bd 08 9e 3d 0d 5f 82 bc
       -0.024858579 0.009869898 0.077165104 -0.015914464
000060 2e 1f 0a 3d 99 bb 13 be 9f 50 c1 bd 0c dc 7f 3d
       0.03372114 -0.14427032 -0.094392054 0.062465712
000070 65 c3 2a 3b b4 3b 27 bd 42 98 d1 bc fe f4 dc bd
       0.0026056406 -0.04082842 -0.025585297 -0.10788916
000080 18 12 8d bd 6d 6a 2f 3c de 4d 94 3d 25 50 ae bd
       -0.06888217 0.010706526 0.072414145 -0.0851138
000090 fe ce 6e 3d c6 5a 2f 3d ef 7c 2e 3c 58 40 b0 3d
       0.058302872 0.042811178 0.010649904 0.086060226
0000a0 f9 56 bf bd df 3c 67 3c 3f 6e 43 bd 9f d0 fc 3d
       -0.093427606 0.014113634 -0.04771256 0.12344479
0000b0 62 fe 9c bd 81 e6 41 3c 01 01 0a 3e 16 99 8c 3d
       -0.07665707 0.011834742 0.13476945 0.06865136
0000c0 5a e5 2e bd 23 7a 3c 3d 9b a2 bb 3c c8 c1 49 bd
       -0.042699195 0.046014916 0.022904685 -0.04925707
0000d0 06 2b 5d 3d 03 7c 28 3d 8a 62 5a 3d fe 0d e5 3b
       0.05399611 0.04113389 0.05331663 0.0069901934
0000e0 6e 74 81 3b e7 eb d8 3a 01 a9 b2 3d a2 1f 2e be
       0.003950647 0.0016549797 0.08723641 -0.17004254
0000f0 57 6f 43 3d 75 a5 5a 3d 11 f7 d1 bb 71 7e 15 3d
       0.047713604 0.05338045 -0.0064076264 0.036497537
000100 d2 07 c0 3a 51 08 27 3d b1 e5 d0 3c ee e7 b3 bd
       0.0014650768 0.040779416 0.02550015 -0.087844715
000110 c4 06 65 bd e1 5c 8a 3d 83 94 83 3b 07 93 0d 3d
       -0.055914655 0.067559965 0.0040155067 0.034564044
000120 95 ce 57 bd c3 26 00 be 57 26 bb 3c 27 36 55 bd
       -0.052687246 -0.12514786 0.02284543 -0.052053597
000130 e7 4f 54 3e 13 a5 8b 3c 39 11 49 bd b8 b7 c6 bd
       0.20733605 0.017046487 -0.04908869 -0.0970301
000140 22 28 be 3d 15 7a e8 3c 78 61 a1 bd 12 c3 31 3c
       0.092849985 0.028378526 -0.07879919 0.010849731
000150 09 e1 ae bc 71 30 f4 3d 9e 9e 3a bd 27 4a 9d 3d
       -0.02134754 0.11923302 -0.045561425 0.07680159
000160 fb 7d 81 bc 6d b9 09 bd a8 f8 2d 3d 90 6b 01 bd
       -0.015807142 -0.0336241 0.042473465 -0.03159672
000170 b3 2e cd bc 78 06 c9 3d 06 d5 bf bd 48 70 f6 bc
       -0.025046682 0.09815687 -0.09366803 -0.030082837
000180 fa c9 c6 bc 35 0b 40 bb de 11 5a bd 36 dd 52 bd
       -0.024266232 -0.0029303555 -0.053239696 -0.051480494
000190 67 6b 98 bd 0f 77 c6 3c e2 b3 89 3d 1c 0b 2c 3b
       -0.0744236 0.024226693 0.06723763 0.002625174
0001a0 d6 57 6f bc 9f c2 83 bd 49 a4 08 bc 04 6b a2 3c
       -0.014608344 -0.064336054 -0.00833995 0.01982642
0001b0 18 e6 ab bd 56 1b 6e bd ff 84 70 39 0c 78 34 bd
       -0.08393496 -0.05813154 0.00022937728 -0.044059798
0001c0 7c 44 dd bd be d2 35 bd e8 5e 41 3d a1 f2 83 3c
       -0.10804078 -0.044390433 0.04720965 0.016106905
0001d0 23 dd 3b bd 09 3d 2f bd 6c 24 16 bd 7a ef 6a 3c
       -0.04586519 -0.042782817 -0.03665583 0.014339322
0001e0 0b 94 7d 3d 7c cb a3 bc 16 be 14 bd 0a aa 50 3d
       0.061908763 -0.01999449 -0.036314093 0.050943412
0001f0 a3 6b b0 bb c0 e9 34 3c 00 31 0a be f0 e1 6f 3d
       -0.005383925 0.0110420585 -0.13495255 0.05856508

post_norm.weight f4 [128]
000000 3c 4e 89 3f bf 0f 90 3f 72 b9 71 3f 38 82 91 3f
       1.0727 1.1254805 0.9442359 1.1367865
000010 bb 9d 69 3f 31 36 82 3f 2a 10 60 3f 9c e9 8d 3f
       0.912563 1.0172788 0.87524664 1.1086917
000020 80 69 6e 3f 8e 84 c9 3f 63 c3 51 3f 58 cb 90 3f
       0.9312973 1.5743577 0.8193876 1.1312056
000030 ff 77 84 3f 56 c0 4b 3f 5b 59 8d 3f 40 7a 9b 3f
       1.034912 0.79590356 1.1042894 1.2146683
000040 7c 1b 90 3f 21 93 80 3f f3 09 a5 3f 74 28 e2 3f
       1.1258388 1.00449 1.2893661 1.7668595
000050 e1 d1 65 3f 77 8d 82 3f 50 da 86 3f b3 40 70 3f
       0.89773375 1.0199422 1.0535374 0.93848723
000060 c2 5c 95 3f a9 0b 65 3f db af 6e 3f 64 78 46 3f
       1.1668932 0.89470917 0.93237084 0.7752745
000070 19 6f b1 3f bf 2c 5d 3f 9d 2a 68 3f 8e 2d 42 3f
       1.3862029 0.863964 0.9069002 0.7585076
000080 48 a8 3f 3f be 3d 4f 3f b0 7b 60 3f 8b 5d 72 3f
       0.7486615 0.80953586 0.8768873 0.94673985
000090 b3 08 82 3f 37 d3 8c 3f 40 36 5f 3f 93 22 65 3f
       1.0158905 1.1001958 0.87192154 0.8950588
0000a0 a9 43 bf 3f fa 8f 5a 3f 14 46 7d 3f 14 31 6a 3f
       1.4942523 0.8537594 0.98935056 0.9148114
0000b0 cb e1 6d 3f 60 6a a0 3f ca 02 6a 3f fd b0 4e 3f
       0.9292266 1.2532463 0.91410506 0.8073881
0000c0 d5 97 9f 3f 8f 9d 52 3f 86 71 5a 3f 8b 1e 55 3f
       1.246821 0.82271665 0.85329473 0.8324973
0000d0 ea 08 7d 3f b9 1d 4a 3f a3 47 78 3f 0d 69 59 3f
       0.98841727 0.78951603 0.9698431 0.8492592
0000e0 61 8e 7d 3f a3 be 34 3f 4a 8b 71 3f ed 80 87 3f
       0.9904538 0.7060339 0.94353163 1.058622
0000f0 67 1e 54 3f 25 cb 50 3f 12 80 32 3f 84 90 7b 3f
       0.8285889 0.81559974 0.6972667 0.9826739
000100 be 59 6f 3f 84 45 c0 3f ef 90 5e 3f 33 44 6d 3f
       0.9349631 1.5021214 0.869399 0.9268219
000110 30 22 80 3f 47 4b bf 3f 54 b5 a5 3f 51 aa ba 3f
       1.0010433 1.4944848 1.2945962 1.4583226
000120 0e 63 e5 3f 66 af 5a 3f cb 4b 91 3f e0 97 65 3f
       1.7920854 0.85423887 1.1351255 0.8968487
000130 d5 da 98 3f ed d8 bb 3f 5e 8b 61 3f f7 00 58 3f
       1.1941782 1.4675575 0.8810328 0.8437647
000140 f3 28 a1 3f bd 6d 6f 3f 6f d2 66 3f da 96 69 3f
       1.2590622 0.9352682 0.90164846 0.91245806
000150 c4 e0 80 3f 1a 25 60 3f df 0b 7c 3f f7 5a 80 3f
       1.0068593 0.8755661 0.98455614 1.002776
000160 7c 39 a1 3f 7d b2 8f 3f cd b9 6d 3f 83 5a 75 3f
       1.2595668 1.1226345 0.92861634 0.95841235
000170 a1 85 76 3f e0 49 5d 3f 5a a6 92 3f 0c fa 69 3f
       0.9629765 0.8644085 1.1457016 0.91397166
000180 a0 73 82 3f 43 98 8e 3f 44 b1 62 3f ee b2 65 3f
       1.0191536 1.1140217 0.88551736 0.8972615
000190 b2 ef 5a 3f 2b e6 88 3f 37 93 94 3f 16 97 7d 3f
       0.85521996 1.0695242 1.1607426 0.99058664
0001a0 84 7d 64 3f 9a 99 aa 3f af 58 5e 3f 3a ce 55 3f
       0.8925402 1.3328125 0.8685407 0.835178
0001b0 c1 15 70 3f e8 4c 6a 3f 22 15 a0 3f f7 fd 82 3f
       0.93783194 0.915236 1.2506449 1.0233754
0001c0 8d e9 9a 3f 5a 2f a1 3f 84 cb fd 3f 8c 4f 42 3f
       1.2102524 1.2592576 1.9827733 0.7590263
0001d0 9f 99 98 3f 47 73 7d 3f 68 29 51 3f 0e db a2 3f
       1.1921881 0.99004024 0.81703806 1.27231
0001e0 17 8b 89 3f 29 e8 43 3f 59 0e 81 3f 96 34 7f 3f
       1.0745572 0.76526123 1.0082504 0.99689615
0001f0 8c e1 80 3f 10 e2 ad 3f f1 e1 9d 3f 48 ff 97 3f
       1.0068831 1.3584614 1.2334577 1.1874781

post_norm.bias f4 [128]
000000 57 4c 84 be 08 8d 99 3d a3 4a 2c be 3d 53 b0 3d
       -0.25839493 0.07497603 -0.16825347 0.086096264
000010 3d 36 e8 bd 0d f5 5d bd 30 db 41 3e 74 d0 f4 3d
       -0.1133847 -0.054188777 0.1893127 0.11953822
000020 d5 0c 21 be 0a d1 a9 bd c4 79 4c 3e 5e 9b c4 3d
       -0.15727551 -0.08291824 0.19968325 0.095999464
000030 ea 2b 3b be 9c 06 22 3e 8b e3 cc 3d 81 70 96 3d
       -0.1827847 0.15822834 0.10004338 0.07345677
000040 a1 ee 3b 3d f1 9f 10 be c6 25 48 bd 57 b2 59 3d
       0.04588187 -0.14123513 -0.04886415 0.053148594
000050 ee 60 c7 3d 9c d8 a2 3e c2 a2 36 be 38 6e 24 3e
       0.09735285 0.31805885 -0.17835525 0.1605767
000060 42 96 67 3d 55 8e 83 be 18 92 1e 3e 08 c3 74 be
       0.05653978 -0.25694528 0.15485418 -0.23902524
000070 4f 1b 0c 3e 91 51 22 be 3c 2e 0b 3e ff 5c 15 be
       0.13682292 -0.15851428 0.13591856 -0.14586256
000080 cd c7 9d be c8 26 2f be 3b 13 0e be 4e 9d a5 3d
       -0.30816498 -0.17104638 -0.13874523 0.08086644
000090 13 c6 f2 bd 4b 54 17 3e 80 27 5a 3e d3 96 a5 bd
       -0.11854186 0.14778249 0.2130413 -0.08085408
0000a0 a4 6f 6c 3d e8 03 06 be 1c 88 64 bd c5 4e db 3d
       0.057723656 -0.13087428 -0.055793867 0.107083835
0000b0 8f 0a d0 3d 04 7c c3 3c 97 3c 0d 3e 73 72 58 be
       0.10158264 0.023862846 0.13792644 -0.21137409
0000c0 9d 12 da 3d c7 d8 08 be 6a 6d c6 3c 6c 71 9a 3e
       0.106480815 -0.13363944 0.024222095 0.3016466
0000d0 95 c3 0b 3e fd b4 7c be 88 33 ad bd c0 a4 7e 3e
       0.13648827 -0.24678417 -0.084570944 0.24867535
0000e0 90 bf d8 bd 54 cd bd be 95 83 33 3e b4 91 5b bd
       -0.10583413 -0.37070715 0.17530663 -0.05360575
0000f0 74 15 37 be 1d 46 28 be f8 17 a6 be b5 71 9c 3c
       -0.17879277 -0.16432996 -0.32440162 0.019097188
000100 58 70 4d be a4 2a f7 3d 5f 0f 97 3d c6 14 4a 3e
       -0.20062387 0.1206868 0.07375979 0.19734487
000110 38 cf c9 be 11 dd 1c 3e b1 9a 1c 3e 3c 39 78 3e
       -0.39415908 0.15318705 0.15293385 0.24240583
000120 d9 72 38 be 6f 38 80 be f7 35 8b 3e 96 16 c6 3d
       -0.18012561 -0.25043055 0.2718961 0.09672277
000130 f0 6f c7 3d d3 81 a7 3d 39 e2 4f 3d 53 5a 28 be
       0.09738147 0.08179059 0.050752852 -0.16440706
000140 9c 1c 80 3e 7d a6 34 be 02 e7 f1 3d d5 89 16 bd
       0.25021827 -0.17641635 0.11811639 -0.03675254
000150 c6 b6 a0 3d 38 72 ed 3d 88 2b 43 3e da 4c bc bd
       0.07847361 0.11594051 0.19059575 -0.09194346
000160 c5 12 1e be ac 51 17 bd b7 62 f9 3d 1f dc f4 3d
       -0.15436848 -0.036943123 0.121770315 0.11956047
000170 fd f9 f7 3d a9 d3 16 3d 0b b9 44 3e 78 d6 4e bd
       0.12108228 0.03682295 0.19211213 -0.050497502
000180 2e 1e 1d 3b 86 69 15 3e a2 bc 44 3e 11 27 ce 3d
       0.0023974287 0.14591035 0.19212583 0.10066045
000190 9a eb e4 bd c6 8e 9f 3d 0c bf 45 bd f6 18 01 3e
       -0.1117775 0.07790904 -0.0482779 0.12607178
0001a0 94 ac 98 3d 08 9b c1 bc 92 b5 1b 3e ce af 46 3e
       0.07454792 -0.023633495 0.15205982 0.19403002
0001b0 87 b0 e9 3d 2e 36 56 be ce 8e 85 3b 69 95 92 bd
       0.11410623 -0.20919105 0.0040758615 -0.07157404
0001c0 1e 80 17 bf 69 83 ed 3d a7 91 ee 3d f2 05 9f be
       -0.59179866 0.1159733 0.11648875 -0.31059223
0001d0 50 ef 17 3e 1c 27 35 be c4 83 00 be f2 e6 d2 3d
       0.14837384 -0.176907 -0.12550265 0.102979556
0001e0 f6 56 ec 3c 07 b7 c7 be 04 b4 83 3d 63 d8 ff 3d
       0.02885006 -0.39006826 0.0643082 0.12492444
0001f0 cf 89 3e 3e 3c 86 1c 3e d6 b2 db 3c 44 45 d5 bc
       0.18607257 0.15285581 0.026818674 -0.026034005

input.weight f4 [128, 3]
000000 84 30 ba 3e 1b 1c 28 bf c7 1f b8 3e 8a 4e a4 3e
       0.3636514 -0.65667886 0.35961744 0.3209117
000010 4a b8 3c 3f 6c 8d 0d bf d9 6e aa be 72 0a df 3e
       0.737187 -0.5529392 -0.33287695 0.43562657
000020 44 1d 17 bf 5f e4 1a 3f 7d 67 01 3e 36 ce d3 3d
       -0.5902903 0.60504717 0.12637134 0.10342066
000030 86 93 1a bf 36 1d 2e 3e 94 fe 6b 3e 2c da 9f bd
       -0.6038135 0.1700333 0.23046333 -0.07805285
000040 2c 23 f9 3e ca 44 21 3e 47 3b 15 bf 51 1f 11 3f
       0.48659647 0.15748897 -0.58293575 0.5668841
000050 f9 69 5f 3e 87 23 85 be 17 33 0f bf 3d 9a e0 3e
       0.21817769 -0.26003668 -0.5593733 0.43867674
000060 fa 3a 0a 3f c3 70 1d bf 9d a0 80 bd b9 b4 bb 3e
       0.5399624 -0.61500186 -0.062806346 0.36661318
000070 ff b7 b6 be c9 b1 29 bd 80 67 a0 bd 01 8d 10 3e
       -0.35687253 -0.041429315 -0.07832241 0.14116289
000080 8a 4b 80 be 4e 92 19 be ca 90 e9 3e 5b ec 4f 3e
       -0.25057632 -0.14997217 0.45618278 0.20305006
000090 4f f2 28 3f 34 60 2b bf 2a 09 d9 bd 55 b3 11 3f
       0.65994734 -0.6694367 -0.10597451 0.56914264
0000a0 e5 3f 6c 3d ef 87 4d be 8d 08 24 bf 31 ff a9 3e
       0.057678122 -0.20071386 -0.6407555 0.33202508
0000b0 52 c5 ea 3e 50 54 dd 3e 85 79 06 3f 01 00 38 3e
       0.45853668 0.43228388 0.52529174 0.17968751
0000c0 e8 05 e8 3e e2 43 6b be 6d 19 f8 3e 75 64 d9 bd
       0.45317006 -0.22975114 0.48456898 -0.10614864
0000d0 85 d2 53 be a0 5c d8 be 6c e6 f1 bc aa 73 b4 3e
       -0.20685776 -0.42258167 -0.029528819 0.35244495
0000e0 84 cb b9 3e 03 be b0 be f6 2f 0d bf 77 ba 36 3f
       0.36288083 -0.34519967 -0.5515131 0.7137827
0000f0 95 e0 24 be 89 22 26 be bf f2 b2 3c 7c b5 f8 bd
       -0.16101296 -0.16224112 0.021844266 -0.121439904
000100 a7 8d d5 be 99 b9 16 3f 20 b6 22 be d1 6d 97 3e
       -0.41709635 0.5887695 -0.15889788 0.2957597
000110 66 4b a7 3e ce f7 7c be b1 6d 27 3f 9c 79 4f be
       0.32674712 -0.24703905 0.6540175 -0.20261234
000120 af 80 8f be 5d 38 ef 3e 91 75 f2 3e 59 f3 69 3e
       -0.28027865 0.4672269 0.4735532 0.22846736
000130 7e 1b 9b bb d4 45 3f 3e fc de 22 be 28 f8 31 bb
       -0.004733502 0.18678981 -0.15905374 -0.002715597
000140 78 45 d8 bd 14 c9 25 be 9c 77 04 be 23 c8 84 3e
       -0.10560125 -0.16189986 -0.12936252 0.25933942
000150 b2 8d 31 3f 8c 1d db be 1e 02 86 be f1 cc 6c be
       0.69356835 -0.4279598 -0.2617349 -0.23125054
000160 f8 d8 df 3d af a6 52 be 87 43 83 be 38 07 0c 3e
       0.109300554 -0.20571397 -0.25637457 0.13674629
000170 cd ca 1c be e7 af db 3d 16 ee a1 be 0d ed 90 bd
       -0.15311737 0.1072691 -0.31626958 -0.07076464
000180 06 84 c0 be 67 96 e4 bd e4 61 be 3e 7d 6c d7 3e
       -0.37600726 -0.111614995 0.3718406 0.42074957
000190 f9 b1 1b be fa 68 0f bf 81 de a7 be 22 1e ba be
       -0.1520461 -0.56019557 -0.32786945 -0.36351115
0001a0 57 09 84 bd d1 39 8e be 68 dc b4 be 81 50 4a 3e
       -0.06447094 -0.27778485 -0.35324407 0.19757272
0001b0 be 02 08 3e 17 6b 44 be 75 c3 b5 be cb fc 44 3f
       0.13282296 -0.19181477 -0.35500684 0.7694823
0001c0 91 1b 13 bf 97 08 32 3d 38 0a bf 3e 23 a7 e9 3e
       -0.5746394 0.043465223 0.37312484 0.45635328
0001d0 b3 b5 0c bf 46 61 8d be 99 98 b9 3e 25 f2 91 bd
       -0.5496475 -0.27613276 0.36249235 -0.071262635
0001e0 56 29 4c 3e d0 e9 07 bf 70 1c b3 3e 58 1a 9c be
       0.19937643 -0.53091145 0.34982634 -0.3048885
0001f0 82 fa 9e be e3 c9 fd 3e 10 b2 47 3e eb 8a eb bc
       -0.31050497 0.4956809 0.19501519 -0.028752765
000200 7a 33 00 bf 64 d9 9e 3d cc ec 8f be 0a f3 74 be
       -0.50078547 0.07756308 -0.2811035 -0.23920837
000210 a4 08 68 bc 78 3e 8d 3e c7 ed e3 be 4a cc 09 3f
       -0.014162216 0.27586722 -0.44517347 0.53827345
000220 3d c4 bc 3e 04 a8 3e bf 39 63 fc 3e 51 95 96 be
       0.36868468 -0.7447512 0.4929445 -0.29410794
000230 57 f9 c1 be d9 34 e6 3e e1 77 b0 be b4 b0 c6 be
       -0.37885544 0.44962195 -0.3446646 -0.3880669
000240 5e 89 0c 3d d8 57 e9 3e 4d fc 2b 3d c3 46 2c be
       0.03431069 0.45574832 0.04198866 -0.16823868
000250 7f bd 1d 3e 35 53 9f be 81 02 df be ce c1 38 3e
       0.15404318 -0.3111817 -0.43556598 0.1804268
000260 f1 7d 3c 3d 7b c6 fb 3e 93 23 0d be f4 a2 f0 be
       0.046018545 0.49174866 -0.13783102 -0.46999323
000270 d2 1a ad 3b b2 6d fa be 54 d1 16 3c c2 26 cc 3d
       0.0052827382 -0.48911816 0.009205181 0.0996833
000280 f6 e0 1c bd fd c1 c7 3d 5f 6f fc bd cc f2 3a 3e
       -0.038300477 0.09753797 -0.1232593 0.18256682
000290 11 fc b4 3e e3 9f 8a 3e bf 18 72 3e 2f b9 f1 bd
       0.3534856 0.2707511 0.23642252 -0.11802899
0002a0 c8 4d 86 3e 1a d9 e7 3e 83 56 26 bf 8d 2e a5 3e
       0.26231217 0.45282823 -0.64975756 0.32262078
0002b0 59 0e 83 3c ad 8b c8 be a2 32 51 be 4a 7d 8f be
       0.015998052 -0.39169064 -0.20429471 -0.28025275
0002c0 ef cd cb bd fb ec e9 be 51 31 af be 04 10 11 be
       -0.09951388 -0.45688614 -0.34217313 -0.14166266
0002d0 b1 f9 ce be 1f 84 c4 be 01 8c b5 3d 0e 4a 14 bf
       -0.40424874 -0.3838205 0.08864594 -0.579255
0002e0 f6 8d 22 bc 6d 45 8e 3d 6b e3 2f be 7b 44 d1 3d
       -0.009921541 0.06946836 -0.17176597 0.1021814
0002f0 6c b8 91 3c e4 71 ad be c9 8a f2 bd 0a 96 3e 3d
       0.017788135 -0.33875954 -0.118428774 0.046529807
000300 9f d9 dd 3e d9 83 82 3e c8 c3 de be 6b 4c de be
       0.43330094 0.25491217 -0.43508744 -0.43417677
000310 0f 46 85 3e 28 75 c8 3e 7f c9 63 bd 6e 4f af be
       0.26030013 0.39151883 -0.055612084 -0.34240288
000320 99 37 4e be 8a 77 e5 3d b6 f1 c4 be 2f cd 6b 3e
       -0.20138396 0.11204441 -0.3846566 0.2302749
000330 16 4a fe 3d 8b cc e9 bd 53 e6 a2 3d d8 13 9c 3e
       0.124164745 -0.114159666 0.07954087 0.3048389
000340 7e 32 13 3f 9a b5 3d bf 88 83 4c 3f 36 b2 10 3e
       0.5749892 -0.74105227 0.798882 0.14130482
000350 1b fc 44 bf 6f fb fa 3d b0 3d 19 bf 0a a6 f6 3e
       -0.7694718 0.122549884 -0.5985975 0.48173553
000360 e7 f1 66 3f 77 c5 26 bf fa 92 93 be 83 0d 88 3c
       0.90212864 -0.6514506 -0.28823072 0.016608005
000370 5f 38 6d be 70 0d 3f 3e 50 6f 00 bf 91 29 e8 3e
       -0.23166035 0.1865747 -0.5016985 0.45344213
000380 41 92 05 3e d0 5a 01 3e 65 d7 94 be 0b 45 07 3e
       0.13044073 0.12632298 -0.29070583 0.13209932
000390 06 33 c8 3e 53 1b 3a 3f db 86 cc be 59 38 df be
       0.39101428 0.72697943 -0.39946637 -0.43597677
0003a0 e1 35 a5 3e ab 6f af 3e 57 90 90 be 06 e0 81 bd
       0.3226767 0.34264883 -0.28235123 -0.06341557
0003b0 0e 0d 60 be 54 f2 b1 3e e5 c7 e5 be 60 c8 b6 3d
       -0.2187998 0.34755194 -0.4487907 0.08924937
0003c0 99 72 a9 3e 9e 60 d4 3c a2 6a 14 3e d7 ce 8a 3e
       0.33095244 0.025924977 0.14493802 0.2711093
0003d0 f3 50 8a be 0e 7b f6 3d ff d5 2a be 42 b7 ea 3d
       -0.27014884 0.120351896 -0.16683196 0.11460735
0003e0 c5 c0 7d 3e 19 2d 98 be d4 e7 1c bd 09 97 64 be
       0.24780567 -0.29721907 -0.038307026 -0.2232324
0003f0 d9 4a 6f be fb fb ef 3d 03 55 b1 3e 06 11 b0 be
       -0.23368396 0.11717983 0.3463517 -0.34387988

input.bias f4 [128]
000000 51 24 d9 3c f6 c3 dd be 1a d6 e0 3e 96 3e 09 bf
       0.026506575 -0.4331357 0.43913347 -0.53611124
000010 4f fc c0 3e bb b1 16 be 20 0b 00 bf ba a8 15 be
       0.37692496 -0.14716236 -0.50016975 -0.14615145
000020 dd c8 4b 3e ba d5 64 bc df 42 a6 be 20 52 ab be
       0.19900842 -0.013966972 -0.32472894 -0.33461094
000030 23 8a b1 3e a8 98 cc be 03 1d 58 be 49 8a 02 bf
       0.34675702 -0.39960217 -0.21104817 -0.50992256
000040 e9 20 07 bf a8 b2 0d 3f 45 6d 9d be 8b 2c 13 bd
       -0.5278459 0.5535073 -0.3074743 -0.03593115
000050 8a 5d c3 bd 71 91 14 bf 0a 19 37 be a4 74 d2 be
       -0.095393255 -0.58034426 -0.17880645 -0.41104615
000060 e1 e9 a2 be c0 03 f1 3e a9 69 d6 be ed ca 92 3d
       -0.3181906 0.47073174 -0.41877487 0.07167611
000070 81 e4 cd bd 91 4c e4 3d bb a2 7a bd c2 93 9b 3e
       -0.10053349 0.111474164 -0.061190348 0.30386168
000080 9e d8 a6 3e ca 62 f8 3e c0 69 b9 3e 50 d9 37 bc
       0.3258714 0.4851287 0.36213493 -0.011221245
000090 54 8d ab 3e ca 0d da be 71 c2 ca be af 12 ed 3e
       0.33506262 -0.42588645 -0.39601472 0.46303317
0000a0 27 64 ad bd c3 72 dc 3e 26 85 9f 3e de 95 f5 bd
       -0.08466368 0.43056306 0.31156272 -0.119914755
0000b0 b8 fa c9 bc 65 73 0e be 0c b3 16 bf a7 01 d3 3e
       -0.024655685 -0.13911207 -0.58866954 0.41212198
0000c0 84 76 ce be 83 7c 28 3e cf 49 05 3f 3a 2f df be
       -0.40324795 0.16453747 0.5206575 -0.43590719
0000d0 8b 33 ce be 7e 03 f9 3e d5 af fd bd 41 8c cd be
       -0.402737 0.48635477 -0.12387053 -0.40146068
0000e0 f2 8b f6 3d fa a3 97 3e b0 57 ab be 3e bf d2 3e
       0.12038411 0.29617292 -0.33465338 0.4116153
0000f0 5c 12 f0 3e 25 1b ee 3e 54 40 01 3e 34 c9 70 3d
       0.46889007 0.46505085 0.12622195 0.058785632
000100 52 cd 7e 3e e9 98 65 be 40 aa 16 3e 6e 6b 6a be
       0.24883011 -0.22421612 0.14713383 -0.22892544
000110 02 15 30 3f f2 24 eb bd ac 3c b2 be 05 1d e8 bd
       0.68782055 -0.11481656 -0.34811914 -0.1133366
000120 65 4b e9 3c 15 3e 37 3d 03 df 22 bf ed 8a 98 be
       0.028478334 0.04473694 -0.6362154 -0.29793492
000130 05 ed cd be 13 b1 f1 bd d5 31 41 bd da 9b c2 3e
       -0.40219894 -0.11801352 -0.047166664 0.3800953
000140 71 17 dc be d6 ea 95 bc 1d 26 4b be 3a 9b 8e be
       -0.42986634 -0.018300455 -0.19838758 -0.27852803
000150 01 ac 98 be aa 9b 25 bf 50 82 de be 69 1a f6 3c
       -0.2981873 -0.6469065 -0.43458796 0.03004189
000160 63 f7 c4 3c 63 df 24 3e f3 aa c7 be 96 e3 06 bf
       0.024043744 0.1610084 -0.3899761 -0.5269102
000170 37 5d 96 be 6e 12 9d be 7f 64 1d be 64 6d 93 3e
       -0.29367992 -0.30678123 -0.15370367 0.28794396
000180 b1 f0 05 3e 2b 4f 54 3d cd 61 bc be c1 9b b3 be
       0.13080098 0.051833313 -0.36793366 -0.35079768
000190 54 e0 e9 3e 10 f3 e6 be 87 ed dc bb fc 78 bb be
       0.4567896 -0.45107317 -0.0067421827 -0.3661574
0001a0 a7 cc 01 bf d9 41 25 bd 8e ce 06 be bc e6 f3 be
       -0.507029 -0.040346 -0.13164732 -0.47636974
0001b0 0c 7c bc be b0 4e e8 3e 70 21 7a be 89 cc ce 3e
       -0.3681339 0.45372534 -0.24426818 0.40390423
0001c0 bf 9c 70 3f dd 33 c5 be e3 77 c4 bd 8c 5f d5 3e
       0.93989176 -0.3851613 -0.09593179 0.4167446
0001d0 c8 d1 e9 bd df 22 8c 3e 69 3a 04 3f fa 11 f7 be
       -0.11416966 0.27370355 0.51651627 -0.48255903
0001e0 00 d1 3a 3e be 1a 11 3f 4c 21 53 be d9 8c f8 be
       0.1824379 0.5668143 -0.2061817 -0.48544958
0001f0 f1 38 bf be 9d ef de be c5 24 cb 3d 3b 2e 02 3d
       -0.3734813 -0.43542185 0.099191226 0.03178237

mapping_layers.0.D f4 [1, 128]
000000 8e 6e a4 3f 14 15 b3 bf 44 82 e5 bd f9 f1 64 be
       1.2846239 -1.3990808 -0.11206487 -0.2235793
000010 98 c3 f3 3e 2f 50 96 bd 58 8a 67 bf ab 22 20 bf
       0.47610164 -0.073395126 -0.9044547 -0.625529
000020 ac 9c 93 3f 36 66 89 bf 21 b5 eb 3f 4c 88 2b bf
       1.1532187 -1.0734317 1.8414651 -0.6700485
000030 7b 63 93 bf 52 c7 50 3f ed 8b a6 3f 4d 65 25 3e
       -1.1514734 0.8155414 1.3011452 0.16151924
000040 0b 48 2c 3e 6b 0a 2b 3e fa ad cb be 79 a0 21 40
       0.16824357 0.16703193 -0.3978117 2.5254195
000050 b1 64 d7 bf ae ae 14 bf 40 90 62 bf 34 b0 14 3e
       -1.6827604 -0.5807904 -0.8850136 0.14520341
000060 e1 ce 65 3f b2 56 8f 3f 16 d2 ef 3d fc 28 d9 be
       0.897688 1.1198332 0.117099926 -0.4241408
000070 f6 5c b4 bf 6a ee a5 bf 72 ac 13 40 f4 22 8e bf
       -1.409087 -1.2963383 2.3074002 -1.1104417
000080 70 78 28 40 39 e3 81 be 0b 77 8a 3b 36 06 22 3f
       2.632351 -0.2536867 0.004225617 0.6329073
000090 9c b9 22 be a5 23 ca 3e c4 2e 96 bf 35 f0 56 3e
       -0.15891117 0.3948032 -1.1733022 0.20990069
0000a0 0b b6 da bf ad 5f 22 3e d7 66 45 bd 96 76 18 bf
       -1.7086805 0.1585681 -0.04819378 -0.5955595
0000b0 f8 42 13 3f 1b 0f 14 3f 30 b9 b3 be ee a8 2a bf
       0.5752406 0.5783555 -0.35102224 -0.66664016
0000c0 20 62 11 3f 3a 54 33 bd e2 c3 d8 bc 56 76 a3 be
       0.5679035 -0.043781497 -0.026460592 -0.3192622
0000d0 06 05 87 bf 2d bc 57 3e 89 83 84 3f a9 15 20 3f
       -1.0548408 0.21067877 1.0352641 0.6253305
0000e0 42 dd c6 be 9e ce 82 be 86 0a 8e be b2 f3 fa 3d
       -0.3884068 -0.2554826 -0.27742404 0.122535124
0000f0 18 c5 cb bf 06 14 66 bf 63 c2 4f 3f cd 65 40 be
       -1.5919523 -0.89874303 0.81155986 -0.18788834
000100 9b 37 29 3e 71 e4 ba bd 74 83 20 3d ab 42 c2 3f
       0.16525118 -0.09125603 0.039187863 1.5176595
000110 9a 0d 1b 3f f7 fd 85 3f 0c ab 41 bf c6 2c fa be
       0.6056763 1.0468129 -0.7565162 -0.48862284
000120 49 42 db 3f df 3e a0 bf f9 c9 80 3e 97 c3 2d 3f
       1.7129604 -1.2519187 0.25154093 0.6787657
000130 76 3c 4c bf 1c d7 46 c0 2b db dd be 69 47 ea be
       -0.79779756 -3.1068792 -0.43331274 -0.45757607
000140 5b 13 8b 3e 5d c1 af bf 5f 85 4a 3f b5 7b 41 3e
       0.27163205 -1.3730885 0.7910976 0.18894847
000150 68 a2 21 bf 57 10 81 be 6a f6 81 3f 3d 11 2b bd
       -0.6313844 -0.2520778 1.0153325 -0.041764487
000160 b5 52 de 3d d6 d1 33 3f 22 ed 4d 3f d2 0b 6b 3f
       0.10855619 0.7024206 0.8043996 0.9181491
000170 53 36 cb bf b1 5c a3 be ee 60 18 c0 54 83 10 bf
       -1.5875953 -0.31906655 -2.380916 -0.5645039
000180 78 6c e2 3e 8f bb c3 be 4b dc 87 be 6e da 3c be
       0.4422338 -0.38229033 -0.26535258 -0.184427
000190 40 a7 a5 3e 66 d0 e7 be a4 59 c8 be 32 8b 86 bf
       0.32354164 -0.45276183 -0.3913089 -1.0511229
0001a0 a3 c9 2e 3f f0 a9 2d 3f 88 c5 68 bf 39 32 17 3f
       0.68276423 0.6783743 -0.9092641 0.5906101
0001b0 77 10 1d 3f 51 1a ff 3e 90 76 ea be 3c ba 50 3e
       0.6135325 0.49824765 -0.4579358 0.20383543
0001c0 ff 0e af bf 76 1d f3 3f 7c 29 55 c0 f4 60 e1 bf
       -1.3676451 1.8993366 -3.330657 -1.7607713
0001d0 31 b7 c3 3d ea 1d 92 3f a5 ca ce 3e 43 62 0e 3f
       0.09556425 1.1415379 0.4038898 0.55618685
0001e0 78 c4 8a bf b2 31 82 3e d7 e2 c8 be 38 f8 7d 3f
       -1.0841208 0.2542854 -0.39235565 0.99206877
0001f0 1c a2 6d bf c9 75 dd 3e 15 48 50 c0 0e f3 d3 bd
       -0.92825484 0.43253925 -3.2543995 -0.103490934
