checkpoints/SSM/TinyImageNet/180_epochs/none/Nat/lr_0.001_alpha_0/SSMNat-epoch180.pt (torch, 454339 bytes, 50 tensors)

norms.0.weight f4 [128]
000000 f2 13 87 3f 0e b5 6a 3f ad ee 91 3f 01 ec 57 3f
       1.0552962 0.9168252 1.1400963 0.8434449
000010 f3 15 81 3f d3 75 8e 3f c6 c7 79 3f b4 65 84 3f
       1.0084823 1.1129707 0.97570455 1.0343537
000020 2c b0 a4 3f 3b c7 7c 3f 9e 06 8c 3f 22 23 8a 3f
       1.2866263 0.987415 1.093952 1.0791972
000030 d6 d9 8c 3f 64 4d 91 3f 69 25 b6 3f 96 d2 6e 3f
       1.1003978 1.1351743 1.4230167 0.9329008
000040 6c 11 68 3f cd 71 84 3f d5 32 71 3f f4 e7 64 3f
       0.90651584 1.0347229 0.9421819 0.8941643
000050 f1 9f d7 3f bc bc 73 3f 76 24 83 3f 19 89 74 3f
       1.6845685 0.9520986 1.0245502 0.95521694
000060 64 b9 65 3f f7 b9 84 3f 59 28 67 3f 01 62 7a 3f
       0.8973601 1.0369252 0.9029594 0.9780579
000070 e1 e5 88 3f ec 4b 82 3f f4 19 93 3f 69 3b 83 3f
       1.0695153 1.017942 1.1492295 1.0252506
000080 a8 fe 7e 3f 6a ea 87 3f cb b4 58 3f d1 7f 5b 3f
       0.99607325 1.0618412 0.8465087 0.8574191
000090 2a e0 68 3f 8c 12 88 3f 32 c2 94 3f d8 2c 84 3f
       0.9096705 1.063066 1.1621764 1.0326185
0000a0 f3 85 aa 3f 88 44 7d 3f 08 53 95 3f 52 ab 7f 3f
       1.3322128 0.98932695 1.1665964 0.9987079
0000b0 c3 73 8d 3f a2 aa 92 3f d5 d5 82 3f 64 f3 9f 3f
       1.1050953 1.1458323 1.0221506 1.2496152
0000c0 44 9f 99 3f cb 04 8c 3f 81 46 8c 3f 30 3c 7a 3f
       1.2001729 1.0938963 1.0959016 0.9774809
0000d0 5b 91 88 3f 7c 30 6d 3f 11 2e 85 3f ea 51 6f 3f
       1.0669359 0.92652106 1.0404683 0.93484366
0000e0 27 40 93 3f 04 a6 61 3f 98 d1 a8 3f fd d2 9f 3f
       1.1503953 0.88143945 1.3188963 1.2486264
0000f0 50 1e 77 3f 24 ea 9b 3f e1 97 4f 3f 55 12 92 3f
       0.9653063 1.2180829 0.81091124 1.1411844
000100 1c 12 89 3f 69 ef 7e 3f e4 6b 79 3f 7f e5 73 3f
       1.0708652 0.9958406 0.97430253 0.9527206
000110 a7 22 98 3f 5b 5b 82 3f fc a8 89 3f 6d 03 8b 3f
       1.1885575 1.018413 1.0754695 1.086042
000120 5f 09 75 3f 08 74 88 3f a8 7d 84 3f 12 e1 8a 3f
       0.95717424 1.066041 1.0350847 1.0849936
000130 0e 4f 58 3f 0a 57 84 3f c1 2d 53 3f 2d 9e 84 3f
       0.8449563 1.0339062 0.8249169 1.0360771
000140 02 0a 72 3f db 8d 8a 3f ae c5 61 3f ee 41 8b 3f
       0.9454652 1.0824541 0.8819226 1.0879495
000150 9e 56 99 3f 20 21 a0 3f 37 7e 83 3f a2 0e 79 3f
       1.1979558 1.2510109 1.0272893 0.9728795
000160 14 b3 6e 3f f2 99 8b 3f 84 ae 83 3f ad 18 67 3f
       0.93242 1.0906355 1.0287633 0.9027203
000170 bd f9 99 3f b2 f8 71 3f 40 df 84 3f 7a bc 81 3f
       1.2029339 0.94520104 1.038063 1.0135643
000180 d0 c0 78 3f 11 3a 96 3f 41 a0 7d 3f ee fd 9e 3f
       0.9716921 1.173647 0.99072653 1.2421243
000190 d2 fb 8f 3f e0 9e 7c 3f c6 0d 61 3f cf 23 76 3f
       1.1248724 0.98679924 0.8791164 0.9614839
0001a0 d7 43 95 3f f0 c5 98 3f 15 9b 82 3f 37 19 85 3f
       1.1661328 1.1935406 1.0203577 1.039832
0001b0 59 3d 89 3f bb f1 70 3f 70 fc 78 3f 75 1c 94 3f
       1.0721847 0.9411885 0.9726019 1.1571184
0001c0 e9 fc 5b 3f 01 56 6c 3f bc 5e 70 3f 92 f3 7a 3f
       0.85932785 0.9231873 0.93894553 0.9802791
0001d0 73 de 6a 3f 26 6c 8b 3f 5b 31 8e 3f b0 12 86 3f
       0.9174568 1.0892379 1.1108812 1.0474453
0001e0 00 05 6a 3f 38 2f 87 3f 6f f8 80 3f 8f 78 83 3f
       0.9141388 1.0561285 1.0075816 1.0271167
0001f0 5a d7 72 3f 16 4d 6a 3f e9 89 74 3f 84 c2 83 3f
       0.9485985 0.91523874 0.95522934 1.0293736

norms.0.bias f4 [128]
000000 31 1d 5f 3e 51 46 8b 3d c8 f6 cb bd ca b9 83 3e
       0.2178848 0.06800521 -0.09959179 0.25727683
000010 3e 1c a1 bc 5c dc 8d bd 29 ab b0 3d ba 3b e5 bd
       -0.019666787 -0.06926796 0.08626396 -0.111930326
000020 2c ac 65 3e 15 5f 29 3e 7c a7 83 3d 40 81 03 bd
       0.2242896 0.16540177 0.064284295 -0.032105684
000030 2b 2a 1c 3e e9 82 0e be fe 6e c9 bd 0e f6 03 be
       0.15250461 -0.13917126 -0.09835623 -0.12886831
000040 68 f9 0d 3c e4 ed ad bd eb c8 df bd bb 93 c4 3b
       0.00866542 -0.0849264 -0.10926994 0.005999056
000050 fe b2 a0 3d 78 a5 ff bd 43 9e 85 3c 18 4c 58 3d
       0.0784664 -0.124827325 0.016310817 0.052806944
000060 0a eb ea 3c 06 99 d7 bd 5e 47 80 3d f8 5d c0 bd
       0.028676528 -0.10527234 0.06263612 -0.09392923
000070 e8 0a 83 be 1d 34 a5 3d 32 a1 a0 3d 5b 9e ab 3d
       -0.25594258 0.080665804 0.078432456 0.08379813
000080 db 48 9e bd 7c b3 16 3e a7 ee 59 3e 59 66 65 bd
       -0.0772874 0.14716905 0.21282445 -0.05600581
000090 8a 46 01 be 2e a2 a7 bd 10 a1 b4 3c 4d c0 33 be
       -0.12624565 -0.0818523 0.022049457 -0.17553826
0000a0 85 2d 5e 3e ce 44 ae bc 2a 25 52 3c a6 43 a4 3e
       0.21697052 -0.021273043 0.012826243 0.32082862
0000b0 ef 37 e6 3d 35 78 97 bc e9 a5 b0 bc b0 e7 9d 3b
       0.11241137 -0.018489936 -0.021563487 0.004818879
0000c0 89 8a 27 be 3f 92 e6 3c 71 65 9c be 24 3c d5 bd
       -0.1636144 0.028145907 -0.30546144 -0.104118615
0000d0 90 36 9b 3d a8 35 38 bc 5c 37 a3 bd 9f 10 eb bd
       0.07578766 -0.011243261 -0.07969543 -0.114777796
0000e0 70 67 bf 3d aa f6 ac bd a6 07 4e 3d be 67 49 3d
       0.09345901 -0.08445485 0.050300263 0.049171202
0000f0 48 40 9c bd 7b 82 51 3e 86 a2 5a 3c 94 a6 c2 bd
       -0.07629448 0.2045993 0.013344413 -0.095044285
000100 f3 66 8f 3c c0 18 cc 3d 7b 3b a6 bd 6e cf ee bd
       0.017505145 0.09965658 -0.08116814 -0.11660658
000110 70 f2 32 3d f2 f1 de bd 2f 48 d5 3c b2 ea 76 bd
       0.043688238 -0.10885991 0.026035396 -0.060282417
000120 68 b2 1b 3b 5e 30 f4 bd cb 24 48 3d 00 ef 42 bd
       0.0023757461 -0.11923288 0.048863214 -0.04759121
000130 90 90 ed bd 8c e9 b9 bd e6 3d 3a 3d c9 68 9c bd
       -0.11599839 -0.09077749 0.045469187 -0.07637174
000140 dd f6 8a 3d 9b 0c 5f bb c5 c8 ce bc e5 14 e0 3c
       0.06785367 -0.0034034613 -0.025242219 0.027353713
000150 a7 11 a3 3d 11 aa 76 bd b4 f6 f3 bd 47 fb 45 bd
       0.07962351 -0.06022078 -0.11912289 -0.04833534
000160 51 7e cb 3c af e8 89 bc 8d 47 23 3d 9d c4 bf bc
       0.024840506 -0.016834585 0.039863158 -0.023409182
000170 75 70 53 bd 7d 7b 2c 3d fb 56 eb bd 1a 73 e1 3d
       -0.05162092 0.042109955 -0.114911996 0.11008282
000180 5f bb bc 3d ac 40 18 3e c9 75 3d be a8 1d 0a 3e
       0.09215426 0.1486842 -0.18501963 0.13487875
000190 0e 37 23 be da 60 82 3d 58 7d 0f be 67 db 5a bc
       -0.1593897 0.06366129 -0.14012659 -0.013357974
0001a0 5c e5 1b be 7b 66 09 be f3 b0 ed bc 4b 91 74 3b
       -0.15224212 -0.13418 -0.02901504 0.0037318047
0001b0 89 83 8a 3c 17 c3 31 bc 57 11 5c 3e d0 fe 07 3e
       0.016908424 -0.010849736 0.2149099 0.13280797
0001c0 6a 74 64 3e 10 f7 ae bd 76 82 b6 bd 45 1c 05 bd
       0.22310033 -0.08543217 -0.08911602 -0.032497663
0001d0 14 07 43 bd b9 57 9c 3d 03 ec 58 be 2b 65 48 be
       -0.047614172 0.07633919 -0.21183781 -0.19569843
0001e0 53 f3 e8 bd ba 86 f7 bd f4 32 ba 3d f8 3b 26 3d
       -0.113745354 -0.12086244 0.0909175 0.040584534
0001f0 95 a8 2a be 0d 92 16 3b 6e bf 9c 3d d6 1c 3d 3d
       -0.16665871 0.0022975237 0.076537 0.04617008

norms.1.weight f4 [128]
000000 a7 97 9c 3f ec 2b 67 3f ab 3a 86 3f 41 15 86 3f
       1.2233781 0.90301394 1.0486654 1.0475236
000010 a7 75 88 3f e4 8d 81 3f f7 90 81 3f c1 21 81 3f
       1.0660905 1.0121427 1.0122365 1.0088426
000020 13 ed 9d 3f bf e7 72 3f ef 0d 83 3f 50 1a 8c 3f
       1.2337974 0.94884866 1.0238627 1.094553
000030 be 67 89 3f 02 f2 8e 3f 23 cf 80 3f 5e d9 97 3f
       1.0734785 1.1167605 1.0063213 1.186321
000040 25 cd 86 3f eb d0 99 3f d3 0d 8c 3f 1a 8b 9c 3f
       1.0531355 1.2016882 1.0941719 1.222995
000050 ce 88 8a 3f 23 69 7a 3f b0 66 86 3f e7 44 82 3f
       1.0823 0.97816676 1.0500088 1.0177277
000060 ba e8 77 3f d8 d2 9b 3f e2 6f 81 3f fd 82 8a 3f
       0.9683949 1.217372 1.0112269 1.0821224
000070 10 8d 9b 3f 0b 20 71 3f f7 8a 7e 3f e1 af 68 3f
       1.2152424 0.9418952 0.99430794 0.9089337
000080 61 7b 85 3f e9 f0 84 3f fb 5d 88 3f 2d f3 83 3f
       1.0428277 1.038602 1.065368 1.0308586
000090 b8 71 9b 3f b0 04 84 3f 64 e5 63 3f 03 69 6a 3f
       1.2144079 1.031393 0.890219 0.91566485
0000a0 0c 27 73 3f c7 3d 6f 3f 43 6e 82 3f 50 77 7d 3f
       0.94981456 0.9345364 1.0189899 0.9901018
0000b0 dc 0e 89 3f dd 53 8e 3f 92 ec 64 3f e7 26 99 3f
       1.070766 1.1119343 0.8942348 1.1964997
0000c0 e3 96 73 3f 56 f2 74 3f fd c2 70 3f 64 67 82 3f
       0.9515211 0.95682275 0.9404753 1.0187802
0000d0 f3 4c 85 3f 2d d3 8c 3f 33 d8 8f 3f 3b b3 88 3f
       1.0414108 1.1001946 1.1237854 1.0679697
0000e0 c6 db 8f 3f 70 ec 79 3f ec fa 9a 3f 81 48 77 3f
       1.1238945 0.976264 1.2107825 0.9659501
0000f0 f5 8f 95 3f 69 59 84 3f 7f 1d 63 3f 8e 6c 99 3f
       1.1684557 1.0339786 0.8871688 1.1986253
000100 26 38 87 3f 47 27 89 3f 68 20 6a 3f 7e 70 90 3f
       1.056401 1.0715111 0.914557 1.128433
000110 86 fe 94 3f 0b 0d 8d 3f b1 ee 66 3f 90 49 88 3f
       1.1640174 1.1019605 0.90207964 1.064745
000120 6d 03 7f 3f c9 5a 6c 3f e8 02 82 3f 48 b7 82 3f
       0.996146 0.9232603 1.0157137 1.0212183
000130 f6 1f 82 3f 9a 03 88 3f 75 35 85 3f 27 0f 80 3f
       1.0166004 1.0626099 1.0406939 1.0004624
000140 62 df 97 3f 62 e3 70 3f 11 a1 7f 3f 5a de 7c 3f
       1.1865046 0.9409696 0.9985514 0.9877678
000150 84 d1 6c 3f 0e c7 9f 3f 6e 45 6f 3f c5 7e 81 3f
       0.92507195 1.2482622 0.93465316 1.0116812
000160 f8 71 93 3f 64 58 7a 3f 5d 94 6f 3f f6 30 91 3f
       1.1519156 0.97791123 0.9358576 1.1343067
000170 bf 7b 8f 3f f9 85 7f 3f 39 f8 a1 3f bc 6a 81 3f
       1.1209639 0.998138 1.2653877 1.0110698
000180 08 02 82 3f 1a 60 93 3f ed 98 71 3f 6b 15 96 3f
       1.015687 1.1513703 0.9437397 1.1725286
000190 34 3c 81 3f 48 99 75 3f 2b 5f 67 3f 4e 61 60 3f
       1.0096498 0.95937014 0.9037959 0.87648475
0001a0 d4 d7 9a 3f 6a 90 81 3f 21 4a 73 3f f5 e6 8b 3f
       1.2097116 1.0122197 0.95034987 1.0929857
0001b0 1a 20 86 3f 6b 21 76 3f 4f 7c 87 3f d5 b3 94 3f
       1.0478547 0.9614474 1.0584811 1.161738
0001c0 13 9b 8c 3f 3a 7d 65 3f dd 58 8e 3f 2b 18 87 3f
       1.0984825 0.89644206 1.1120869 1.055425
0001d0 e2 3f 82 3f 83 22 79 3f c8 b4 67 3f 66 55 6f 3f
       1.0175745 0.97318286 0.90510225 0.9348968
0001e0 d1 e2 6d 3f 33 8e 94 3f 4f 86 82 3f c2 f8 78 3f
       0.9292422 1.1605896 1.0197238 0.97254574
0001f0 04 b0 86 3f 29 bd 81 3f c3 97 80 3f e2 34 87 3f
       1.0522466 1.0135852 1.0046314 1.0563014

norms.1.bias f4 [128]
000000 08 70 81 3c 42 92 62 3d fc 9a da 3c 6f df 04 3e
       0.015800491 0.055315264 0.02668523 0.12975858
000010 fc 5c 89 3b 83 ff 86 bd 04 e9 07 3d b5 de 6d bd
       0.004191993 -0.06591704 0.033181205 -0.058073718
000020 b0 65 bd 3e 24 b2 63 3e 2c bc 55 3b 59 1b 4c 3d
       0.36991644 0.22235924 0.003261338 0.04983077
000030 fc da ad bc 87 75 dc 3c c7 32 6d bc a9 87 43 3c
       -0.021222584 0.02691151 -0.014477438 0.011934199
000040 22 22 2b bd 8d dc 35 3e d6 18 98 bc ae 71 94 bc
       -0.0417806 0.17759915 -0.01856653 -0.018120613
000050 64 9a 9d 3e 56 d7 d3 bd a4 69 0f be 0b 6c 9e 3c
       0.30781853 -0.103438064 -0.14005142 0.019338628
000060 0a 8f c1 3d d2 5c f2 bc 8d 10 47 3c b3 11 a1 bc
       0.09451111 -0.029585276 0.012149942 -0.01966176
000070 a4 f8 2e be ca fe 50 bb de 13 73 bc c4 15 8d 3d
       -0.17087036 -0.0031890147 -0.01483628 0.06888917
000080 63 8c f3 bc 36 00 46 3c a1 e0 33 3d 0d b7 dd 3d
       -0.029730028 0.012085011 0.043915395 0.1082593
000090 79 d5 e3 3c fb 38 ef bd 89 44 1b bc 71 ac a9 3c
       0.027811753 -0.1168079 -0.009476789 0.02071211
0000a0 68 ab 41 be fc c8 1d bd 04 8d f0 bc b9 2e f7 3d
       -0.18913043 -0.03852175 -0.029364116 0.120694585
0000b0 c8 d0 1f 3d d8 03 7d 3d 20 cb 8c 3d 99 bd e1 bd
       0.03901747 0.061771244 0.068746805 -0.11022491
0000c0 b1 9e 06 3d 56 fc 93 3c e8 bb 1f be b6 06 0c be
       0.032866184 0.01806466 -0.15599024 -0.13674435
0000d0 fa 12 75 3d f1 24 5e 3d 06 26 41 bd ca a6 82 bd
       0.05983255 0.05423445 -0.047155403 -0.06379469
0000e0 27 c1 8f 3d 33 f5 a6 bd 05 ae b7 bc 62 db d5 3d
       0.07019263 -0.08152237 -0.022421846 0.104422346
0000f0 04 e4 83 be ad 1e 02 3b d4 db ae bc ba 7d 17 3d
       -0.257599 0.001985471 -0.021345057 0.036985137
000100 24 71 81 bc 2d 6b c3 3b 62 9d 0b bd 91 38 b6 bb
       -0.01580102 0.005963704 -0.03408564 -0.0055609425
000110 e1 d1 04 3c 5c e8 0a be 56 60 ce bd 03 a8 82 3d
       0.00810668 -0.135652 -0.10076968 0.06379702
000120 c2 94 2a bd 79 0c 97 bc 99 1e 17 3c 22 36 39 bb
       -0.041645773 -0.018438565 0.009223604 -0.0028261025
000130 42 9e ac bd 8b a4 86 bd 8d 7c c9 3b 41 65 03 3e
       -0.08428623 -0.06574353 0.006148881 0.12831594
000140 da cf 0a bb 98 12 59 3d c8 50 89 bd b1 69 e7 3c
       -0.0021181018 0.052996248 -0.06704861 0.02824864
000150 5f ee 13 bd 1e d6 86 bd eb fe 29 bd 71 5a 65 3d
       -0.036116 -0.06583808 -0.041502874 0.055994455
000160 98 cf c3 3c 83 27 19 bc 16 f8 ba bd b3 03 58 bb
       0.0239027 -0.009347799 -0.0912935 -0.003296119
000170 88 63 1e be 76 b9 9b bc 5d 5d 80 bd 5d 44 f1 bd
       -0.15467656 -0.019009333 -0.06267808 -0.117806174
000180 55 ae 20 3d a8 cf 50 bc 90 61 b5 bd 9c 5d 1f 3d
       0.039228756 -0.012744822 -0.08856499 0.038907632
000190 eb e2 3b 3c e6 8d 4e 3d 92 2e ca bd 8d 38 74 3d
       0.011467676 0.050428294 -0.09872164 0.059624244
0001a0 de 33 a0 3c 09 5e 15 bd 6d 25 da 3c 01 a1 44 3d
       0.019555982 -0.036466632 0.026629174 0.048005108
0001b0 c2 b5 70 3a e1 e7 81 3b e3 d0 94 3c ad 55 07 3c
       0.00091823575 0.0039644097 0.018166011 0.008260173
0001c0 f4 c6 87 3e 25 ab a9 bc df 52 7d bd 69 d1 0f 3d
       0.26518977 -0.02071149 -0.06184661 0.03511182
0001d0 23 61 1e 3c 99 48 6b 3c 23 c6 22 be bc db 5f bc
       0.009666714 0.01436057 -0.15895896 -0.013663229
0001e0 92 b7 03 be 1d 04 06 3d 94 5e 18 3d 05 c0 1e bd
       -0.12862995 0.032718766 0.03719957 -0.038757343
0001f0 b3 b2 da bc e1 9d 95 3c be d3 bd bc 90 f3 77 3d
       -0.026696539 0.01826376 -0.023172256 0.060535014

norms.2.weight f4 [128]
000000 f1 14 44 3f 99 79 90 3f 14 2c 71 3f e5 43 75 3f
       0.76594454 1.1287109 0.9420788 0.95806724
000010 ab 7e 6b 3f 30 6e 83 3f 26 4b 8e 3f 01 4b 80 3f
       0.91990155 1.0268002 1.1116683 1.0022889
000020 9c 3b 3b 3f e6 2c 4d 3f 13 2a aa 3f 7a e7 3c 3f
       0.7313783 0.80146635 1.329409 0.73790705
000030 ab 48 76 3f bc a7 70 3f 23 c6 4f 3f ff a0 8d 3f
       0.9620463 0.9400594 0.8116171 1.1064757
000040 4b 69 81 3f 72 51 68 3f 93 a0 98 3f 2c fb 89 3f
       1.0110258 0.90749276 1.1924003 1.0779777
000050 d8 09 2d 3f a9 49 86 3f 34 a5 95 3f 63 cd 7a 3f
       0.67593145 1.0491229 1.1691041 0.97969645
000060 16 06 92 3f 00 b2 69 3f 2f 61 79 3f 1c 45 94 3f
       1.1408107 0.9128723 0.97413915 1.158359
000070 76 f7 19 3f 5d 55 70 3f 74 70 98 3f 01 46 84 3f
       0.6014322 0.93880254 1.1909318 1.0333863
000080 84 30 8c 3f 38 1d 7c 3f b9 b3 8d 3f 36 3d 84 3f
       1.0952306 0.98482084 1.1070472 1.033118
000090 03 30 90 3f 87 a5 77 3f 96 29 5a 3f ab c7 73 3f
       1.1264652 0.9673695 0.85219705 0.95226544
0000a0 f3 72 64 3f d5 f0 96 3f 09 42 a3 3f b9 bc 74 3f
       0.892379 1.1792246 1.2754527 0.9560047
0000b0 03 ee 83 3f e9 58 74 3f e9 79 6b 3f 19 de 6c 3f
       1.030701 0.95448166 0.91982895 0.92526394
0000c0 33 b6 95 3f 73 fe 8a 3f 41 10 5d 3f 1b ae a7 3f
       1.1696228 1.0858902 0.86352926 1.3100008
0000d0 b0 16 81 3f 67 97 89 3f 81 71 85 3f a4 ea 88 3f
       1.0085049 1.0749329 1.0425264 1.0696607
0000e0 da 69 27 3f d1 97 4e 3f b9 f1 b5 3f 32 e5 78 3f
       0.6539589 0.80700403 1.4214393 0.97224724
0000f0 68 19 35 3f c7 92 4e 3f 01 83 84 3f 27 4f 7a 3f
       0.7074189 0.80692714 1.0352479 0.97777027
000100 93 fb 79 3f 60 0f 85 3f 88 b3 90 3f 9d 7d 62 3f
       0.97649497 1.0395317 1.1304789 0.8847292
000110 f5 65 8a 3f 7b 55 9a 3f c0 d0 99 3f bb 64 70 3f
       1.0812365 1.2057337 1.201683 0.939037
000120 29 d8 92 3f d7 85 83 3f 16 40 9d 3f f6 c3 8f 3f
       1.1472217 1.027522 1.2285182 1.1231678
000130 d6 6e 85 3f 24 ef 8f 3f 4f d1 89 3f b5 56 44 3f
       1.042445 1.1244855 1.0767001 0.76694804
000140 10 93 7a 3f 2f be 83 3f c1 f0 86 3f 60 87 8b 3f
       0.9788065 1.0292414 1.0542222 1.0900688
000150 2f 38 96 3f 4b 44 41 3f a6 8b 84 3f ac 4e 9d 3f
       1.1735896 0.7549483 1.0355117 1.2289634
000160 24 36 78 3f 3b 59 58 3f d3 fc 79 3f f0 34 88 3f
       0.9695761 0.84511155 0.97651404 1.0641155
000170 47 81 47 3f 00 3b 82 3f cf 7f 8d 3f 11 85 5b 3f
       0.77931637 1.0174255 1.1054629 0.8574992
000180 63 3c 86 3f a7 9a 79 3f c4 9a 78 3f 3d 81 8c 3f
       1.0487179 0.97501606 0.97111154 1.097694
000190 7c 2c 8b 3f df 22 87 3f 50 00 8c 3f 1b dd 93 3f
       1.087295 1.0557517 1.0937595 1.1551851
0001a0 8b 8b 68 3f ea 32 85 3f 59 07 80 3f 0c be 95 3f
       0.90837926 1.0406163 1.0002242 1.1698623
0001b0 d7 1f 88 3f ad 25 6d 3f 8a 7a 9e 3f 55 df 91 3f
       1.0634717 0.92635614 1.2381146 1.139628
0001c0 89 8b 8d 3f b7 14 6d 3f ef 85 39 3f ab 46 65 3f
       1.1058208 0.92609733 0.7246999 0.89560956
0001d0 12 b3 54 3f 6c d8 80 3f bb 69 a8 3f 18 84 79 3f
       0.8308574 1.0066047 1.3157266 0.97467184
0001e0 43 94 78 3f 51 fa 96 3f 66 b2 83 3f 23 d2 89 3f
       0.9710123 1.179514 1.0288818 1.0767254
0001f0 c3 c3 a2 3f fa ed 97 3f 5a 36 83 3f 77 c6 83 3f
       1.2715992 1.18695 1.0250962 1.0294942

norms.2.bias f4 [128]
000000 e2 2e 47 3d a6 e4 a1 3c e4 48 84 3e bb c3 fd 3d
       0.048628695 0.019762348 0.2583686 0.12390848
000010 24 45 a6 3d 3d d3 a6 bc 50 9c 74 3d eb 1d 2f bd
       0.08118656 -0.020364398 0.059719384 -0.04275314
000020 af 78 24 be 04 4c aa 3d 78 72 91 3c 10 cf 60 3e
       -0.16061662 0.0831528 0.017754778 0.21953988
000030 09 fb 27 3d 7a 0a b2 3d aa 97 9e 3d 14 cf e8 bc
       0.04101089 0.086934045 0.077437714 -0.028419055
000040 86 5b db bd 03 1c 47 3e de 5b 93 3d f0 cc 7a 3d
       -0.10710816 0.1944428 0.07195257 0.0612306
000050 07 87 5a be c1 79 c4 bd 21 5d 1c be ac 82 35 bd
       -0.21340571 -0.09593535 -0.15269901 -0.04431407
000060 ce 14 aa 3d 13 4e fb 3d 3c 47 74 3e 30 3b d7 bd
       0.083047494 0.12270751 0.23855299 -0.10509336
000070 9b 6f 22 3c f6 a1 dd bd 1e ab 3c bd ce 57 5c 3e
       0.009914304 -0.10821907 -0.046061628 0.2151787
000080 60 6d 47 3c 3e e2 8c 3d 16 82 82 bb 33 54 cd 3d
       0.012172073 0.0687909 -0.0039827926 0.10025825
000090 34 c6 f0 3d 06 5a b0 bb c2 53 69 be d8 0e ca 3c
       0.11756554 -0.0053818254 -0.22785857 0.024665281
0000a0 d6 a5 06 be 89 1c 33 bd 16 4a 86 bd 8b 2b 57 3e
       -0.13149199 -0.043728385 -0.065570995 0.21012704
0000b0 2c 70 67 3d 26 f2 a9 bc 5a ac 2f 3e 4a fa ce bd
       0.05650346 -0.020745348 0.1715559 -0.101063326
0000c0 7a e3 03 ba 3a 87 11 be 52 3a b1 bc 94 fe e6 3a
       -0.000503115 -0.14211741 -0.021634255 0.0017623478
0000d0 43 b8 1c 3e 23 c9 27 3b 40 9d 41 3d 85 51 58 bc
       0.15304665 0.0025602065 0.047269106 -0.0132030295
0000e0 21 fc 4a be 40 a4 75 3d 36 22 ee 3c 6d 02 5e 3d
       -0.19822742 0.059971094 0.029069047 0.054201532
0000f0 56 ee 7f 3e 1f 0e 85 be 30 fc 95 bd ed f7 c9 bd
       0.24993262 -0.25987336 -0.073234916 -0.09861741
000100 8d 01 ed bd e9 0f dd 3c ad eb 56 bd e2 96 69 3d
       -0.115725614 0.026985126 -0.05247085 0.05702866
000110 1f 58 21 3d 3a a0 03 bc 90 19 c4 bd 22 42 5a 3d
       0.03939068 -0.008033806 -0.09575188 0.053285725
000120 68 bc 82 bd 11 6d da 3c ea 75 e5 3b e4 64 17 bd
       -0.06383592 0.026663335 0.007002582 -0.03696145
000130 b2 96 09 be c4 f9 82 bd 2a 52 4b 3d 14 f0 ff bd
       -0.13436392 -0.06395295 0.049638905 -0.12496963
000140 2f 08 8d bd cb 6b 3a bd ff ee ec bd 22 fc 8f 3a
       -0.068863265 -0.045512956 -0.115690224 0.0010985176
000150 70 97 cb bc 67 a1 a8 3e e0 19 60 bc e1 ec 31 3e
       -0.024852484 0.3293564 -0.013678044 0.17375518
000160 9d 3d 9e 3a 7e 58 10 bd 90 fb ec bd e3 5e 25 3d
       0.0012072806 -0.035240643 -0.11571419 0.040373694
000170 d5 65 82 be bf 1e e1 bd 0a 5a 3b 3e ab 11 74 3e
       -0.25468317 -0.109921925 0.18296066 0.23834865
000180 67 95 d6 3c ec dd 55 3c d5 c1 08 be 2c 40 f6 3d
       0.026194287 0.013053399 -0.13355191 0.120239586
000190 29 fc 86 3d c3 b1 d7 bd d2 5a c8 bc 71 ae 0f 3b
       0.065910645 -0.10531952 -0.024457369 0.0021924044
0001a0 8a 4b 29 3e ea de 79 bc 5c 04 df 3b 20 6e d1 3d
       0.16532722 -0.015250901 0.0068059396 0.10226083
0001b0 7d 4d 8d bd 99 cf 8d 3c d6 9c e3 b9 7d fe e3 be
       -0.06899545 0.017310904 -0.00043413666 -0.44530097
0001c0 ff 16 3e 3d b4 69 17 3d 79 8e b5 3d c8 c7 53 3d
       0.04640865 0.03696604 0.08865065 0.051704198
0001d0 eb 21 2f 3e 42 07 6f bd 08 99 eb bd e2 c6 8f 3d
       0.17102782 -0.05835653 -0.11503798 0.07020356
0001e0 c8 bc 9a bd 21 ad d3 3d 9c e7 1b 3d 7a 5a b9 bc
       -0.075555384 0.10335756 0.038062677 -0.02262615
0001f0 f7 10 fc bc c9 f1 83 3d 2c 07 6b bd a4 86 5f 3d
       -0.030769808 0.06442601 -0.057379887 0.054571763

norms.3.weight f4 [128]
000000 49 fa d5 3f 2e b1 40 40 7b a3 a8 3f d1 1a 26 40
       1.6717006 3.0108142 1.317489 2.5953867
000010 65 f5 12 40 c4 d1 0d 40 ef 3e 13 40 92 09 21 40
       2.2962277 2.215928 2.3007162 2.5162091
000020 12 d9 9f 3f cb c7 f1 3f ab 5f 16 40 d2 4a bf 3f
       1.248812 1.8889097 2.349589 1.4944708
000030 a0 00 40 40 9f 31 2a 40 29 d5 b2 3f b4 37 10 40
       3.0000381 2.6592786 1.3971301 2.2533998
000040 cd 24 25 40 3f 94 fd 3f 87 35 21 40 4a d6 0f 40
       2.5803711 1.9810866 2.518892 2.2474542
000050 21 51 81 3f 58 3e 27 40 13 cb 18 40 6a 5a 21 40
       1.0102884 2.6131802 2.3873947 2.5211434
000060 69 11 23 40 40 87 0d 40 5a b3 e4 3f 60 4b 30 40
       2.5479376 2.21138 1.7867234 2.7546005
000070 8d 2e 08 40 e9 78 2b 40 f0 7e 03 40 f9 43 da 3f
       2.1278412 2.6792548 2.0546227 1.7051994
000080 46 ed 08 40 cd 36 24 40 9a a7 24 40 7f 95 07 40
       2.139482 2.5658448 2.5727296 2.1184995
000090 81 3b 01 40 19 f5 fe 3f 5e 3d 0d 40 1a bd 33 40
       2.0192568 1.9918548 2.2068706 2.8084168
0000a0 3c bf 14 40 cb 87 0e 40 c3 ed 1b 40 99 a1 00 40
       2.324172 2.2270381 2.4363868 2.0098631
0000b0 84 93 0c 40 1f e6 07 40 6d 44 1e 40 e7 93 20 40
       2.1965036 2.1234205 2.4729264 2.5090272
0000c0 4f 42 2b 40 15 21 31 40 11 56 1a 40 a5 9b 1c 40
       2.6759222 2.7676442 2.411503 2.4469998
0000d0 e3 d3 1a 40 08 94 14 40 1f 36 19 40 cf 00 05 40
       2.4191825 2.321535 2.3939283 2.0781744
0000e0 f1 69 b7 3f 14 ab 01 40 ad c7 13 40 81 bc 15 40
       1.4329206 2.0260668 2.3090622 2.3396304
0000f0 fe 29 d3 3f 61 83 d4 3f c1 41 11 40 ad 9c 29 40
       1.649719 1.6602594 2.2696383 2.6501877
000100 1e e4 0f 40 76 08 12 40 ef 4a 29 40 1d 70 20 40
       2.2482982 2.2817664 2.6451986 2.5068429
000110 3e a5 00 40 e8 39 e8 3f 98 27 2f 40 7d 97 08 40
       2.0100856 1.8142672 2.7367916 2.134246
000120 4c 61 18 40 39 97 29 40 ac d5 34 40 26 52 26 40
       2.3809385 2.649855 2.8255415 2.598764
000130 11 17 17 40 86 26 0a 40 e0 3f 23 40 f5 fc 8c 3f
       2.3607829 2.1586013 2.5507736 1.1014696
000140 c9 5f 31 40 e4 7d 1c 40 f1 fb 41 40 6c 22 fc 3f
       2.7714713 2.4451838 3.0310023 1.9698005
000150 d6 56 ff 3f 6d 95 b7 3f 06 1f 02 40 5e c2 f8 3f
       1.9948375 1.4342476 2.0331435 1.9434316
000160 8b 32 08 40 9f 92 e8 3f a4 ae 05 40 de bc 17 40
       2.128085 1.8169745 2.0887842 2.3709025
000170 c0 1a 8b 3f 32 33 0a 40 a9 ab 27 40 d9 55 b5 3f
       1.0867538 2.1593747 2.6198523 1.4166824
000180 e2 d1 2d 40 29 27 11 40 a6 ef 10 40 83 7c 00 40
       2.7159352 2.2680151 2.264627 2.0075996
000190 78 38 2a 40 e1 d9 0f 40 12 fa f5 3f dd 99 26 40
       2.6596966 2.2476733 1.921694 2.603141
0001a0 c4 0b b4 3f d6 35 1a 40 0d fe 24 40 6a 20 1b 40
       1.406609 2.409536 2.578006 2.4238534
0001b0 5f 30 2f 40 6c 0e 29 40 17 49 40 40 70 91 ef 3f
       2.7373273 2.6415052 3.004461 1.8716259
0001c0 70 bb ed 3f 93 a6 28 40 21 20 cd 3f 1a 5f 14 40
       1.8572826 2.635167 1.602543 2.3183045
0001d0 fd 36 d3 3f 71 04 f1 3f ba c8 15 40 27 7b 29 40
       1.6501156 1.882948 2.3403764 2.6481416
0001e0 84 b5 d6 3f 47 7c 20 40 a5 9a 36 40 8d 01 c4 3f
       1.6774144 2.5075853 2.8531888 1.5312973
0001f0 43 34 2c 40 1b 85 b5 3f fc e4 2c 40 bb 03 21 40
       2.6906898 1.4181246 2.701476 2.5158527

norms.3.bias f4 [128]
000000 a1 09 fc 3d 50 6e 15 3a 15 9f fc 3d f9 92 31 3c
       0.12306524 0.0005700337 0.1233503 0.010838264
000010 51 f0 f1 3d 75 fe 4e bd 19 2c cb 3d 93 37 15 3d
       0.11813415 -0.050535638 0.0992052 0.036429953
000020 59 03 77 bd 0b 2f 2d 3e 66 b5 b6 3b bd b9 73 bb
       -0.060305927 0.16912477 0.0055758236 -0.0037189566
000030 13 50 62 bd 9f 5e 25 3e 94 8f ee 3d 5b f6 c1 3a
       -0.055252146 0.16149376 0.11648479 0.0014798151
000040 10 c4 98 ba 29 79 6f 3c e9 f5 07 bc f5 73 86 3b
       -0.0011655111 0.014616289 -0.008298376 0.0041031786
000050 04 ca 4f be b1 8c e7 bd 48 b1 9a 3d 19 88 a0 bc
       -0.20291907 -0.11306132 0.07553345 -0.019596146
000060 bc ab 42 3e ef aa 95 3c 5c f7 fd ba 29 e4 d5 3d
       0.19010824 0.018269984 -0.0019376087 0.10443909
000070 7f c2 d7 3a fb 71 82 be 84 fb 6a 3d c0 36 75 bc
       0.0016461163 -0.25477585 0.05736877 -0.014966667
000080 35 15 43 3d fe 04 09 3d cb 93 a7 3c 5c c8 82 3d
       0.047627646 0.033452027 0.020456215 0.06385872
000090 8e f6 0f 3e 2d 29 63 be 54 98 8d be d5 a0 2b 3b
       0.14058897 -0.22183676 -0.2765528 0.0026188393
0000a0 5b 69 05 be 62 c9 78 be 7f 9e 9a 3b 20 04 62 3e
       -0.13028471 -0.24295571 0.0047186012 0.22071886
0000b0 21 1b 1d be b1 ea 09 be 7a 48 0a 3e bf bb 7a be
       -0.1534238 -0.13468434 0.1350421 -0.24485682
0000c0 44 5c 01 be f4 5d 2b 3e ec 17 4e 3e 88 14 c0 bc
       -0.12632853 0.16735059 0.20126313 -0.02344729
0000d0 e7 1e d4 bc 04 2e 96 bd 03 20 a0 bd aa 62 61 3d
       -0.025893642 -0.073329955 -0.07818606 0.055025734
0000e0 4f 5d d7 bb b4 43 53 bc b8 f0 57 3d b9 14 99 3c
       -0.0065724025 -0.01289456 0.0527198 0.01868664
0000f0 a8 b1 3e 3d bc 78 a3 be 4f f2 d9 bb 47 14 c9 bd
       0.046556145 -0.3192805 -0.0066512 -0.09818321
000100 78 af 85 bd fd ba 44 bd aa 5a 36 be 98 73 15 3e
       -0.06527609 -0.04802989 -0.17808023 0.14594877
000110 f8 5e 0a 3d 74 32 48 bd 1c 67 3c be 2e 06 14 3d
       0.033781976 -0.04887624 -0.18398708 0.036138706
000120 1b 54 cf 3d 9a df 48 3e 77 88 93 3d 9c ad 2c 3d
       0.10123464 0.19616547 0.07203763 0.042157754
000130 f5 49 63 bd d9 9a 88 3d d7 0d 30 3e 5f 80 89 be
       -0.055490453 0.0667016 0.1719278 -0.26855752
000140 2b 6b 94 3c 0a b6 8f 3c 47 5a 68 bd f4 b5 06 3e
       0.018117508 0.017542858 -0.05672672 0.13155347
000150 29 dd 3e bd b6 4d 82 3e d9 22 16 3d 29 46 98 3e
       -0.046597634 0.25449914 0.036654327 0.29741028
000160 0c 84 19 be 6e e8 d8 bd cc c1 32 bd 20 4b 9a 3d
       -0.14991778 -0.105912074 -0.04364185 0.0753386
000170 38 f8 83 bc 03 9b 2f be c1 4a ea 3d 0f 3f df 3c
       -0.01610957 -0.17148976 0.114400394 0.027251748
000180 cc fe 85 bc 36 0f 45 bc d4 02 a3 be e0 9d 4b 3e
       -0.016356848 -0.012027552 -0.31838095 0.19884443
000190 2d 5d 8f 3d 90 43 43 bd ec 8c 28 3e e1 bf 11 bd
       0.07000194 -0.047671854 0.16460007 -0.03558338
0001a0 59 08 9f 3e 54 97 94 3d ee 12 59 be 2f 1d 19 3d
       0.31061056 0.07255426 -0.21198627 0.037381347
0001b0 42 7f 10 be 27 2c 97 3c b7 0b 44 3e 5c ff 2d 3e
       -0.14111045 0.01845367 0.19145094 0.16991943
0001c0 69 93 07 3d ee 89 17 3e 5c d5 d5 3d 01 bd 2c 3e
       0.033099566 0.1479871 0.10441086 0.16868974
0001d0 2e 58 06 bd b0 cb 66 bd b3 6b de 3d 96 4d 90 bb
       -0.03279894 -0.056346595 0.10860386 -0.00440378
0001e0 97 09 99 bb e5 aa 4f 3d d1 5a 05 3e 28 d0 82 3d
       -0.0046703327 0.050700087 0.13022925 0.06387359
0001f0 10 29 9b bd 20 b8 2b 3e 85 05 21 bd e4 0b 29 3d
       -0.075761914 0.16769457 -0.039311904 0.041271105

post_norm.weight f4 [128]
000000 1c b9 77 3f 2c 2d 82 3f 39 cf 6b 3f f3 a6 7d 3f
       0.9676683 1.0170035 0.9211307 0.9908287
000010 14 a9 a6 3f ce c0 7c 3f 86 48 81 3f d8 92 5f 3f
       1.3020349 0.98731697 1.0100257 0.8733344
000020 bd 01 85 3f 2f ce 68 3f 8f ce 6c 3f 1e 3c 92 3f
       1.0391155 0.9093961 0.92502683 1.1424596
000030 20 f8 88 3f 6b e4 c0 3f aa 74 69 3f 31 eb 74 3f
       1.0700722 1.5069708 0.9119364 0.95671374
000040 a9 ac 77 3f 04 c6 c2 3f e3 72 83 3f f5 ea 75 3f
       0.96747833 1.521668 1.0269436 0.9606164
000050 f4 fc 6b 3f 98 33 90 3f b7 7f 82 3f 53 4e 72 3f
       0.9218285 1.1265745 1.0195225 0.94650763
000060 d5 69 75 3f 6f 94 93 3f 77 12 7b 3f ed 69 4e 3f
       0.9586461 1.1529673 0.9807505 0.8063038
000070 b3 b1 86 3f b7 be 73 3f 22 44 a0 3f a5 ad 7c 3f
       1.052298 0.9521288 1.2520792 0.9870246
000080 99 66 62 3f e9 18 48 3f 7c 9e 7f 3f e7 0a 74 3f
       0.884378 0.7816301 0.998512 0.95329136
000090 0c bd 8e 3f 2f d7 81 3f a3 38 8a 3f 80 94 82 3f
       1.1151443 1.0143794 1.0798534 1.0201569
0000a0 0c b1 77 3f 8f 7d 8e 3f 75 d2 8a 3f d9 65 94 3f
       0.9675453 1.1132067 1.0845476 1.1593581
0000b0 b6 e1 8c 3f 65 37 98 3f 2f 3f 6a 3f 48 9f 76 3f
       1.1006382 1.1891905 0.9150266 0.96336794
0000c0 4f d9 69 3f e2 f3 69 3f 33 68 89 3f 68 18 80 3f
       0.9134721 0.9138776 1.0734924 1.0007448
0000d0 09 94 8f 3f ac 1c 54 3f ae 86 79 3f 6e 19 88 3f
       1.1217052 0.8285625 0.9747113 1.063276
0000e0 4d fa 89 3f f1 9e 9e 3f 05 e8 9e 3f ee dd 84 3f
       1.0779511 1.2392255 1.2414557 1.0380228
0000f0 d6 f4 b8 3f 66 0c 83 3f ad e8 7a 3f b5 1a 71 3f
       1.4449718 1.0238159 0.98011285 0.94181377
000100 01 05 7e 3f 41 03 69 3f 18 85 65 3f 5b a9 85 3f
       0.99226385 0.9102059 0.8965621 1.0442308
000110 26 35 88 3f b1 54 7c 3f 18 3b c8 3f 64 0d 73 3f
       1.064122 0.9856673 1.5643034 0.9494231
000120 18 dd db 3f 95 72 9a 3f 22 28 7c 3f 5b 65 82 3f
       1.7176847 1.2066218 0.9849874 1.0187181
000130 7e 28 6e 3f a6 60 88 3f f4 1b 5e 3f cd 37 68 3f
       0.93030536 1.0654495 0.86761403 0.90710145
000140 7c 77 80 3f 4c 51 6a 3f fc 64 61 3f 88 d2 8a 3f
       1.0036464 0.915303 0.88044715 1.0845499
000150 57 70 75 3f 0a be 84 3f d4 ba 76 3f aa d2 73 3f
       0.9587454 1.0370495 0.9637883 0.9524332
000160 e5 62 ac 3f e9 d1 5d 3f 0a 0a 79 3f 8a 72 90 3f
       1.346768 0.8664842 0.97280943 1.1284955
000170 c3 2f a5 3f 29 d5 5b 3f fa b7 68 3f 95 89 a6 3f
       1.2905201 0.8587213 0.90905726 1.3010737
000180 64 21 6e 3f d8 ba 86 3f 84 3e 8b 3f a7 46 96 3f
       0.930197 1.052577 1.0878453 1.1740311
000190 43 53 81 3f 9e e0 84 3f bb f3 80 3f 61 a1 8f 3f
       1.0103534 1.0381048 1.0074381 1.1221124
0001a0 4f b5 8f 3f d5 f8 ba 3f 5b 3b 6e 3f 7e 82 5f 3f
       1.1227206 1.4607188 0.9305932 0.8730849
0001b0 65 1c 6a 3f 5e 44 8c 3f 84 fc a0 3f ee 95 36 3f
       0.91449577 1.0958364 1.2577062 0.71322525
0001c0 5e 22 73 3f 3f 52 90 3f 8c b8 73 3f 2a 99 77 3f
       0.94974315 1.12751 0.9520347 0.96718085
0001d0 f1 16 6f 3f 17 62 af 3f ae cc a3 3f 5b 76 86 3f
       0.9339438 1.370181 1.2796838 1.0504869
0001e0 8e b0 6d 3f e3 64 93 3f 05 60 8a 3f 3a 6b 6c 3f
       0.92847526 1.1515163 1.0810553 0.92351115
0001f0 b7 1c 65 3f 30 76 6f 3f bf d6 7d 3f 6a f4 83 3f
       0.8949694 0.93539715 0.991558 1.0308964

post_norm.bias f4 [128]
000000 6d 6b 92 bd d5 c6 9c bd 96 63 f7 3d 90 43 d9 3d
       -0.07149396 -0.07655112 0.120795414 0.1060859
000010 ca 82 38 bd 85 14 95 bd 58 a1 13 bd 8e ae 00 be
       -0.045046605 -0.072793044 -0.03604254 -0.12566587
000020 5e 0e 88 3c 5d ed 2b 3c 04 87 5a bc 49 a5 da 3d
       0.016608413 0.010493604 -0.013337854 0.10676057
000030 c7 cd 34 bd 85 09 20 bc d0 9a 0f be ec 1f cf bd
       -0.044141557 -0.009767895 -0.140239 -0.101135105
000040 11 9a a6 bd 7f f7 03 3d 27 33 d8 bd b6 c8 6c bd
       -0.081348546 0.032218453 -0.105566315 -0.0578086
000050 64 d9 bc bd 78 c3 7e bd ad c0 b8 3d c3 53 1b 3e
       -0.092211515 -0.062198132 0.09021125 0.15168671
000060 2c e0 b7 3d c7 58 8a bc 61 a3 03 3e 76 21 72 be
       0.08978304 -0.016888035 0.12855293 -0.23645577
000070 2e b2 71 bd a1 53 44 3d be 28 ef bc 1d 8a 27 3e
       -0.059007816 0.047931317 -0.029194232 0.1636128
000080 cf 17 0e 3e 5e f7 3d be f1 4c 60 3e 76 ba ce bd
       0.1387627 -0.18551394 0.21904351 -0.10094158
000090 8d 91 24 3e c8 26 c9 bd 1d ea 69 bc 0e 17 43 3d
       0.16071148 -0.0982185 -0.014277008 0.04762941
0000a0 1e 7c 0e be 84 85 f3 3c 35 cd 18 bd 89 56 d9 3c
       -0.13914534 0.029726751 -0.037305076 0.026530521
0000b0 53 1d 06 bd 24 6f 0c 3e 02 b9 3d bd c5 ec 2c 3e
       -0.03274281 0.13714272 -0.046319015 0.16887195
0000c0 ca e3 d6 bd 45 06 bf bd 03 dc 35 be b5 86 e8 bd
       -0.10492666 -0.09327368 -0.17759709 -0.11353818
0000d0 68 8f 98 ba 3d 5e 4a 3e 4d 10 d9 bc 3f c4 b2 bd
       -0.0011639418 0.19762512 -0.02649703 -0.08728837
0000e0 ee c2 02 bc 4f 9d fa bc d3 a9 d7 bc e1 ba dc bd
       -0.007981045 -0.030592589 -0.026326096 -0.10777832
0000f0 b9 d1 02 be 17 2a 0d bd f6 01 90 3a b9 4b 5f bd
       -0.12775315 -0.034463968 0.0010986913 -0.054515574
000100 c1 3a 9c 3d 9c 90 0c 3e 9b b2 24 be 1e d1 fd bc
       0.07628394 0.13727039 -0.16083758 -0.030983504
000110 fe fb 46 bd 21 13 03 3e 3e de 90 bc e4 8b b3 3d
       -0.048580162 0.12800266 -0.017684098 0.087669164
000120 49 70 ec bc 04 ba 86 3c 03 f5 af 3b a1 a5 c4 3c
       -0.028862135 0.016446121 0.005369784 0.02400476
000130 26 d1 ff bd 68 2e a2 bd b6 b2 15 be b0 99 48 be
       -0.12491064 -0.079190075 -0.14618954 -0.19589877
000140 7e e1 43 3d 97 90 05 3e d1 97 f2 bd d3 07 7d bd
       0.047822468 0.13043438 -0.11845363 -0.06177504
000150 41 1f 44 3d 75 32 0b be 38 37 e0 bc e7 66 d9 3d
       0.04788137 -0.13593467 -0.02737008 0.1061533
000160 e4 ba 46 bc 9d ef 74 bd 6a 38 d6 bd e8 fc f4 bc
       -0.012129519 -0.059798826 -0.10459979 -0.029905751
000170 8e e5 99 bc 7e 4e f4 3d a6 4b 9b bd fb ff 89 bc
       -0.018786218 0.11929034 -0.07582788 -0.016845694
000180 9b bf 0c 3e fc e8 d6 bd e6 12 c1 3b 7c 81 7e bc
       0.13744967 -0.10493657 0.0058921454 -0.015533801
000190 cd 61 5c 3c 54 76 38 bd 57 9e 9a bd d0 71 0c 3b
       0.013451052 -0.04503472 -0.07549732 0.0021430142
0001a0 fc ee 1a bd 23 bb b7 3d c1 3a 95 3d ba 29 04 3e
       -0.03782557 0.0897124 0.07286597 0.12906542
0001b0 b0 73 fb 3d 63 85 f8 3d b7 e6 9a bd 85 da 97 be
       0.12277925 0.121348165 -0.075635366 -0.29658905
0001c0 02 d5 fb bc fb e9 a6 bd 61 07 71 bc 9c 49 66 3c
       -0.030741218 -0.08150097 -0.014711232 0.014055636
0001d0 38 6b 04 3e f4 5a 7f bd 9b 09 42 3d cf fb 69 3d
       0.12931526 -0.0623426 0.04737244 0.05712491
0001e0 99 c5 18 be 2a d4 04 bd 11 e4 bb 3d 54 01 91 bd
       -0.14919128 -0.032428898 0.091743596 -0.070803314
0001f0 d4 14 33 be 73 55 ee 3d fc 2c 5a 3d 2d bf c1 bd
       -0.17488414 0.11637392 0.053265557 -0.09460292

input.weight f4 [128, 3]
000000 5f ba 83 3e f4 9a 01 3d d8 83 fe 3e 3e 98 39 be
       0.25728127 0.031641915 0.49709964 -0.18124482
000010 d0 62 e6 bc 5f a4 23 be d6 6e 36 3e 98 36 d0 be
       -0.02812329 -0.15980671 0.17815718 -0.40666652
000020 15 f6 d8 be 9a 66 73 3e 6a c9 65 3e b9 d3 be be
       -0.42375246 0.23769608 0.22440115 -0.37270907
000030 da 58 82 bd d3 29 04 3f 94 cc ab be 07 e7 bc 3e
       -0.06364603 0.5162632 -0.33554518 0.3689501
000040 73 68 92 3e 6f 6b d6 be a4 b6 6d 3e 6a 5a b8 be
       0.28595313 -0.4187884 0.23214203 -0.3600648
000050 03 a2 d8 3e 79 e3 3d be 76 3b 77 3d c8 ec 5f 3d
       0.42311105 -0.18543805 0.06035944 0.05466917
000060 73 c1 06 3f 5b 0d 33 be 18 12 d0 be bd 6d 06 3f
       0.5263893 -0.17485563 -0.40638804 0.525112
000070 16 00 e1 3e ee 5a df be f8 8a 6e 3d 67 04 ff 3e
       0.43945378 -0.4362406 0.058238 0.49808046
000080 21 97 f8 3e 1a 80 33 be 18 46 b2 be 95 a5 3c be
       0.48552802 -0.17529336 -0.34819102 -0.1842254
000090 83 a8 8c bd f8 3b 00 3f da a8 0b bf 2b 43 89 3e
       -0.068680786 0.50091505 -0.5455452 0.26809058
0000a0 c5 b3 46 bf 4b d3 b7 3e f7 83 b3 bd 65 31 05 be
       -0.77618057 0.3590339 -0.08765405 -0.13007124
0000b0 1e e7 94 3e 30 2c cb 3e 3d f5 bc be 4c f3 75 3e
       0.29082578 0.3968215 -0.36905852 0.24018592
0000c0 e4 ba a8 3e 63 c0 db bc f1 ff 83 3e e2 ee c2 be
       0.32955086 -0.026825136 0.25781205 -0.38072878
0000d0 86 6e ef 3e ea 24 46 be 52 88 fc 3e d1 59 14 be
       0.4676401 -0.19350019 0.49322754 -0.14487387
0000e0 2a 03 56 bd c4 72 71 be c4 7f a1 be 3b 6f ce 3d
       -0.05224911 -0.23578936 -0.3154279 0.10079809
0000f0 02 b2 be be 6d 19 ab 3e 47 08 10 3f 70 90 fb 3d
       -0.37245184 0.33417836 0.5626263 0.12283409
000100 d3 14 8c be 86 1b cd be ba 0f eb 3e 4d 06 b9 bc
       -0.27359638 -0.4006006 0.45910436 -0.022586012
000110 d7 1e 8f be 76 ea c5 be a1 4c 4c 3e e7 9c c6 be
       -0.27953216 -0.38655442 0.19951107 -0.38791582
000120 0a c1 79 3e 32 c5 a6 be 63 60 e8 be f1 3b b6 be
       0.24390045 -0.32572323 -0.45386037 -0.35592607
000130 3f 1a b5 3c 30 76 ad 3d a4 8f ee be 3d 26 c1 be
       0.022107242 0.08469808 -0.46593964 -0.37724486
000140 9b 50 04 bf da 99 f2 3d 28 3d a1 3e a6 44 1b bf
       -0.51685494 0.11845751 0.3149197 -0.60651624
000150 38 9b 04 bf c3 2d d8 bd ce ef 02 3f 4b 26 e8 3e
       -0.51799345 -0.10555603 0.5114716 0.45341715
000160 70 a4 13 3f e8 20 f9 be b3 12 9f bd c4 e3 18 3f
       0.57672787 -0.48657918 -0.077672385 0.5972254
000170 6b c2 72 3e 7a 0c 09 bf ae a9 ba be 33 61 85 be
       0.23706977 -0.5353466 -0.3645758 -0.2605072
000180 93 cb 30 be d6 37 d7 3a a9 67 df bc 61 8d 8f be
       -0.17265157 0.0016419839 -0.027271109 -0.2803755
000190 58 a7 a1 3e 49 46 88 3e 8e e8 41 3d 07 01 e8 be
       0.31572986 0.26616123 0.047340922 -0.45313284
0001a0 6c 03 0e bf f1 bb 41 3d 09 d5 87 bd 19 74 08 3f
       -0.5547397 0.047298376 -0.0663243 0.5330215
0001b0 28 e1 c5 be 4f 35 7a 3d 5f b5 1e 3f 57 a3 18 3f
       -0.38648343 0.061085995 0.619955 0.59624237
0001c0 76 50 1d 3e 5b 5f d4 be c1 51 c0 be b9 0f 10 3f
       0.15362725 -0.41479 -0.37562373 0.5627399
0001d0 9c e5 89 be 4b 77 b4 be 39 c9 9d be e8 f2 11 3f
       -0.2693299 -0.35247263 -0.30817583 0.5701127
0001e0 68 d4 ce 3e 88 0a e2 3e 78 7c 71 3e 61 44 39 bd
       0.40396428 0.4414866 0.23582637 -0.045231227
0001f0 ec 2b 57 be 38 58 bd be 91 1d 1a 3f 4f 6f 17 be
       -0.21012849 -0.36981368 0.60201365 -0.14788555
000200 8b e3 6b be 11 05 cc be f5 93 fc be 36 e0 15 3f
       -0.2303602 -0.39847615 -0.49331632 0.58545244
000210 93 57 f4 3e 60 6b 81 bd 22 93 eb 3a 24 4c 83 be
       0.47723064 -0.06319308 0.0017972926 -0.25644028
000220 e4 9a 01 bd 92 62 8e 3e 58 ec e0 bd 19 f2 0a 3c
       -0.031641856 0.27809578 -0.10982579 0.008480572
000230 58 85 88 be ff db 65 be 54 f6 ef bd 94 06 a9 be
       -0.26664233 -0.22447203 -0.11716905 -0.3301283
000240 79 50 85 3d 16 45 ed be 26 15 86 bd 59 5c 29 bf
       0.065094896 -0.4634177 -0.065470025 -0.66156536
000250 ab ab a1 3e ec a5 8f 3e 24 69 ea 3e 33 3c b5 3e
       0.31576285 0.28056276 0.4578334 0.3539749
000260 ef cc 80 be a3 0f 6b bd 4b 14 09 3a 0a 05 0b 3f
       -0.25156352 -0.05738796 0.0005229159 0.54304564
000270 09 14 89 be 1d e7 cc be c0 dd df 3e 36 a9 a6 be
       -0.26773098 -0.40020075 0.4372387 -0.32550973
000280 65 f2 88 be 4c 40 e9 bd 85 d9 a6 be 08 b3 e8 3e
       -0.26747432 -0.11389217 -0.3258783 0.4544909
000290 b1 4a 06 bf 24 e4 0c be b9 73 76 3e 99 c2 dd be
       -0.5245772 -0.13758904 0.24067582 -0.4331253
0002a0 54 8d a3 3e 20 26 98 3e f5 6b a4 be 57 7e 0f 3f
       0.31943762 0.29716587 -0.32113615 0.56052154
0002b0 2f 3a 40 be 17 a2 09 bf 7d d6 f1 be 3d 82 7a 3c
       -0.18772195 -0.53762954 -0.47233954 0.01528984
0002c0 25 55 01 3f 23 1e 90 3e b3 49 d6 be 0b ea a4 be
       0.50520545 0.28147992 -0.41853103 -0.3220981
0002d0 4a db e9 3a 9a aa 12 3f 8a 93 a6 3d c0 85 0e bf
       0.0017841842 0.5729157 0.081336096 -0.55672836
0002e0 54 8a 0b 3f 64 9c 82 3e d8 07 cc be 00 1d a6 be
       0.54507947 0.25509942 -0.39849734 -0.32444
0002f0 3b c6 24 3e 15 a4 93 3e e7 73 35 be a5 47 87 3c
       0.16091244 0.28836122 -0.17719994 0.016513655
000300 2c 35 fa bd d7 c7 f4 be d7 46 44 3d d4 a2 16 3f
       -0.12217173 -0.47808716 0.04791912 0.58842206
000310 0c 66 b5 be 3a 8a ec be d8 a2 98 bd 56 49 a9 3d
       -0.35429418 -0.46199208 -0.07452935 0.08265941
000320 e3 57 97 be ee 13 ce be d7 71 92 3e 63 a3 04 3f
       -0.2955924 -0.4024958 0.28602478 0.5181181
000330 cb 77 a5 3e a7 31 53 3e 42 7b c0 bd b8 35 46 be
       0.32317957 0.2062441 -0.093985096 -0.1935643
000340 ad c2 f9 be f8 5c 39 3f 8f 08 71 be fa bf 2a 3f
       -0.48781338 0.72407484 -0.23538421 0.66699183
000350 2c 6f e6 be 5f d6 fb be 88 d1 8a be 61 e7 e9 3d
       -0.45006692 -0.4918699 -0.27112985 0.11421085
000360 53 e5 81 3e cb e7 70 3e 9b 9c 23 bf 8d bf 83 be
       0.25370273 0.23525922 -0.63910836 -0.2573208
000370 4b 76 06 bf 37 98 6f be af 11 5a 3e 31 96 61 3e
       -0.5252425 -0.23397909 0.21295808 0.2202995
000380 a9 a8 22 3e 86 89 17 3f f1 5f 13 bf f0 0c b1 3e
       0.15884651 0.5919422 -0.5756827 0.34580183
000390 81 85 06 bd a0 c6 f6 3e 43 a4 cd bd 68 aa 10 be
       -0.032842163 0.48198414 -0.10041096 -0.14127505
0003a0 dc a3 de bd 0d 50 97 3e 1d ec ac 3e b6 0b b2 bd
       -0.108710974 0.2955326 0.3377389 -0.0869364
0003b0 ed 65 f5 be cc bc 2b be 6b 51 01 3f f1 97 81 3e
       -0.47929326 -0.16771239 0.5051486 0.25311235
0003c0 6a 09 99 be 87 2a c9 3b 7d 02 24 3f 0e d4 bf be
       -0.29889995 0.006139103 0.64066297 -0.37466472
0003d0 f3 b9 94 3e 2c 4f a2 be 96 25 72 3d e2 7b 1d 3e
       0.29048118 -0.31701028 0.059117876 0.15379289
0003e0 8b c5 db 3d 77 de 2c 3f e2 a7 05 3e ed 33 9f bd
       0.10731038 0.67526954 0.13052323 -0.07773576
0003f0 3b d6 60 be 3e 87 03 3f ba ff 81 3e 0a a6 0e bf
       -0.21956722 0.5137824 0.25390416 -0.55722106

input.bias f4 [128]
000000 d8 c5 a0 bc 2a d8 ce be 9a e9 ee 3d 4a 41 9a be
       -0.01962559 -0.40399295 0.1166565 -0.30127937
000010 4f 63 06 bd 5c e0 8a 3e c3 24 81 bd c7 53 d5 3e
       -0.03280955 0.27124298 -0.0630584 0.4166548
000020 94 c7 c5 3e c4 eb fb be 3c 1d 01 bf ca 34 ba 3d
       0.3862883 -0.49203312 -0.50435233 0.090921
000030 af 2d 26 3e b2 b5 0b 3d 07 85 fc 3e 0e b5 ae 3e
       0.16228364 0.034108825 0.49320242 0.3412251
000040 96 82 5e be 37 9c 82 bc 3a f9 c7 3e 61 3b 7e be
       -0.21729502 -0.01594363 0.39057332 -0.24827339
000050 d3 6c 88 3e cb 43 cc 3e 55 fc a1 be 8f 51 92 be
       0.26645526 0.39895472 -0.31637827 -0.2857785
000060 10 62 d0 bd 4b 76 e3 3d 4c ee f0 be 03 cc c5 3e
       -0.10174954 0.11106547 -0.47056806 0.3863221
000070 be 89 ef 3e cc c0 9e be 2a 87 87 be b1 83 c0 be
       0.46784776 -0.31006467 -0.2647031 -0.37600473
000080 16 02 56 be 33 7f 88 3d e8 ed 8d be 45 21 8d 3d
       -0.20899233 0.06664886 -0.2772057 0.06891111
000090 d6 de 7e 3e ee a7 c0 3d aa e6 89 be 0a 25 94 bb
       0.24889693 0.0940703 -0.26933795 -0.004521017
0000a0 d3 42 37 3e 7e ca a3 3e 54 40 1e bd 2a 8c b5 be
       0.17896585 0.31990427 -0.038635567 -0.354585
0000b0 46 3d 8c be db 18 d7 bd d9 e1 25 3e 72 cb 10 3e
       -0.27390498 -0.10502788 0.16199435 0.14140108
0000c0 21 bd 9a 3e 50 99 51 3e 8f 46 42 3f 06 8c 02 3f
       0.3022242 0.2046864 0.75888914 0.5099491
0000d0 39 e8 66 be bf 44 f6 3c e2 28 8e 3e f8 be ea 3e
       -0.22549523 0.030062078 0.27765566 0.45848823
0000e0 19 af 29 be 21 fe cd 3d 75 15 21 3d f3 a0 ae 3e
       -0.165707 0.10058237 0.039327104 0.3410717
0000f0 ea a3 18 bf fc 21 f4 bd 20 56 ae be 23 8b e7 3b
       -0.59625113 -0.119205445 -0.34050083 0.007066147
000100 02 df ea 3d 73 38 ff be ae 30 60 3e 07 9a c9 3d
       0.114683166 -0.49847755 0.2189357 0.098438315
000110 9d b4 8c be ee 78 15 be 95 c6 83 bc 91 7c 3e be
       -0.27481547 -0.14596912 -0.016085902 -0.18602206
000120 17 79 3c 3d 3a d0 c7 3e b7 ca dd be d9 65 4e be
       0.046013918 0.39026052 -0.43318722 -0.2015604
000130 cc 91 04 3f 69 69 df 3c e1 c7 38 3e d9 28 bd 3e
       0.5178497 0.027271943 0.18044998 0.36945227
000140 85 60 7a be 07 8e 04 be 60 ff 1b 3e 88 6c b0 be
       -0.24450882 -0.12944804 0.15234137 -0.34457803
000150 8a 60 06 3e 2e 7f 82 3d 5a 46 b0 3e 48 c5 6b be
       0.13122764 0.06371914 0.34428674 -0.23024476
000160 75 7f b4 bc 72 11 ea 3e 1c d5 b1 3e 16 3e 09 be
       -0.022033432 0.45716435 0.34732902 -0.1340259
000170 57 3f fd 3d 5d 78 ad be dd 07 d9 3e d2 18 c4 be
       0.12365597 -0.33880892 0.42388812 -0.38300186
000180 1b 08 f0 be 15 9e f6 be 63 c6 a9 3e 83 84 08 bd
       -0.46881184 -0.48167482 0.3315917 -0.033329498
000190 1f bf 51 3e 76 b5 ae be e1 b0 6c 3e 1c af 21 3e
       0.20483063 -0.3412282 0.23114349 0.15789455
0001a0 7b c5 91 3e 98 cf 2f 3e c9 86 1c bd 54 19 a7 bd
       0.28470978 0.17169034 -0.03821448 -0.08159128
0001b0 2d 35 94 be c7 75 a2 bc 45 6b 31 bf 40 8a 9f 3d
       -0.2894682 -0.019831551 -0.69304305 0.07790041
0001c0 fd ef c2 be d9 65 c7 3e ba 78 c1 be c2 ef 92 bc
       -0.38073722 0.3894489 -0.3778742 -0.017936591
0001d0 2b 92 21 be 92 b0 39 3c d8 a9 84 3d 84 38 e4 3c
       -0.15778415 0.011333602 0.064777076 0.02785898
0001e0 65 bb 59 3e c7 da af 3e ee aa bc be 37 ec 14 be
       0.21262892 0.343466 -0.3684916 -0.14543234
0001f0 7d a6 4d 3e f2 b0 b0 bd 4d 98 e0 be ac d5 c8 3e
       0.20083041 -0.086275 -0.43866196 0.3922552

mapping_layers.0.D f4 [1, 128]
000000 03 47 91 be 37 12 1b 3e a2 91 36 be 44 1e f3 bf
       -0.2837449 0.15143667 -0.17828992 -1.8993611
000010 a8 ba 4e 3c 38 a5 13 bf 95 80 8e 3f fa c9 99 3e
       0.0126177445 -0.5767398 1.113299 0.30036908
000020 d7 86 54 be 48 1f 27 3f c3 8b dd be 87 1d 58 3f
       -0.20754562 0.65282106 -0.43270692 0.84420055
000030 ad 99 28 3e ea 41 92 3f cb ef 91 bf f3 8c d9 be
       0.16464873 1.1426365 -1.1401304 -0.42490348
000040 38 25 a0 bf f5 50 3d c0 ed b5 2d 3f b8 2f 3f bf
       -1.2511358 -2.9580662 0.6785572 -0.7468219
000050 52 17 09 3f f3 dd 19 bf 65 52 c0 be 6f 70 2b bf
       0.5355121 -0.6010429 -0.37562862 -0.66968435
000060 62 02 6f bf e5 3f 0b bf 8f b8 c3 bf 31 47 c3 bd
       -0.9336301 -0.5439437 -1.5290698 -0.09535063
000070 c0 2e 34 3f 68 05 49 3f e7 d5 1c bf 84 3f 77 3f
       0.70383835 0.78523874 -0.6126389 0.9658129
000080 ad 77 3e 3e 37 b2 01 40 6a 35 c7 3e df a7 26 3f
       0.1860034 2.0265024 0.3890794 0.650999
000090 12 50 b3 3f ca 13 02 c0 8d 2e 03 bf 44 23 33 bf
       1.400881 -2.0324578 -0.51242906 -0.69975686
0000a0 3e 95 b9 3e aa 16 79 bf 8b a5 8c bf b5 e2 a9 bd
       0.36246675 -0.9730021 -1.098802 -0.08295194
0000b0 a6 9a 4c 3f fa 73 0a be 05 f2 35 3e 7b 4f 2e 3f
       0.79923475 -0.13520804 0.17768104 0.6809003
0000c0 d2 b0 ca 3e 04 33 30 bf 4c 72 4e bf 27 93 33 be
       0.39588028 -0.68827844 -0.80643153 -0.17536603
0000d0 b5 69 d5 3d c3 ca 94 3f e7 4c 0c bf 62 fd 23 bf
       0.10420553 1.1624378 -0.54804844 -0.64058506
0000e0 4f d4 1a 3f 85 49 f7 3f 0c 95 e1 3e fe b9 20 3f
       0.6048021 1.9319311 0.44059026 0.627838
0000f0 5a 06 cd bf a2 56 5e be 67 17 1e bf 10 0c 0a 3f
       -1.6017563 -0.21712735 -0.6175446 0.53924656
000100 b9 08 52 3d 5e 17 c1 bf b3 3f 1f bf 6d c1 e8 3f
       0.05127785 -1.5085256 -0.6220657 1.8184029
000110 4c 35 8e bf 0f 11 ef bf 68 2f e0 3f af 92 46 bf
       -1.1110015 -1.8677081 1.7514467 -0.7756757
000120 13 80 fd bf e5 f1 ad 3f 0d 8c 1c 3f ca 7c 72 3e
       -1.980471 1.3589445 0.611512 0.23680416
000130 fc 97 8c be 69 91 63 bf b9 fc 9a 3f a2 c6 8a bf
       -0.27459705 -0.88893753 1.2108375 -1.0841868
000140 0b 93 ef be 57 80 74 3e 92 f4 81 3f da 26 46 3f
       -0.46791872 0.23877083 1.0152762 0.7740303
000150 61 51 29 3f 3f 48 fb 3d 93 b1 32 3f a5 b6 df be
       0.661398 0.12269639 0.69802207 -0.43694034
000160 35 68 b0 3f 9d 3c c0 3f 8d 94 24 3f 4a f2 b7 bf
       1.3781801 1.5018498 0.6428917 -1.4370816
000170 e7 92 fe 3e 9f d7 ea bd b4 81 68 bf 51 e1 8c bd
       0.49721453 -0.11466908 -0.9082291 -0.06878913
000180 66 d5 98 bf dd c2 25 3f 44 92 89 bd 99 d6 27 3f
       -1.1940124 0.6475046 -0.06717351 0.65561825
000190 f3 4f 07 40 e9 18 5b be 77 6d 50 3e f5 32 9c bf
       2.1142547 -0.21396221 0.20354258 -1.2203051
0001a0 6b 0d bc 3f aa f0 be be 5b 25 17 bf c5 01 06 bf
       1.4691595 -0.37292987 -0.59041375 -0.5234645
0001b0 1d 5f 86 3e 12 87 36 3f 43 c8 64 bf 92 cc 99 bf
       0.2624444 0.7129985 -0.89368075 -1.2015555
0001c0 3b c2 66 bf 50 23 e0 3e 0a 8b ac 3f fe 9c 06 bf
       -0.9014012 0.4377694 1.3479931 -0.525833
0001d0 6d cd 0c 3f 75 82 f7 be 04 bb b3 bf 36 84 fb be
       0.55000955 -0.48341718 -1.4041448 -0.49124306
0001e0 25 86 df 3e 7c 62 8f be ce 40 a9 bf 11 0c 50 bf
       0.43657032 -0.28004825 -1.3222902 -0.8126841
0001f0 93 b7 7e bf 66 9f 14 3f 63 03 50 be 45 6a e0 bf
       -0.9949886 0.5805572 -0.20313792 -1.7532431
